conditioned_layers/experiments/baseline_hypernet_cifar/results/lr_0.002_wd_0.0005_t_8_state_size_64/model.pth (torch_old, 472218 bytes, 402 tensors)

conv1.weight f4 [16, 3, 3, 3]
00000000: 83d3 b2be 2c6f d2bf a543 b2bd d034 fcbe
00000010: e6f7 8dbf 2e96 3e3d a7da 5dbf 8afc c33e
00000020: 02d7 a6be da98 963e 72ae 82bf 99e0 ebbe
00000030: 853b 983f a4a1 9a3f 3bff 693e eacf 0a3f
00000040: de69 2c40 5ee5 a2be b3bc 3fbf baec 42bf
00000050: 0457 a0be 7f38 7c3d 83f9 5c3f d82c 3d3f
00000060: d6cd 44bf e1ad 9b3f 22d2 b9be 889b 86bf
00000070: a95f 673e 7612 3abe 91b2 86be 22d6 df3e
00000080: cbdf a03f 04a8 093f d6f7 d73f fabb 1a3f
00000090: 5f43 023f 2f94 64bf ee92 47bf 7a5c eebe
000000a0: bcc7 55c0 be32 85be 3cfb 89be b1c2 23bf
000000b0: 7c12 cf3d b517 4e3f 2f11 a13f 754f e1bd
000000c0: 91e8 523f a146 d8be efc4 003f ba5e 40be
000000d0: 669b 04bf 4912 debe 2f65 d0bd f821 ccbc
000000e0: 6c01 923f 810b 89be 031a 573f d103 80bf
000000f0: 7bfa 54bf 9ddb dcbd fe29 2b3f ed05 843e
00000100: a5be 28bd 4a24 8fbf 295a 983f 9fef 7a3f
00000110: 3ce3 31c0 e27c 6f3e 1cdc 763e 63e2 9ebd
00000120: 4b82 043e db2e 0e3e 337f 45be 62d2 873f
00000130: f1ee 433f f563 ffbf 3b9f 113e 0182 773f
00000140: d564 7abe cfff 433f 7076 83bf aec1 b3bf
00000150: 4533 f03f a9a4 08be c313 86bf 6fad 7e3f
00000160: 4c25 67be d449 ccbe 1015 8b3e f5d6 d1bf
00000170: f963 61bf 409e c13f 4b09 36bf 3cb8 b5bd
00000180: 5ac6 7f3f d680 653e 54b7 663f 0437 fcbe
00000190: 6919 8abf c180 fc3c 18e6 473e bd31 f8bd
000001a0: 7366 8b3f 4bec 58bf 1c8a 5b3b 211c 523f
000001b0: b6c8 2d3f 8fed 203c e19b 413e aa9c 083f
000001c0: c887 d93f 5276 ad3e b253 1a3f 01dd 313f
000001d0: e50d 45be df2c 16be aa5f a1bf 50da 8dbf
000001e0: 1a32 dcbf b474 88bf 32a6 cabf 253f d3be
000001f0: 7c65 dbbe d561 e5be bea7 313f c260 163f
00000200: 7315 23be e078 7c3f 4813 0e40 1672 983e
00000210: 0181 2e3f c49c 933f 1335 d83e 31c4 973f
00000220: 6302 10bf 4e62 923e c862 38bf 1171 fdbf
00000230: 2b6e e4be 4565 42bf 6141 f3bf 37c2 76be
00000240: 84f9 3a3e fdfa 9abe 6995 c7be b9c7 18be
00000250: 96f5 a0bd d8c6 843d dcd1 193f d116 97be
00000260: ebde d6bd f5c0 84be 23c9 7e3d 8f91 dbbe
00000270: 0405 cd3e 968b 1a40 0436 513f d6c2 733f
00000280: fca0 cb3f 7a49 013f 9360 a9bd c8c3 a63f
00000290: bb61 913e 9153 afbd 3f27 0bc0 fef4 04bf
000002a0: 9670 5cbe 74d3 57bf 5dc3 d2be c31c dabe
000002b0: 4679 ae3e 2dda f7be 1853 5a3e 2604 f8bf
000002c0: 4288 e2bb 7f2f 323d a486 52bf 4e58 29bf
000002d0: 4e01 503d 81e5 cf3f 1a5f 503d d86e ab3f
000002e0: 09cd d53d 8486 f63f c30f db3d 9142 e9bd
000002f0: b08c 753f 1fef 94bb 8a5e 1c3e cf05 413f
00000300: ece9 ebbf 4f6d f0be 9b7d f83f eaa8 d93c
00000310: 8bc6 09bf 7482 2b3f 22fa b63e d9d8 e0bd
00000320: 8202 64be 8e08 91bf e44b aebe db97 c53f
00000330: 81b2 8b3d 1087 bebf 76a2 34bf 41a8 5b3f
00000340: 89bd 413f 783a a5bf dc80 6abc 9a55 cd3f
00000350: b087 953f c331 88be d9dc 6cbe 704b 76be
00000360: 8943 7dbc 9f15 5f3e 9c60 823c a6e0 4dbf
00000370: d9c0 1340 ed44 82bc 30bf 57bc 61f6 9a3f
00000380: 4f7f 2dbf 4762 76bf b130 45bf 39f8 333f
00000390: b0d4 30c0 832e 1e3c f2f6 62be a315 6abf
000003a0: 9a2e a13d e6f5 343f 22a5 ff3e 4e17 60be
000003b0: 8ac6 923e cbdb 17bf 85e0 923f d1ab aebd
000003c0: ed64 e43e 56ec 733f cabb 41be a414 c53f
000003d0: f78c fa3f a238 5d3f 7fbc 6fbe a17f 9f3d
000003e0: 57fe 86bf 4c87 013f c5f6 9cbf 4033 a8bf
000003f0: b182 693f de3c dd3f 026d 383f 38d7 74bf
-0.34926996 -1.6440177 -0.087043084 -0.49259043 -1.1091278 0.04652994 -0.8666176 0.3827861
-0.32585913 0.2941349 -1.0209486 -0.46069792 1.1893164 1.2080579 0.22851269 0.542235
2.6939616 -0.31815618 -0.7489731 -0.76142466 -0.31316388 0.061577316 0.86318225 0.7389655
-0.7687658 1.2162439 -0.3629313 -1.0516214 0.22595085 -0.18171105 -0.2630811 0.43718058
1.2568296 0.53771996 1.6872509 0.6044308 0.5088405 -0.8928861 -0.7795857 -0.4655493
-3.3403158 -0.26015276 -0.2694949 -0.6396895 0.101109475 0.80504924 1.2583369 -0.11001483
0.8238612 -0.42241386 0.50300497 -0.18786135 -0.5179962 -0.43373325 -0.10175549 -0.024918541
1.1406684 -0.2676659 0.84024066 -1.0001165 -0.831947 -0.107840754 0.6686095 0.2578577
-0.041197438 -1.118295 1.1902515 0.9802188 -2.7794943 0.23387483 0.24107403 -0.077580236
0.12940328 0.13885061 -0.19286804 1.0611079 0.7653647 -1.995238 0.14220898 0.96682745
-0.24452527 0.7656221 -1.0270519 -1.4043481 1.8765646 -0.13344063 -1.0474781 0.9948339
-0.22572821 -0.39900076 0.27164507 -1.6393725 -0.8804317 1.5126419 -0.7110793 -0.088730305
0.99912035 0.22412428 0.90123487 -0.49260724 -1.0789005 0.030823113 0.19521368 -0.12118862
1.089064 -0.84735554 0.0033499068 0.8207417 0.67884386 0.009822263 0.1890712 0.5336405
1.6994562 0.33879334 0.6028396 0.6947785 -0.19243582 -0.14665554 -1.2607319 -1.1082249
-1.720279 -1.0660615 -1.5831969 -0.41259113 -0.42850864 -0.44801202 0.6939658 0.5874139
-0.15926151 0.9862194 2.2199268 0.2977454 0.68165594 1.1532216 0.42227992 1.1856748
-0.5625364 0.28590626 -0.7202573 -1.980013 -0.446153 -0.75935775 -1.9004327 -0.24097525
0.18259245 -0.30269614 -0.38981178 -0.14919938 -0.07859342 0.06483239 0.60085845 -0.29509595
-0.10491737 -0.25928465 0.062203538 -0.4288449 0.4004289 2.4147696 0.81723046 0.9521917
1.5908504 0.5050274 -0.08270373 1.3028498 0.28394875 -0.08560861 -2.1742704 -0.5193633
-0.21527323 -0.84307027 -0.41164675 -0.42600068 0.340769 -0.48408642 0.2132076 -1.9376266
-0.006913216 0.043502327 -0.82236695 -0.6615037 0.050782494 1.6241914 0.050871946 1.3393202
0.10439498 1.9259801 0.10696366 -0.1138965 0.959178 -0.004545107 0.15270439 0.7539949
-1.8430762 -0.46958396 1.9413332 0.026569802 -0.5381858 0.6699593 0.3573771 -0.109788604
-0.22266582 -1.1330736 -0.34042275 1.5436968 0.06821156 -1.4884968 -0.70560396 0.8580361
0.7567983 -1.2908468 -0.014312949 1.6041749 1.1682034 -0.26600465 -0.23131122 -0.24052215
-0.015457996 0.21785592 0.015915208 -0.8042091 2.3086455 -0.015902007 -0.013168141 1.2106439
-0.6777238 -0.9624371 -0.7702742 0.7030063 -2.7629814 0.009654644 -0.22164515 -0.91439265
0.07870217 0.7068771 0.49930674 -0.2188389 0.28667098 -0.5931975 1.1474768 -0.08528865
0.4460825 0.95282495 -0.18919292 1.5396924 1.9574269 0.8641454 -0.2341175 0.07788015
-1.0546368 0.5059707 -1.2262808 -1.314064 0.91215044 1.72842 0.7204133 -0.956409

conv1.bias f4 [16]
00000000: 8559 fabe 93e6 113f d31c 4d3f 811a 85be
00000010: 69e3 18be 4b34 9ebe f889 273f 0d95 093f
00000020: d8f6 313f 193d 28bf 0631 8dbd 8681 4abf
00000030: bc9d a3be 03b1 3cbe f8b5 f53e 8da1 c13e
-0.48896423 0.56992453 0.8012211 -0.25996783 -0.149305 -0.3089927 0.654449 0.5374306
0.6951728 -0.6571823 -0.06894116 -0.7910389 -0.3195628 -0.184269 0.47990394 0.37818566

bn1.weight f4 [16]
00000000: 2755 303f d3ba 423f 8e59 613f ec7e 3e3f
00000010: b976 143f 95c7 1f3f edfe 153f 8632 163f
00000020: 8376 463f b3b0 4e3f d219 8d3f f429 493f
00000030: 0a33 313f b13f 333f 3e10 b93f 4291 333f
0.6887993 0.7606632 0.88027275 0.7441242 0.57993656 0.62413913 0.5859211 0.5867084
0.77524585 0.8073837 1.1023505 0.7857964 0.69218504 0.7001906 1.4458082 0.7014352

bn1.bias f4 [16]
00000000: 361c bb3e 8879 543e 804f 693f 4848 313e
00000010: 5c13 283e 38d6 c13e 71cd b53d 5c0c d63e
00000020: 1015 e53e 40b1 913e 6a38 b3be 6d25 393f
00000030: 8096 463f b40e 44bd f0aa 3fbf 68fd 603f
0.3654496 0.20749485 0.9113693 0.1731273 0.16413635 0.37858748 0.088770755 0.41806304
0.44742632 0.28455544 -0.35003978 0.7232273 0.77573395 -0.047865584 -0.74870205 0.8788667

bn1.running_mean f4 [16]
00000000: bb5f 2bbf 0518 883f 5061 3d3f 77f7 ffbd
00000010: 7262 70bf f38e 8abe 1b23 883f a416 a43e
00000020: a1ab 0a3f d8bf 0bbf a7a5 683f 2491 37bf
00000030: da1e 83be a8b5 803f 59e5 0140 516e 773e
-0.6694295 1.063233 0.7397661 -0.12498372 -0.93900216 -0.27062187 1.0635713 0.32048523
0.54168135 -0.54589605 0.90877765 -0.7170584 -0.25609475 1.0055437 2.0296233 0.24163176

bn1.running_var f4 [16]
00000000: 5e58 a741 93e4 0141 8a9e 8941 ace5 f741
00000010: 5104 ea41 a561 9a41 686f a241 ba0a 8341
00000020: 6d26 7741 af16 cf41 bb7d ca41 0f53 cc40
00000030: efe5 b540 66cc 5042 0eec 6042 9829 b840
20.918148 8.118304 17.202412 30.987144 29.252108 19.297678 20.304398 16.380238
15.446881 25.886076 25.311392 6.385139 5.684318 52.199608 56.230522 5.7550774

hope.w1 f4 [64, 144]
00000000: 820f 393f 5405 9b3f 4ed3 0d3f 5921 d13e
00000010: 1d4f 873e 61f2 b43f 4804 5cbf 741f 10bf
00000020: 7584 0240 a479 4740 8b83 c0bd 9ab7 f6bf
00000030: 3d1d 1740 04a6 2e3f 210f cabf 30f6 57bf
00000040: 2175 7fbf 9396 b2bf 2ff7 6b3e 2e50 d73e
00000050: a0bb 653f e4c8 f6be 62e2 b6bf 0f81 54bf
00000060: e22d 0a40 a595 dbbe 7154 3ebf 3fbe 983e
00000070: f6eb dcbf 2c9e 07bf e8de a5bf 22c7 9abf
00000080: 3a5f edbe fd17 f93e f3b7 43bf 33ed 30bf
00000090: 2788 213a 7e6c 43bf f496 14bf 26e0 a53d
000000a0: 34e1 bfbf 2622 1bbf 81ac f93d b7bf cf3d
000000b0: 0607 17bf 5473 3f40 4efa f83f 9d9b 0440
000000c0: 65be 193e 28bd da3f 75b0 923f 0040 49c0
000000d0: 1ebc 06c0 09e6 733e 82ff b83f 399a 3c3f
000000e0: 39a0 1ebf b518 83bf 9451 4abf 4801 ccbd
000000f0: 3f79 febf 3c37 cd3f 4029 3a3f da49 6d3f
00000100: 45ed 4d3f ae66 913d 03e0 56bf e4fe ecbf
00000110: 612a 463e 8873 ecbf 1487 aabf b2bc 92bc
00000120: 053d a7bf 66b8 c1bf b862 8cbf ad27 53bf
00000130: cb45 ec3e c6a8 6d3f 1be2 bbbf 6693 06bf
00000140: 9cf7 2440 e1b9 b5be 49f7 5b3f 0695 f3be
00000150: 8460 afbe 7450 fcbe eb9b 18bf cfea e63f
00000160: 7e08 793f be95 d1bf 75ec 163f f10b f9be
00000170: eea4 cebf d74d 5a3f 8461 a3bf 9aa7 a7bf
00000180: e577 933e 4637 25be bf52 84be 0bee be3e
00000190: 096a 813e 706c 0ebb 70c8 3abf 3bc7 09c0
000001a0: 2c60 1abf f9eb 46be 0920 17c0 85da acbf
000001b0: d91a d73f 17fd 2b40 c6bc 283f c5c2 1140
000001c0: 6434 fd3f 440d f43f 5a8c bfbd b868 853f
000001d0: 43e9 1140 3418 903e f0ae 8ebf ea15 02bf
000001e0: baaf 7fbf fe88 313f b431 ef3d 0c9c 1ebf
000001f0: a92e eb3f df47 0640 d185 133f cfb1 013e
00000200: 87ce cb3e 60e8 afbe 36e4 e13f 95c7 c73f
00000210: ca79 f1bf 45f4 a3be 15af c23e d937 6cbf
00000220: fcc6 20bf ec78 e23e cf55 a13f 4ee6 0340
00000230: ca54 523f 5b1a 263d 0b83 b13f 1081 ec3f
00000240: b25a d8bf fdcc a8bf 2631 f63f 65c3 fabe
00000250: 5d04 02bf 7f1a a6be 52a7 77bf 67c4 b8bf
00000260: a462 88bf 9f51 c1be 4629 3440 1414 e43f
00000270: 865e b73f f2ff 1f3f 8c62 31bf 3329 7cbf
00000280: 6709 383f 2484 033d 830c 82bf 4ea4 1ac0
00000290: 2654 39bf 0b09 12c0 1150 2dbf e756 9fbe
000002a0: b902 433e d224 493d 9df9 8a3e 5a33 0940
000002b0: 01d5 ba3f 9578 a33f 7894 593f 0a92 cebf
000002c0: fd28 5e3f fd73 7ebe 2593 5ebf 001f 67bf
000002d0: b112 11bf f048 ef3e a181 1a3f 8070 0cc0
000002e0: b554 32bf f285 133f c983 5cbf b610 b3be
000002f0: 6f63 8ebd 3b20 573d ba28 513f d33a 42bf
00000300: 2f18 d63f 0284 0d40 1906 0cbf 9c87 a3bf
00000310: 6881 c83f a379 873f 5d5c 96be 1ecb f93f
00000320: a08a 243f 89df a13e 0fb3 54c0 1c39 b2be
00000330: 4057 a63f 7b67 b83f 147c c8be 4615 0fc0
00000340: 88c7 80bf 747e 24bf 072a 86bf 613c a0be
00000350: 25fe 28bf acbd 2d3f b62a 28bf 4654 593f
00000360: e7bf 693f 156b 94bf 221a be3e 6995 553f
00000370: 53f5 d2bc 32fc 5c3f 1b06 74bf d767 7c3f
00000380: 378e 7abe ad9a b63f 640d 6ebf a6d7 73bf
00000390: e251 9ebf fbbc 2d3d bae2 723e d81e 2dbf
000003a0: ef6a 5abf a817 3b3f 5a82 edbf 5993 edbf
000003b0: bcde b83f bae9 1ec0 c606 893e 3f9a 96be
000003c0: a293 b6bf c187 8ebf 631f a8bf 4b74 3abf
000003d0: 293b 47bf 2cd1 31be f013 b9bf 7547 b63f
000003e0: c633 9a3d ffe1 4dbf 6a88 8a3e 9172 d73f
000003f0: 6f59 e1bd 520e 923f d4d3 bcbf 2e14 013e
0.7228929 1.2111001 0.5540055 0.40845755 0.26427546 1.4136468 -0.8594403 -0.56297994
2.0393345 3.1167994 -0.0940009 -1.9274781 2.3611596 0.6822207 -1.5785867 -0.8436003
-0.997881 -1.3952202 0.23043512 0.4205336 0.8973942 -0.48200142 -1.4287837 -0.8300943
2.1590505 -0.42887607 -0.743476 0.29832646 -1.725951 -0.52975726 -1.295865 -1.209202
-0.46361715 0.48651114 -0.7645256 -0.6911194 0.0006161951 -0.7633742 -0.58042836 0.080993935
-1.4990602 -0.6059898 0.12191106 0.101439886 -0.5899509 2.991414 1.9451387 2.071998
0.15014036 1.7088976 1.14601 -3.1445312 -2.1052318 0.2381822 1.4452975 0.73672825
-0.6196323 -1.0241915 -0.7903073 -0.09961182 -1.9880751 1.6032481 0.7271919 0.92690814
0.8044017 0.07099663 -0.83935565 -1.8515286 0.19352104 -1.8472757 -1.3322473 -0.017912243
-1.3065497 -1.5134399 -1.0967627 -0.82482415 0.46146998 0.9283565 -1.4678377 -0.5256866
2.5776129 -0.35493377 0.859242 -0.47574633 -0.34253323 -0.4928013 -0.5961291 1.8040408
0.97278583 -1.6373823 0.58954555 -0.48641923 -1.6144083 0.85275024 -1.2764134 -1.3098023
0.2880241 -0.16134366 -0.2584438 0.37290987 0.2527621 -0.0021732114 -0.72962093 -2.152785
-0.60302997 -0.19425954 -2.3613303 -1.3504187 1.6805068 2.6873224 0.65913045 2.2775128
1.9781613 1.9066548 -0.09352942 1.0422583 2.2798622 0.28143466 -1.1147137 -0.5081469
-0.9987751 0.6934966 0.11679402 -0.6195686 1.8373615 2.0981367 0.5762606 0.12665485
0.39806005 -0.34356976 1.764777 1.5607783 -1.8865292 -0.320223 0.38024202 -0.92272717
-0.62803626 0.4423288 1.2604312 2.0609317 0.8216063 0.04055248 1.3868116 1.8476887
-1.6902678 -1.3187557 1.9233749 -0.489772 -0.5078791 -0.3244209 -0.96739686 -1.4434937
-1.0655103 -0.37757584 2.8150191 1.7818627 1.4325721 0.62499917 -0.69290996 -0.98500365
0.71889347 0.03210844 -1.0160068 -2.4162784 -0.72394025 -2.281802 -0.67700297 -0.3112099
0.19044007 0.04910738 0.27143565 2.1437593 1.4596254 1.2771174 0.8499217 -1.6138318
0.86781293 -0.24848934 -0.86943275 -0.9028168 -0.56669146 0.46735334 0.6035405 -2.1943665
-0.696605 0.5762626 -0.8613859 -0.34973687 -0.06952559 0.05252097 0.8170277 -0.7587101
1.672613 2.211182 -0.54696804 -1.277576 1.5664492 1.0583996 -0.29367343 1.9515111
0.64274025 0.31615856 -3.3234289 -0.34809196 1.2995377 1.440658 -0.39157164 -2.2356734
-1.0060892 -0.6425545 -1.0481576 -0.31296065 -0.66012794 0.6786754 -0.6569017 0.84894216
0.91308445 -1.1595179 0.37129313 0.83431107 -0.025751745 0.8632232 -0.95321816 0.9859595
-0.24468313 1.4265953 -0.9298918 -0.9525093 -1.2368739 0.042416554 0.23719302 -0.6762519
-0.8531942 0.7308297 -1.8555405 -1.8560592 1.4442973 -2.4830155 0.2676298 -0.29414555
-1.4263804 -1.1135179 -1.3134578 -0.728337 -0.77824646 -0.17364949 -1.445921 1.4240557
0.07529406 -0.8042297 0.270572 1.6831838 -0.11003386 1.141062 -1.4752145 0.12605354

hope.b1 f4 [144]
00000000: 26c8 6abf 9dc6 6abe 17b6 1dc0 eac3 913f
00000010: 7ffb c7be 38d4 24c0 46cf 773f e9cc e9bc
00000020: 3aa1 87bf d5db 35c0 eebf c4bf 8309 77c0
00000030: d943 d43e 8a7c 1140 7041 9bbe 052e 23c0
00000040: 8717 cb3e 413b 0f3e 0e26 a83d e53c 513f
00000050: 9055 78bf 9ef8 4e40 b75e 8b40 908c d03e
00000060: ce54 c6be 9c7d e03f 9b86 5dbf d4f1 ddbf
00000070: efd0 333f 5921 9f3f 8353 a83f 5646 3b40
00000080: 2528 fa3f b50f 30c0 9b21 30be 967d b93e
00000090: 7dc0 7abf 4b7e 1fbf 8ecf bebe 7105 6ebe
000000a0: 6eb5 67be 3d05 f9bf df9d 0ec0 da75 33bf
000000b0: 63ad f8bf d5c6 e5bf 5532 1ac0 875a 72c0
000000c0: 1813 aa3f 3bf5 943f d88d 183f e311 a7be
000000d0: 429c be3f 681c 6e3f b83f 9ec0 a664 b6bf
000000e0: a8cd 4cc0 6d31 f8bf 7021 c8bf c6fe 02c0
000000f0: bdd0 5bc0 9071 31c0 f722 d5be d3c4 77bf
00000100: 6d64 9ebf b108 c0c0 b804 44bf 469a 0c40
00000110: 9374 98bf a4c2 19c0 d736 15bf 0d69 5fc0
00000120: f82d 03c0 d4c5 37be bd9c e5bd b762 103f
00000130: c96f d7bf 21a5 0ebe 0d07 90be d697 453f
00000140: 202c 4040 8ed3 26c0 0f6a 93c0 7594 68c0
00000150: d552 ce3f daab f23e 17f2 72bf a36d 12c0
00000160: 8177 2bc0 ab1e 2ec0 e62b 99c0 f709 83bf
00000170: f46f bebf 5a91 74bf a669 f3bf 1868 b1bf
00000180: 7464 953e 9ba5 2fc0 de8a a4be f328 12c0
00000190: 61a1 893e 301d af3e 8f1a bb3f 8869 7140
000001a0: b901 663e 724f c8be b3a1 6440 6ef9 843f
000001b0: 0a59 233f 8394 d33f caec f3bf 09fd e53f
000001c0: 3f66 0840 1cd4 e13e 1d3c 99bf 4b78 31bf
000001d0: 6a39 38c0 f94d 5fc0 11ab f7bf 8121 18c0
000001e0: c0b2 9a3e 82af 5a3f 866c 45c0 da3c a2c0
000001f0: e662 55bf 23cd 34c0 9609 173f e22c d4bd
00000200: a577 7bbf d3f1 4e40 2455 db3f 578b 4440
00000210: 03c2 5cbf 89cc 6740 1d87 a73f 7682 a3c0
00000220: 1c89 f4bf 954c 00c0 65f0 893f 4b50 3540
00000230: 559d 0340 0392 99bf 5680 1840 ae1b 743f
-0.9171165 -0.22927327 -2.464239 1.1387913 -0.39059064 -2.5754528 0.9680065 -0.028540092
-1.0596077 -2.8415425 -1.5371072 -3.8599555 0.41458014 2.2732263 -0.30323362 -2.5496838
0.39666387 0.13987447 0.08210383 0.8173354 -0.9700556 3.2339244 4.355312 0.4073224
-0.38736576 1.7538333 -0.86533517 -1.7339425 0.7024068 1.2432052 1.3150486 2.926168
1.9543501 -2.7509587 -0.1720032 0.36228627 -0.97949964 -0.6230208 -0.37267727 -0.23244263
-0.22627804 -1.9454724 -2.2283857 -0.701017 -1.9427913 -1.7951304 -2.409322 -3.7867754
1.3287077 1.1637338 0.59591436 -0.32630834 1.4891436 0.93012094 -4.945278 -1.4249465
-3.2000523 -1.9390084 -1.5635204 -2.0468001 -3.4346154 -2.7725563 -0.4162824 -0.96784705
-1.2374398 -6.001061 -0.765697 2.196916 -1.1910576 -2.402505 -0.58286804 -3.4907868
-2.0496807 -0.17946559 -0.11211536 0.56400627 -1.6830989 -0.13930179 -0.2813038 0.7718481
3.0026932 -2.6066623 -4.6066966 -3.634061 1.6119028 0.47396737 -0.9490065 -2.2879417
-2.679169 -2.7206218 -4.7866087 -1.0237416 -1.4877915 -0.9553429 -1.9016616 -1.3859892
0.29178202 -2.7444828 -0.32137197 -2.2837493 0.26880935 0.34201956 1.461748 3.772066
0.22461595 -0.39123112 3.5723693 1.038862 0.6380774 1.6529697 -1.9056637 1.7967845
2.1312406 0.4410714 -1.197147 -0.6932418 -2.8785043 -3.489134 -1.934908 -2.377045
0.302145 0.85424054 -3.0847487 -5.069928 -0.8335403 -2.8250206 0.58999 -0.10360123
-0.9822944 3.2335098 1.7135358 3.0710046 -0.8623354 3.6218588 1.3088108 -5.1096754
-1.9104342 -2.0046742 1.0776488 2.8330257 2.0564778 -1.1997684 2.382833 0.95354736

hope.w2 f4 [64, 1024]
00000000: 406b 64bf 97df 05c0 b1a6 133f 9c8a 48be
00000010: d7c9 563f 3237 9340 ec39 c03f a2cc 4c3f
00000020: fe5b d7be 7f13 993f 7fb4 1abf 3ebd 02c0
00000030: a666 c7bf 0ae9 93bf dd71 d33f 8dd4 ffbe
00000040: 6d40 99bf 4ab9 963f a085 2cc0 aa9f 1ebe
00000050: 0829 483f 41f3 483f b288 a73f 65e6 60bf
00000060: f3d9 423f e115 00bf 7010 243d e81d 21bb
00000070: 33dc 83bf 99c5 823e 382f c8be 1b53 83bf
00000080: e0c0 9cbe c286 d0bf 2b96 c5bf ff5c 6ebf
00000090: 5fec c03e ffc0 77be bf4b 09bf b874 9f3d
000000a0: 1e8a 07bf 5e50 f03c 57df 0b3f 2ae3 dfbe
000000b0: 5eeb 0140 ff1b a3be 234f 73bf 91cc 54bf
000000c0: 9061 5d3f 60fe 67bf 0c70 4340 c3d5 c4be
000000d0: 9501 483d 6b82 3b3e 0256 75bd ac89 743d
000000e0: 424c c23f 98f2 6bbf 38f1 f8be bcfc 0f3f
000000f0: 9e37 c2bf 169d 8ebf 143f a7bf c9be 0a40
00000100: 81ba 87be 5685 c23f ccda ca3d 8aab 9b3f
00000110: 3eb0 b63f 55a7 2e40 c1d5 8fbf 4d74 f1bf
00000120: f9d7 c13f eb40 a73e 1346 8d3f df06 ab3f
00000130: 1867 aa3f e291 b8bf f72e 433f fde9 393f
00000140: bb5f 7abe 6b00 d1bf f78d 21c0 d9b7 02bf
00000150: f0d7 55bf abb5 1a40 aef0 6e3f c49d eb3f
00000160: 9876 0c40 226a 39bf fe3c e1bf 27c7 0f3e
00000170: 3f59 bb3e 0bfd 2140 d43a 55bf 997d 03c0
00000180: 5353 adbf c323 8abf 2ce3 9c3f ddb6 38bf
00000190: acec 0ac0 799f a7bc 63df 3bbc c2c9 a23f
000001a0: a42e 37bf 5595 73bd f71d c13f 0a2c 88bf
000001b0: 052d fa3e f3f4 c53f 0fbe 0b3e 066d 26c0
000001c0: c976 20bf dbbd c3be 6cb9 98be 527f a23d
000001d0: 98b1 003f 2a69 c43e 8bea 47bf 103c a03f
000001e0: 8c61 f1be 7942 c8bf 19af 733f b654 f0be
000001f0: 62c5 eebe d7e6 2dbf fe2b 17be 38b6 a2bf
00000200: 0036 a1bf ca52 f5bf b8dd bfbf 54bb 00c0
00000210: 3dc4 c8bf 2057 7bbf fa14 b73e b2f6 0dc0
00000220: bab5 e63f 195c ab3e ecbf 7cbf cf8b 77bf
00000230: 6768 49bf e517 cb3e 39ca 26c0 0181 e2be
00000240: ecba 7b3f c90b 6dbe b2f6 bfbf 4f6a 1cbe
00000250: 5ecc 9bbf 43ac 0dbf 32ed 563f e6eb b2bf
00000260: dee6 013f 2e55 323f c483 c5be e7d2 00c0
00000270: 1100 67bf 1074 e1be a21e a93f 4b3a a83c
00000280: 3430 28be 6982 ce3f 349c 12bf 373d 2e3e
00000290: 648c 8abf 924d 5ac0 7ce2 9c3f e6d0 eebf
000002a0: 365f 43bf a6b8 bf3e 5adb 493f d519 b2be
000002b0: 916f a93f 10ae f03f b3c5 a2bf 3c61 44bf
000002c0: 8723 c03c 4597 473e 0dfb 8bbf 348d d6be
000002d0: 22ec 90be 44ce 42bf fc16 293e 846b e93d
000002e0: d8f5 3d3f d598 04be dc31 32c0 54e6 563f
000002f0: dda9 29bf 73cd 8e3e 119e 8dbe 5c7b 82bf
00000300: 1fde 913f 55a9 90bf bfc4 103f c306 413f
00000310: d065 53bd 498a c43f 1054 2a40 97f6 773e
00000320: c958 4d3f c627 1cc0 37b8 863f 4a7a 95be
00000330: 79c7 043f a44f 30c0 fb8c b5bf 867a b4bd
00000340: 248f a43d fa48 0740 0ca6 ce3e 12b1 983f
00000350: 8334 2d3e c6f1 b9bf f941 8d3e 2521 1f3f
00000360: 2855 ba3f 9dec 85be a99d 7fbd a9e6 99bf
00000370: 8359 ca3f db04 513e 7015 253f 6c9e d53f
00000380: 330e e6be 7d3c 2d3e a097 85bf 8f5a fa3e
00000390: 9da9 89bf 1988 fa3f 55d9 c5bd 6740 cfbe
000003a0: ea1e 21c0 6d06 923d 9ef3 c03f 19ba f7be
000003b0: cd3d 26be 1a89 e4bf 908b 27c0 e22e b83e
000003c0: ee30 063f 3f4a 22bf 8211 3940 1e64 263e
000003d0: bb1a b7be 09c5 ca3e 0149 1ec0 9df4 443e
000003e0: f16c abbd d262 a8bf d4f4 7b3f 201b d13e
000003f0: 2000 0b3d a7b8 8cbf 45c6 66be 6751 493f
-0.8922615 -2.0917718 0.57676226 -0.19584125 0.83901733 4.6004877 1.5017676 0.79999745
-0.42062372 1.1959075 -0.60431665 -2.0428004 -1.5578201 -1.1555493 1.6519123 -0.4996685
-1.1972786 1.1775296 -2.6956558 -0.15490595 0.7818761 0.78496176 1.3088591 -0.87851554
0.76113814 -0.50033385 0.04005474 -0.0024584476 -1.0301574 0.2554138 -0.39098525 -1.0259737
-0.30615902 -1.6291125 -1.5436453 -0.9311065 0.37680337 -0.24194716 -0.53631204 0.07785934
-0.52945125 0.029335197 0.54637665 -0.43728 2.0299907 -0.31857297 -0.9504263 -0.83124644
0.86476994 -0.9062252 3.0537138 -0.38444337 0.048829634 0.1831147 -0.059896477 0.059701607
1.5179522 -0.92167044 -0.48621535 0.5624502 -1.5173223 -1.1141689 -1.3066125 2.1678946
-0.2650948 1.5196941 0.099050134 1.2161725 1.4272535 2.7289631 -1.1237108 -1.8863617
1.5144035 0.32666716 1.103701 1.3361472 1.3312712 -1.441952 0.7624354 0.7262266
-0.24450581 -1.6328253 -2.5242898 -0.5106178 -0.8353262 2.4173381 0.93336 1.8407521
2.1947384 -0.7242757 -1.7596738 0.14040814 0.36591527 2.5310695 -0.8329289 -2.0545409
-1.3541054 -1.0792164 1.2256827 -0.7215403 -2.1706953 -0.020461785 -0.011466834 1.2717822
-0.7155554 -0.059468586 1.508727 -1.063844 0.48862472 1.5465378 0.1364672 -2.6004043
-0.6268125 -0.38230786 -0.29828966 0.07934441 0.50270987 0.38361484 -0.7809226 1.251833
-0.47144735 -1.5645286 0.9518905 -0.4693963 -0.46634966 -0.6793036 -0.14762875 -1.2711859
-1.2594604 -1.916589 -1.4989538 -2.0114336 -1.5684887 -0.9817982 0.3575819 -2.218182
1.8024209 0.33468702 -0.9873035 -0.96697706 -0.7867493 0.39666668 -2.6060927 -0.44239047
0.98332095 -0.23149027 -1.499716 -0.15274929 -1.2171743 -0.55340976 0.8395568 -1.397824
0.507429 0.69661224 -0.38577092 -2.0128725 -0.90234476 -0.4403386 1.3212473 0.020535609
-0.16424638 1.6133548 -0.572696 0.17015539 -1.0824094 -3.4109845 1.2256618 -1.8657501
-0.76317155 0.37445563 0.7885033 -0.34785333 1.3237172 1.880312 -1.2716583 -0.7671087
0.02345444 0.19491298 -1.093599 -0.41904604 -0.28305155 -0.76095986 0.16512674 0.1139746
0.7420325 -0.12948926 -2.7842932 0.839452 -0.66274816 0.2789112 -0.27659658 -1.0193896
1.1395911 -1.1301676 0.5655021 0.7540094 -0.051610768 1.5354701 2.6613808 0.2421516
0.802136 -2.4399276 1.0524968 -0.29194862 0.5186687 -2.7548609 -1.4183649 -0.08812432
0.080351144 2.1138291 0.4036106 1.1929038 0.16914563 -1.4526908 0.27589396 0.6215995
1.4557238 -0.26157084 -0.062406216 -1.2023517 1.5808567 0.20412008 0.64485836 1.6688972
-0.44932708 0.16917606 -1.0436897 0.48897216 -1.0754887 1.9572784 -0.096605934 -0.40478823
-2.5175118 0.07130132 1.5074346 -0.4838417 -0.16234513 -1.785434 -2.6178932 0.3597327
0.5241841 -0.6339454 2.8916936 0.16249129 -0.3576258 0.3960345 -2.4732058 0.19233938
-0.08370388 -1.3155158 0.98420453 0.40841007 0.033935666 -1.0993851 -0.22536571 0.78639835

hope.b2 f4 [1024]
00000000: 5a13 94bf f134 df3f 12ba 2140 a409 87bf
00000010: ce65 90bd a631 dd3e e30c 823e 39e9 d03d
00000020: 4ce5 f73f 4bbd 48bf 30b4 3440 7808 adbf
00000030: 4498 ebbf 1200 a03f e6ed aa3f 0786 4b3f
00000040: cf2d e53f 1717 bf3e fb76 bcbe e066 17c0
00000050: ee18 a33c 7051 de3f f27d 8e3f ee58 5640
00000060: 94b7 1c3e 427b da3e 53ba b33f b230 0e3e
00000070: 2f95 dbbf 73a9 c13f d6bf 5abe 51af 71c0
00000080: f8f9 2440 5159 9abf 45b1 b43f d03d c03f
00000090: d4c9 02c0 1483 26c0 b59a 043f 2bb5 19be
000000a0: 0a90 9ebf 7ec1 0e40 1329 d43f 135a 173e
000000b0: d13b 653f f88f 123f 62bd 4740 0124 e0be
000000c0: 9d99 f63f 2572 163e 3c4e af3f b2f5 173d
000000d0: bb99 d0be c64f f1bf be0f 54bf e99f 1c40
000000e0: a051 01c0 35ad 64bf 359c 593f b096 97be
000000f0: dfb4 213f 81e0 fb3e de00 3440 0fbf a43f
00000100: 57bc 9e3f f9be 78be 5b13 b0be 0238 e7bf
00000110: f7f8 f2be 58c0 e2bf ab8f 57be cfbe 94bf
00000120: cb73 abbc 92a2 ae3f f296 493f fc47 3940
00000130: 32d4 be3f 5e5d 4d40 dc71 8c3e a833 aa3f
00000140: 4d0e edbf ae87 1540 cb27 1d3f 536a fa3e
00000150: bbc5 6bbd 837c f53e fa3e f3bd 34aa 4c3f
00000160: 92cf 79bf bf5e cabd 3e75 f63d e8f7 833f
00000170: a26d ffbe 9cfd 303f c030 b4be be69 303f
00000180: ba7e 52bf 379c 0ac0 dcb5 31be 2c5d 1a40
00000190: 9841 bb3e 52ea e9bf f6f5 77bf f930 35c0
000001a0: 0564 3740 ca66 33c0 e8c2 d6bd 6112 c73f
000001b0: 4ad6 8b3f f187 9e3f 71f8 453f 9fdd 0bc0
000001c0: 5545 453f 0cbe 0c3f 98e4 5d3f 6547 d03f
000001d0: bfe7 b0ba 111c 93be b67b 883f e464 a83e
000001e0: a5bf c2be 2f61 2040 9578 4740 9c62 37c0
000001f0: 5184 a73f 8ca8 adbe 0adb 81bd 36c4 47be
00000200: eb78 bf3d 7be1 7ebf 8119 d3bf bb02 933f
00000210: d50d bebe 8f01 fe3d 5325 0f40 3698 1140
00000220: 1b12 be3d 0e49 c43f 52a0 c73f 77a7 0e3f
00000230: 2c2d b03f 7385 44bf 9271 09bf 6f22 d43e
00000240: 6c6e bdbf ca07 983f 5f05 08bd 6b92 0b3e
00000250: 54fc a5bf 2860 313f 0cde 56bf bdd8 843f
00000260: 1fff 0f3e fc11 0d3f 0572 0540 6c7e 2b3f
00000270: 2c20 87bf 5a04 873f 364b 38bf b3c1 9a3f
00000280: 413e 4dbf a712 1abc a8b2 ffbf 4910 4cbf
00000290: 82f8 e23e 5772 1dc0 c500 d3bf 96ae 503f
000002a0: a8c0 d1bf 9f34 8f3f 5c25 b8bf a80d d1bf
000002b0: 43d6 b6bf 0cdb 1e40 747e 29c0 9bbe e73f
000002c0: a683 183e 67cf 81bf a30a a73f fa47 76bf
000002d0: 1389 e93e 2d23 0d40 93fa eabf 30a0 79bf
000002e0: f15b 54bf 457c a83f a651 36c0 e496 37be
000002f0: 392c 603e 46bb 0540 e4d1 e43f 0407 30be
00000300: bacd 243d 3442 dd3e 727d ad3f 81b8 0640
00000310: 5811 87bf cd41 96bf e3b8 2040 7f08 03c0
00000320: 8907 51c0 2927 71bf 0c21 1ec0 38a7 6c3e
00000330: 8e38 2c3f 1e50 8a3f 70c5 41c0 3c2c 853f
00000340: 42b3 fa3f d939 fcbf 6797 ccbf c5b2 c43f
00000350: 5b8d a73d c115 653f 9a57 85be 1564 22be
00000360: 57d5 f03d d31d 27bf 6124 e23e daba 3d3f
00000370: 3806 8e3f fbd0 8dbf a9be 13c0 9ccb 53bf
00000380: fad4 80bf 6df0 f9bf 742c 063e a286 0fc0
00000390: 519f aebf 8109 5cbf 1929 4240 c4fe 0e3d
000003a0: 8770 e7bf 4435 f73f b5b9 04c0 d9d2 913f
000003b0: dea3 c13f 71f6 36c0 1cad 35bf d41d 203f
000003c0: 487d 4abe 2658 b23d 49c5 283f f231 f4bf
000003d0: 9c71 28c0 9225 873f 46a0 b1bf c010 f63f
000003e0: aaf9 19bf bdd0 7d3f 9c4b 4dbf fb55 20c0
000003f0: 616a 8ebf 972a 84bf cf26 b9bf 835b afbf
-1.1568406 1.7438031 2.5269818 -1.0549817 -0.07050668 0.4320194 0.25400457 0.10200734
1.9366851 -0.7841384 2.8234978 -1.351821 -1.8405843 1.2500021 1.3353851 0.79501384
1.7904605 0.37322304 -0.36809525 -2.365654 0.019909348 1.7368603 1.1132185 3.3491778
0.15304404 0.42672163 1.4041237 0.13885763 -1.7154902 1.5129837 -0.21362242 -3.7763255
2.577757 -1.2058507 1.4116598 1.5018864 -2.0435686 -2.6017504 0.51798564 -0.15010516
-1.2387707 2.2305598 1.6575035 0.14780454 0.895444 0.5725093 3.120934 -0.4377747
1.9265629 0.1469198 1.369575 0.037099548 -0.40742287 -1.885247 -0.8283652 2.4472601
-2.020607 -0.8932679 0.8500398 -0.29607153 0.6316661 0.4919472 2.812553 1.2870806
1.2401227 -0.242916 -0.34389767 -1.8063967 -0.4745557 -1.7714949 -0.21050899 -1.162073
-0.020929238 1.3643363 0.7874595 2.8950186 1.4908507 3.2088237 0.27430618 1.3297014
-1.8519989 2.3364062 0.61388844 0.48909244 -0.057561617 0.47946557 -0.11877246 0.7994721
-0.9758235 -0.09881353 0.12034081 1.031003 -0.4988833 0.6913698 -0.35193443 0.6891135
-0.8222462 -2.1657846 -0.1735453 2.4119368 0.36573482 -1.8274634 -0.9685968 -2.831114
2.8654797 -2.8031487 -0.10486394 1.5552484 1.0924771 1.2385236 0.77332217 -2.1854017
0.7705892 0.5497749 0.8667693 1.6271788 -0.00134968 -0.2873235 1.0662754 0.32889473
-0.38036838 2.5059316 3.1167347 -2.8653936 1.3087255 -0.33917654 -0.063406065 -0.19508442
0.09349235 -0.99562806 -1.6492158 1.1485208 -0.37119928 0.12402641 2.236653 2.2749152
0.09280797 1.5334795 1.5595801 0.5572428 1.3763785 -0.7676613 -0.5368892 0.4143252
-1.4799323 1.1877377 -0.033208247 0.13630073 -1.296763 0.6928735 -0.83932567 1.0378643
0.14062165 0.55105567 2.0850842 0.6698978 -1.0556693 1.0548203 -0.7198976 1.2090362
-0.80173117 -0.009403861 -1.9976397 -0.7971235 0.4433022 -2.4601038 -1.648461 0.81516397
-1.6386919 1.1187934 -1.4386401 -1.6332293 -1.4284137 2.4821196 -2.648343 1.8105043
0.1489397 -1.0141419 1.3050121 -0.9620358 0.45612392 2.205272 -1.8357719 -0.9751005
-0.8295279 1.3162924 -2.8487334 -0.17928654 0.2189187 2.0895553 1.7876554 -0.17190176
0.04023526 0.4321457 1.3553908 2.1050112 -1.0552168 -1.1738831 2.5112846 -2.0473936
-3.266085 -0.9420038 -2.470767 0.23110664 0.67273796 1.08057 -3.0276756 1.0404124
1.9585955 -1.9705154 -1.5983704 1.5367056 0.08181258 0.8948632 -0.26043397 -0.15858491
0.11759441 -0.65279883 0.4416838 0.7411324 1.1095648 -1.1079401 -2.308512 -0.8273256
-1.0064995 -1.9526497 0.13102895 -2.2425923 -1.364237 -0.85952 3.0337584 0.034910932
-1.8081216 1.931313 -2.0738347 1.1392471 1.5128133 -2.8587916 -0.7096727 0.62545514
-0.19774354 0.08708219 0.65926033 -1.9077742 -2.6319342 1.055834 -1.3877037 1.9223862
-0.6014658 0.99146634 -0.80193496 -2.5052478 -1.1126214 -1.0325497 -1.4464968 -1.3699802

res_net.0.bn1.weight f4 [16]
00000000: 72da 933f 4360 ca3f 52e6 a13f b535 b73f
00000010: 272b aa3f 9433 1940 8b89 2340 219e bb3f
00000020: daf6 d43f ac8c 893f 451d ab3f 48aa d13f
00000030: 3e7d a53f e05d c83f f99b 823f 92dc 833f
1.1551039 1.5810627 1.2648413 1.4313265 1.3294419 2.393773 2.55527 1.4657632
1.6637833 1.0746055 1.3368307 1.6380091 1.2928846 1.5653648 1.0203849 1.0301688

res_net.0.bn1.bias f4 [16]
00000000: bd77 123f b75e a6be 992b 05be 275f 0a3f
00000010: c88e 103f b1ae c73e 5048 7d3f da05 c53e
00000020: 99fa 8fbe 0bf8 783e 308c fb3e 70e6 df3d
00000030: bf69 a1be 4d94 953f e1ee 353e c7c4 a03f
0.57213956 -0.32494137 -0.13004912 0.5405144 0.56467867 0.39000466 0.98938465 0.38481027
-0.28120878 0.24313371 0.49130392 0.10932624 -0.3152599 1.1685883 0.17766906 1.2560052

res_net.0.bn1.running_mean f4 [16]
00000000: 052c 7fc4 47b6 22c4 92f8 b944 750a 8ec4
00000010: 1ddd 1bc5 6c63 c943 f9cf 04c5 6283 fbc0
00000020: 7e0b f343 f08a bac4 cf18 6e45 e93f 1a44
00000030: 7ea1 5444 ac08 1144 f172 6c44 bb97 ccc3
-1020.6878 -650.8481 1487.7678 -1136.3268 -2493.8196 402.77673 -2124.9983 -7.859788
486.08978 -1492.3418 3809.5505 616.9986 850.5233 580.1355 945.79596 -409.1854

res_net.0.bn1.running_var f4 [16]
00000000: 6f69 6749 6725 c149 aba3 7c49 e526 9149
00000010: 37ec 284a 0f8f f049 eab7 884a f3f9 e249
00000020: a535 244a 6d59 a949 c53b 0f4a 67ea a049
00000030: 5d14 3049 4582 a249 7a54 8249 1c0b 8c49
947862.94 1.5822529e+06 1.0348107e+06 1.1890846e+06 2.7676298e+06 1.9706579e+06 4.479989e+06 1.8593904e+06
2.6904092e+06 1.3873096e+06 2.3467372e+06 1.3182209e+06 721221.8 1.3312726e+06 1.0676632e+06 1.1472355e+06

res_net.0.bn2.weight f4 [16]
00000000: bb42 5f3f 3f9c 633f be58 573f 6b56 553f
00000010: 98b0 403f d9ac 313f f54a 183f 4008 223f
00000020: 751c 453f 4ad3 113f 9fb2 003f c033 263f
00000030: 66ae 113f 6fed 453f 9600 043f 4bbb 383f
0.872112 0.8891029 0.84119785 0.8333499 0.7526946 0.6940437 0.59489375 0.6329384
0.76996547 0.56963027 0.50272554 0.64922714 0.56906736 0.7731542 0.51563394 0.72160786

res_net.0.bn2.bias f4 [16]
00000000: 3bcf 093f eebb c2bc f0cd 483e c4d3 b2be
00000010: 5ecf 9a3e cd8a 25bd d1fc b43c 6c1d d7bd
00000020: 28dc f2be 21c1 f03d 5a7f 4c3e 79ce 2bbf
00000030: 8b35 443e 0dd5 a73e 12d4 bd3e 3070 3bbb
0.53831834 -0.023771252 0.19609809 -0.3492719 0.30236334 -0.040415574 0.022093209 -0.10503659
-0.4743359 0.117555864 0.19970456 -0.6711193 0.1916105 0.32779732 0.3707586 -0.0028600805

res_net.0.bn2.running_mean f4 [16]
00000000: 3e6e 39c4 41c1 29c5 9554 15c5 3ef8 13c5
00000010: 24b4 15c5 4cef c9c4 8673 f642 56af f7c4
00000020: 5454 bac4 2fce c3c4 6eed 10c2 83da ac44
00000030: a79d dbc4 1655 86c5 5d27 0e45 da3e dcc4
-741.72253 -2716.0784 -2389.2864 -2367.5151 -2395.2588 -1615.478 123.22563 -1981.4792
-1490.6353 -1566.4432 -36.231865 1382.8285 -1756.9266 -4298.6357 2274.4602 -1761.9641

res_net.0.bn2.running_var f4 [16]
00000000: c8cf 994b 89b8 2b4b c0c8 4a4b 0d9c c54a
00000010: ad09 f14a 98fe 984a 15b9 854a 9f22 e84a
00000020: 516d f04a 3cdf 334b acb0 084b 03f0 b74a
00000030: 4ea8 224b 426f 104b 2f4d bf4a 9b38 304b
2.01604e+07 1.1253897e+07 1.3289664e+07 6.4752705e+06 7.8983265e+06 5.013324e+06 4.3818345e+06 7.6066075e+06
7.8783125e+06 1.1788092e+07 8.958124e+06 6.0272655e+06 1.0659918e+07 9.465666e+06 6.2685675e+06 1.1548827e+07

res_net.1.bn1.weight f4 [16]
00000000: 052d be3f 7bb1 ea3f f35f 2b40 04b2 af3f
00000010: 04cc b53f 4a20 933f 6ea2 e53f 7a23 8d3f
00000020: 010d fd3f 8e4b e23f c29d df3f 635e c63f
00000030: 04ef 943f 78d3 b33f 9a96 ae3f 38fb a03f
1.4857489 1.8335413 2.6777313 1.3726201 1.4202886 1.1494229 1.7940195 1.1026452
1.9769593 1.7679307 1.7470019 1.5497555 1.1635442 1.404891 1.363971 1.2576666

res_net.1.bn1.bias f4 [16]
00000000: 9303 1fbd 389a 2fbe 1964 a2bd f903 e83e
00000010: db0d a83e f709 4a3e 7e3b 913f 7783 283e
00000020: 4524 1bbe 097a 4fbd 58e9 11bf 994e c53c
00000030: 2ac3 0bbe dd99 f0be 0b9a 46be f066 1cbf
-0.038821768 -0.17148674 -0.07929248 0.4531553 0.3282307 0.19730364 1.134628 0.164564
-0.15150554 -0.05065349 -0.5699668 0.02408533 -0.13648668 -0.46992388 -0.193947 -0.6109457

res_net.1.bn1.running_mean f4 [16]
00000000: d248 6ac5 08db a3c4 4d44 3bc4 ae06 e1c3
00000010: 0b53 d3c4 53e2 3ac5 22e5 e8c4 e56e 8c43
00000020: 4b82 e0c4 7b15 73c5 c405 6dc4 2818 3845
00000030: e8a5 9544 b05b 58c4 91e4 a743 9b0b 1144
-3748.5513 -1310.8447 -749.0672 -450.0522 -1690.5951 -2990.1453 -1863.1604 280.86636
-1796.0717 -3889.3425 -948.0901 2945.5098 1197.1846 -865.4326 335.78568 580.18134

res_net.1.bn1.running_var f4 [16]
00000000: 55c0 7f4a 7caa 5d4a 2565 2a4b 5fa3 244a
00000010: 8893 364a ce57 2b4a 7ba4 b64a 2f79 024a
00000020: 661c 834a ec96 944a 45b2 234a ed67 2a4a
00000030: 2439 214a ef53 414a dca6 064a 325f 154a
4.1902292e+06 3.631775e+06 1.1167013e+07 2.6974318e+06 2.99133e+06 2.8072835e+06 5.9848295e+06 2.1376758e+06
4.296243e+06 4.868982e+06 2.6820012e+06 2.7919312e+06 2.641481e+06 3.1674838e+06 2.206135e+06 2.4473085e+06

res_net.1.bn2.weight f4 [16]
00000000: a5f6 f23e 6973 243f f4d4 4f3f 255f 3c3f
00000010: fdd1 043f baf1 813f a2d7 103f b9bf 253f
00000020: 375e ee3e e1a0 003f 0d79 003f 016b 023f
00000030: b8aa b33e 5b5b 153f 79cc 293f ed48 173f
0.474538 0.642386 0.81184316 0.7358268 0.51882917 1.0151894 0.5657903 0.6474567
0.46556255 0.5024548 0.5018471 0.50944525 0.35091186 0.5834252 0.66327626 0.5909565

res_net.1.bn2.bias f4 [16]
00000000: 021d c8be 1d61 93bc 806b c1be af93 24bc
00000010: 1b5e 6c3e 36e7 37bc 1911 bd3e d255 4dbe
00000020: 9851 6b3d 9eac 7e3d 30c1 62bd 8719 37bd
00000030: 426e 0d3e 5abb 233f f82e 3d3d 0bdc 49bd
-0.3908463 -0.017990643 -0.37777328 -0.010044976 0.23082773 -0.011224559 0.36927107 -0.20052269
0.05745086 0.06217634 -0.05536002 -0.04470208 0.13811591 0.6395775 0.04618737 -0.049282115

res_net.1.bn2.running_mean f4 [16]
00000000: ef06 df43 f592 0544 a439 08c4 4852 c743
00000010: 1465 a5c4 3a7f 68c4 44ab 1ac4 bb79 3645
00000020: 43db 83c4 2cad c442 be5c 9c44 a393 af42
00000030: 5c0b 2444 6960 a8c4 0b56 66c4 02de 4644
446.05417 534.2962 -544.90063 398.64282 -1323.1587 -929.9879 -618.676 2919.6082
-1054.8519 98.33823 1250.8982 87.78835 656.1775 -1347.0128 -921.3444 795.4689

res_net.1.bn2.running_var f4 [16]
00000000: 7542 354a 3335 b34a f221 ed4a 2531 8d4a
00000010: 83ce a94a 1ee2 de4a b5a8 814a 14d6 8e4a
00000020: dcea 6c4a c1dd 9d4a d4c5 554a 6e0b 304a
00000030: 5699 8b4a c455 7a4a 6293 bb4a 1201 9f4a
2.9697572e+06 5.8722815e+06 7.770361e+06 4.6265785e+06 5.5642255e+06 7.303439e+06 4.2486665e+06 4.680458e+06
3.881655e+06 5.1729605e+06 3.502453e+06 2.8843155e+06 4.574379e+06 4.101489e+06 6.146481e+06 5.210249e+06

res_net.2.bn1.weight f4 [16]
00000000: 18be b43f 7327 9f3f 6e5b ba3f 4169 b53f
00000010: 68de ac3f a2aa c03f 7e03 9d3f 05ff c23f
00000020: b52a b43f c0db e93f 7a24 e53f ad8a e53f
00000030: 848a 1040 3bf9 bd3f 73aa fb3f 6b22 ad3f
1.4120512 1.2433914 1.4559152 1.4172746 1.3505373 1.5052073 1.2266691 1.5234076
1.4075533 1.8270187 1.7901757 1.7932945 2.2584543 1.4841684 1.9661392 1.3526129

res_net.2.bn1.bias f4 [16]
00000000: 0179 76be cc9d 9dbe 7cf2 18bf 9f25 133f
00000010: ff94 a83e 6513 9e3e 1f91 8d3e dfdf 33be
00000020: 7c63 6a3e cf03 1cbd a5ad 94bf bd0e 74be
00000030: 6e2e e33e f681 343f 8f6e 3abf e488 ebbe
-0.24069597 -0.30784452 -0.59745 0.5747928 0.32926175 0.30874172 0.2764978 -0.17565869
0.22889513 -0.03808957 -1.1615492 -0.23833747 0.4437136 0.70510805 -0.7282495 -0.46002877

res_net.2.bn1.running_mean f4 [16]
00000000: f81b c444 0b65 d5c4 799b 20c5 5092 99c3
00000010: d1be d9c4 c12d 54c3 6c27 9c45 04ae 9ac4
00000020: 8c43 aec4 3150 0ac5 752a 0c45 9113 44c4
00000030: 9f29 ddc3 2239 8544 af25 70c4 dd50 23c5
1568.874 -1707.1576 -2569.717 -307.14307 -1741.963 -212.17873 4996.9277 -1237.438
-1394.1108 -2213.012 2242.6536 -784.3057 -442.32516 1065.7854 -960.5888 -2613.054

res_net.2.bn1.running_var f4 [16]
00000000: 50bf 364a f8b9 e149 8f52 9e4a a87e 774a
00000010: c699 594a 3440 6f4a 4c2d 9b4a 9ac0 9a4a
00000020: 5760 a04a d2c6 a04a cda6 5f4a fffa 9f4a
00000030: 4dc2 a34a facd 5b4a 5d2f 3b4a d7df 354a
2.994132e+06 1.849151e+06 5.1879115e+06 4.054954e+06 3.5651695e+06 3.919885e+06 5.084838e+06 5.070925e+06
5.2552115e+06 5.268329e+06 3.6643072e+06 5.2422395e+06 5.3660545e+06 3.6012785e+06 3.0668392e+06 2.9798298e+06

res_net.2.bn2.weight f4 [16]
00000000: e225 0d3f a99f 173f 8eb7 533f b522 343f
00000010: 10b1 f23e 593c e13e 2353 103f 8f9a ed3e
00000020: 14d6 193f 1750 ce3e 1c6f 163f 33fe 0f3f
00000030: a466 453f cb88 e63e 502f 4a3f 157d 0c3f
0.5513593 0.59228 0.8270196 0.7036546 0.47400713 0.43991354 0.56376857 0.4640698
0.6009228 0.4029548 0.5876329 0.5624725 0.7710974 0.4502624 0.78978443 0.5487836

res_net.2.bn2.bias f4 [16]
00000000: a96f 273e cba4 4ebd 262c d53e ecc6 f23d
00000010: 77d6 2fbd f628 b03e 14b8 4d3e 2ce9 a03e
00000020: b048 82be 6193 f3bd 7d3d 09bb f9a5 e03b
00000030: 15c1 cebc 9cb9 173f d45e 793d caf4 e8bd
0.16351189 -0.050450128 0.41635245 0.118543476 -0.04292914 0.3440625 0.20089751 0.31427896
-0.2544608 -0.11893345 -0.002094119 0.006855723 -0.025238553 0.5926759 0.06088145 -0.11374815

res_net.2.bn2.running_mean f4 [16]
00000000: a149 71c4 fef6 1a44 a7f6 1bc4 883d 84c4
00000010: df8e adc4 3a8b 8dc3 68fc 3bc5 de50 a843
00000020: 39f8 cfc3 46e9 21c2 4e75 a342 9b96 e1c4
00000030: 82c4 28c5 8631 c6c4 629a 76c3 9183 95c4
-965.15045 619.85925 -623.85394 -1057.9229 -1388.4647 -283.0877 -3007.7754 336.63177
-415.93924 -40.477806 81.72911 -1804.7064 -2700.2817 -1585.5476 -246.60306 -1196.1115

res_net.2.bn2.running_var f4 [16]
00000000: f8b8 524a 3577 864a 611f 934a cc28 094b
00000010: 72f5 454a 1d99 6b4a 30f4 9e4a d242 824a
00000020: 4619 7c4a 7a6f 1a4a b8b5 b34a fbc7 434a
00000030: 07a4 b14a 4a6b a24a 029a 774a c7af 914a
3.452478e+06 4.4061705e+06 4.8209125e+06 8.988876e+06 3.2433565e+06 3.8600392e+06 5.2086e+06 4.268393e+06
4.1303855e+06 2.5302705e+06 5.888732e+06 3.2076788e+06 5.8209315e+06 5.322149e+06 4.0567045e+06 4.7738595e+06

res_net.3.bn1.weight f4 [16]
00000000: e502 fa3f 0337 d93f ab2b bc3f bce5 de3f
00000010: 8ea1 893f b2ad cf3f 2346 993f 5228 9f3f
00000020: 1a6c c23f b876 1940 e595 c13f 4d29 e23f
00000030: 39a4 b23f 2091 9a3f e2b7 a43f 47c5 d53f
1.9532133 1.6969913 1.4700826 1.7413859 1.0752428 1.6224883 1.1974529 1.243418
1.518924 2.397871 1.5123869 1.7668854 1.3956367 1.2075539 1.2868617 1.6700829

res_net.3.bn1.bias f4 [16]
00000000: 8c76 15bf 5b04 94be 6b5a 34bf 98bf 3fbf
00000010: fda5 86be ff7f 87be 66b2 f2be 16c2 22be
00000020: 85b2 97be 7b6f 25be b3e5 d9be 9d1c 46bf
00000030: 9842 dcbe 84a4 c7bd 2771 2dbe 1b6f c6be
-0.58384013 -0.28909573 -0.70450467 -0.74901724 -0.26298514 -0.2646484 -0.47401732 -0.1589435
-0.29628387 -0.16155808 -0.4255806 -0.7738741 -0.43019557 -0.09748176 -0.16937695 -0.38756642

res_net.3.bn1.running_mean f4 [16]
00000000: 79b2 fdc4 de10 e044 ee3c 5b45 18eb c2c4
00000010: 4e4f 8ec3 271e 91c5 f153 12c5 f835 6f44
00000020: 8c47 6cc5 782d 0bc4 534c 9741 c9ed f8c4
00000030: 3296 cfc4 53e7 27c5 57a6 84c5 2885 03c5
-2029.5773 1792.5271 3507.808 -1559.3467 -284.61957 -4643.769 -2341.2463 956.84326
-3780.4717 -556.71045 18.912268 -1991.4308 -1660.6936 -2686.4578 -4244.7925 -2104.3223

res_net.3.bn1.running_var f4 [16]
00000000: 7c8c f14a 2b73 c64a 2d89 1d4a 0c89 c54a
00000010: 7cd1 874a ea0c 434a a181 694a ef25 614a
00000020: 3574 864a d24f 834b 8c81 7b4a 7d2a 484a
00000030: 2b09 314a 13bd 294a 37bb f849 0bff a64a
7.91507e+06 6.5028055e+06 2.5810672e+06 6.472838e+06 4.450494e+06 3.1957065e+06 3.8257682e+06 3.6888278e+06
4.4057865e+06 1.72113e+07 4.120675e+06 3.2795192e+06 2.9005548e+06 2.7809968e+06 2.0376069e+06 5.4721335e+06

res_net.3.bn2.weight f4 [16]
00000000: 839b f03e 53af 113f a6c1 3d3f ba63 0b3f
00000010: dbed 103f 71b8 903e 10bd 213f 6dbb 2c3e
00000020: 91af d03e 3d2a 1b3f 641f ef3e 4fea 5b3f
00000030: f2a6 103f 8a9a 143f 566d 1b3f dbfe 223f
0.46993646 0.5690815 0.7412361 0.54449046 0.5661294 0.28265718 0.6317911 0.16868372
0.40758947 0.60611326 0.46703637 0.859044 0.5650474 0.5804831 0.6071371 0.6367013

res_net.3.bn2.bias f4 [16]
00000000: 5747 08bf edf5 173e 45fb 86bd e74e f33e
00000010: dc90 ef3d d1ed ee3d 07c9 a8bd df51 243e
00000020: a934 933e f7cd 29be 0bcd d5bd ce9a 91ba
00000030: b923 e2be 9e02 babe bb3b 04bf 75d9 a2be
-0.53233856 0.14839907 -0.065908946 0.47521135 0.116975516 0.11666454 -0.08241468 0.16046856
0.28751114 -0.16582476 -0.104394995 -0.0011108757 -0.4416788 -0.36330122 -0.5165364 -0.31806532

res_net.3.bn2.running_mean f4 [16]
00000000: b51f 20c4 cd01 5044 9d16 c844 bd77 8b43
00000010: eb61 a9c3 237c d0c3 0975 22c4 da46 4444
00000020: d59c 75c4 b64f f8c3 a311 d7c2 2961 2fc3
00000030: 4306 9e44 c084 d7c3 2d3b 0044 82dd 86c4
-640.4954 832.02814 1600.7067 278.93546 -338.76498 -416.96982 -649.8287 785.10706
-982.4505 -496.62274 -107.53445 -175.37953 1264.1957 -431.0371 512.9246 -1078.9221

res_net.3.bn2.running_var f4 [16]
00000000: 9d95 384a a9bd 394a 0a5d 244a 551a 6e4a
00000010: 1e9a 724a 9e1e 214a b1ab 244a 2c19 c549
00000020: dec0 854a 140c 304a 3585 d449 c7bb 1d4a
00000030: 260d 284a 5659 804a 4369 8f4a a0a4 044a
3.0242312e+06 3.0431782e+06 2.6929305e+06 3.9010772e+06 3.9747915e+06 2.6397835e+06 2.6979642e+06 1.6146295e+06
4.382831e+06 2.884357e+06 1.7409666e+06 2.5843058e+06 2.7533535e+06 4.205739e+06 4.6992975e+06 2.173224e+06

res_net.4.bn1.weight f4 [16]
00000000: 7b5c a23f c000 0f40 cd3c af3f 5fd5 bb3f
00000010: 1c76 bb3f 21d1 c33f eed8 bc3f 9244 0040
00000020: 5dde fe3f 4aed b83f 111d 8f3f a4c6 bd3f
00000030: 9b6f 993f 33bd 963f 8495 b53f c2ff cf3f
1.2684473 2.2344208 1.369043 1.4674491 1.4645419 1.5298196 1.4753702 2.0041852
1.991161 1.4447415 1.1180745 1.4826245 1.1987184 1.1776489 1.4186254 1.6249926

res_net.4.bn1.bias f4 [16]
00000000: 5035 33be 6d8c 86be d01c 043f 9093 96be
00000010: a670 a6be 2802 32bf c26c 87bf 275c a7bd
00000020: a0db 66be 28cc 49bf 402e c6be f228 20bf
00000030: 1b62 43bf a0a0 2abe 5a44 a8be 810f f6be
-0.17500806 -0.2627901 0.51606464 -0.29409456 -0.3250782 -0.6953454 -1.0580065 -0.081718735
-0.22544718 -0.7882714 -0.3870716 -0.6256248 -0.7632157 -0.16662836 -0.32864648 -0.48058704

res_net.4.bn1.running_mean f4 [16]
00000000: 5104 cbc4 e977 fe44 3b5a bbc1 ed16 22c5
00000010: fcd8 0445 ad63 1dc5 a216 ba44 aef7 8c43
00000020: 975a b9c3 df55 fd43 89a0 9a44 bbaa 1845
00000030: 8211 f344 3943 27c5 0572 22c5 f03b 9744
-1624.1349 2035.7472 -23.419058 -2593.4329 2125.5615 -2518.2297 1488.7073 281.935
-370.70773 506.67087 1237.0167 2442.6707 1944.5471 -2676.2014 -2599.1262 1209.873

res_net.4.bn1.running_var f4 [16]
00000000: bdcb 634a 6587 0b4b f28f 9a4a c745 6c4a
00000010: f559 7f4a 3965 384a c426 474a 5bd9 e04a
00000020: 93fc 8a4b 56dc 8e4a 9787 774a 3dad 1c4a
00000030: e30a 4a4a cf09 904a 93b0 8c4a 1f21 d94a
3.7322072e+06 9.144165e+06 5.064697e+06 3.8710898e+06 4.1836772e+06 3.0211342e+06 3.262897e+06 7.3678535e+06
1.8217254e+07 4.681259e+06 4.0555258e+06 2.5669912e+06 3.3102648e+06 4.7198475e+06 4.6101215e+06 7.1148955e+06

res_net.4.bn2.weight f4 [16]
00000000: 6774 d83e 406a cf3e f856 263f cd12 9f3e
00000010: b421 063f a516 0a3f 09b9 033f 4fae e63e
00000020: 6bfd 273f 4923 163f 985d c73e 7fdd d43e
00000030: a8cd 143f e307 bf3e 05bb 1a3f 5b48 e93e
0.42276308 0.4051075 0.64976454 0.3106903 0.52395177 0.539408 0.51454216 0.45054862
0.6562106 0.5864759 0.38938594 0.41575238 0.58126307 0.37310705 0.6044162 0.45563015

res_net.4.bn2.bias f4 [16]
00000000: dbc7 04be e54f 6ebe d088 4dbf bfa7 ba3b
00000010: e545 1a3f 827e 813e fb24 88be 660e f23e
00000020: 8a16 c33d 281b 25be 677f 11be 620f b5bc
00000030: 64dc 99bb ccc8 56bd 7478 f63c ea95 06bf
-0.12966864 -0.23272665 -0.80286884 0.0056962664 0.602629 0.2529183 -0.26590714 0.4727661
0.09525783 -0.1612364 -0.14208756 -0.022102062 -0.004695462 -0.05243759 0.030086733 -0.525725

res_net.4.bn2.running_mean f4 [16]
00000000: 6863 3644 3780 c9c4 159b f443 a38b f742
00000010: 5c91 95c4 7f3b bac4 16e8 72c4 f18c dac3
00000020: 2cfb 0743 2d61 0243 3dc4 2644 9595 1cc4
00000030: a0eb a643 98e4 1dc3 c648 ffc4 1d6a 5244
729.5532 -1612.0067 489.21158 123.77273 -1196.5425 -1489.8593 -971.62634 -437.1011
135.98114 130.3796 667.0662 -626.3372 333.84082 -157.89294 -2042.2742 841.658

res_net.4.bn2.running_var f4 [16]
00000000: 6a94 294a 8761 134a 2bfa 274a 7902 214a
00000010: bf2c 274a 0a68 134a 4985 224a 7bfc 694a
00000020: 8142 564a 3208 3e4a ffcf b149 69ee e449
00000030: 7e4a 0a4a 9b23 c049 495b 174a 6742 bf49
2.7783945e+06 2.4146898e+06 2.7521388e+06 2.6379822e+06 2.7389918e+06 2.4151065e+06 2.6627382e+06 3.8336308e+06
3.5104322e+06 3.1134845e+06 1.4566399e+06 1.8754051e+06 2.2657595e+06 1.5740034e+06 2.4798262e+06 1.5667969e+06

res_net.5.bn1.weight f4 [16]
00000000: e72f fb3f d314 db3f 43b8 c63f 2453 c33f
00000010: 42d8 653f 9e01 d53f 6e35 c03f 495d fe3f
00000020: 12ad cf3f aefa db3f b453 c13f 1490 a23f
00000030: 5a01 b93f 10c7 a53f 15c9 cc3f 40b5 993f
1.9623994 1.711573 1.5524982 1.5259748 0.8978311 1.6641119 1.5016305 1.9872218
1.6224692 1.7185876 1.5103669 1.2700219 1.4453537 1.2951374 1.5998865 1.2008438

res_net.5.bn1.bias f4 [16]
00000000: 21e4 2cbe 85e5 7cbe 13f5 91be 915f f0be
00000010: be8a 013f c68a 99be 9afa 8abf ca1a efbe
00000020: 8a39 0cbf 70be 23bf 2a92 14bf 4bf8 593e
00000030: fb38 7fbd b84c ca3e d5db 12bf dad0 093f
-0.168839 -0.2469693 -0.2850729 -0.4694791 0.5060233 -0.29988688 -1.0857728 -0.46700126
-0.547753 -0.6396246 -0.5803553 0.21286123 -0.0623102 0.39511657 -0.5736669 0.5383431

res_net.5.bn1.running_mean f4 [16]
00000000: f60b 94c5 dce4 5545 6d03 92c4 b4e3 08c4
00000010: ed46 d0c4 da87 8744 4c3c 37c5 5e89 8244
00000020: fc84 87c5 6864 55c5 1a1f 52c4 6fe9 3145
00000030: 049c bbc5 6204 dcc4 45ae 25c4 ba91 5ec4
-4737.495 3422.3037 -1168.107 -547.55786 -1666.2164 1084.2454 -2931.7686 1044.2927
-4336.623 -3414.2754 -840.48596 2846.5896 -6003.502 -1760.137 -662.72296 -890.277

res_net.5.bn1.running_var f4 [16]
00000000: ddd8 aa4a d7e7 844a 8be4 814a 7761 584a
00000010: caf4 414a 64b6 a44a 6409 434a 2db1 3f4a
00000020: 34c6 dc4a 5bf0 e84a 4de0 a24a deb5 984a
00000030: 0214 4f4a 4a11 5f4a 8d3f 624a 0d30 7d4a
5.5983185e+06 4.3550515e+06 4.2563255e+06 3.5451818e+06 3.1777785e+06 5.397298e+06 3.195481e+06 3.1406832e+06
7.23433e+06 7.6329415e+06 5.3371265e+06 5.004015e+06 3.3927685e+06 3.6547385e+06 3.7068512e+06 4.1482272e+06

res_net.5.bn2.weight f4 [16]
00000000: d1de 3c3f 26e4 023f f16e 973f ee6c a33e
00000010: 1694 da3e 7d69 173f 2056 1b3f a8a0 073f
00000020: ad34 0d3f b2b4 0f3f 5320 083f a496 b93e
00000030: 586e 983e 6097 173f 6a9f 603f b4cd f53e
0.7377749 0.51129377 1.1830732 0.31919044 0.42691106 0.5914534 0.6067829 0.52979517
0.551585 0.56135094 0.5317432 0.36247742 0.29771686 0.59215355 0.87743247 0.48008502

res_net.5.bn2.bias f4 [16]
00000000: dafb 123e 44ae 1f3d a511 a8bf 35a6 3abe
00000010: c987 3fbf 891f 42bf 3ec1 15be 8ba6 1f3e
00000020: 56cc 46be 4cad e5be 7342 97be 62a5 86be
00000030: a080 e7be da13 35bf 0bf4 25be 041f e23d
0.14353886 0.038984552 -1.3130385 -0.18227465 -0.74816567 -0.7582937 -0.14624497 0.15590875
-0.19413885 -0.44858778 -0.29542884 -0.26298052 -0.4521532 -0.70733416 -0.16206376 0.11041072

res_net.5.bn2.running_mean f4 [16]
00000000: d145 eec4 66de 62c4 da58 2fc3 f9e5 8343
00000010: 818c c943 1672 93c4 3073 82c3 de9a 0e45
00000020: ee66 0544 0cde 98c4 8112 b844 9cb6 8ac3
00000030: 8626 e844 9df7 7344 5a5f a9c4 ec5b 00c4
-1906.1818 -907.475 -175.34708 263.79666 403.0977 -1179.5652 -260.8999 2281.6792
533.6083 -1222.939 1472.5782 -277.42664 1857.2039 975.86896 -1354.9797 -513.4363

res_net.5.bn2.running_var f4 [16]
00000000: e154 a54a 85bb 874a 1972 8c4a 76d9 354a
00000010: 9b61 6a4a f734 3d4a 5445 7e4a 7e0a 374a
00000020: 1b0b 6f4a fb7f 564a b830 0e4a e266 1e4a
00000030: 1ba1 354a 3a3a 474a df71 a84a 6317 354a
5.4175845e+06 4.4476825e+06 4.6021245e+06 2.9794215e+06 3.8401028e+06 3.0999658e+06 4.165973e+06 2.9989435e+06
3.9164868e+06 3.5143668e+06 2.329646e+06 2.5952565e+06 2.9758148e+06 3.2641425e+06 5.5195995e+06 2.9670008e+06
