conditioned_layers/experiments/4factorized_policy_hypernet_cifar/results/lr_0.001_wd_0.0_emb_size_64_channels_32_factor_4/model.pth (torch_old, 700661 bytes, 209 tensors)

conv1.weight f4 [32, 3, 3, 3]
-0.071295224 0.683942 0.031174006 -0.20350969 0.111654416 0.0053297575 -0.06250927 0.045007683
-0.16528392 -0.263088 0.33815405 -0.31717357 -0.12970316 0.5252344 -0.24024282 -0.29215977
0.22939233 -0.107397474 -0.23602405 0.44792253 -0.24263857 -0.44495142 0.41953444 0.032785486
-0.043219913 0.2983009 -0.074853286 -0.24407572 -0.17141515 0.13771667 0.36710218 0.38953665
-0.040293623 0.2060772 0.34970698 0.2611013 0.008346318 -0.4156816 -0.048203226 -0.21234567
-0.6095876 -0.5419628 -0.24304192 -0.1414661 -0.18752421 0.018243214 0.228823 0.44628587
0.2553713 -0.08190786 0.074802205 0.00044377873 -0.04224333 0.062015053 0.0090011535 0.38642848
0.49420807 -0.21996687 0.13262583 0.14505352 -0.35448945 -0.060751464 -0.21454008 0.110564455
0.03270515 -0.27952212 0.41478413 -0.03411592 -0.6543615 0.2804476 0.34327108 -0.12355462
0.16959235 -0.16317646 -0.079285525 0.24047577 -0.13630722 -0.39440045 0.045444798 0.19286764
-0.13058282 -0.10944566 -0.50441164 -0.21923098 0.3249125 0.28478473 -0.12320868 0.13180271
0.072898135 -0.047933243 -0.31604132 -0.45437965 -0.3950459 0.49105382 0.3225884 0.014224033
0.027285784 0.03785824 0.053804867 -0.14558001 -0.17841537 -0.114089966 0.30925766 0.40359583
0.12581569 -0.50342685 0.15502553 -0.069919996 0.057558212 -0.18875642 0.12485872 0.2701487
0.18700753 0.38581207 -0.29502812 -0.3867084 -0.10128475 -0.090152085 0.03551913 -0.25503945
0.08799552 0.45150143 0.38853785 -0.1879013 -0.2899596 -0.21797891 -0.16028729 -0.18505485
-0.23124366 0.35038486 0.5602821 0.5044225 -0.111147694 -0.13291542 0.06476408 0.35715872
0.31414756 0.39630944 -0.06881131 -0.49718285 0.17180635 -0.5014924 -0.49649277 -0.054827463
-0.24518768 -0.057375286 -0.3215912 0.154602 0.09968092 0.08555168 0.29111895 0.26488557
-0.05441965 -0.18087852 -0.3222005 -0.13409445 -0.046920117 0.4534862 -0.12656964 0.20289688
0.39441526 -0.05666538 -0.3442164 -0.030755667 -0.17036757 0.2701638 -0.42634678 -0.1609089
0.36738676 0.19713624 0.2691783 -0.07133614 0.2735806 0.12117817 -0.021763716 -0.47909904
0.10966394 -0.038171317 0.11495186 0.03203952 0.11526652 0.6598985 0.21296059 0.17836535
-0.22092345 0.22313903 -0.40425727 -0.22421879 -0.23276898 0.51800275 0.17282772 0.019899605
0.1837306 -0.07277378 -0.49971893 -0.06854546 0.0019337132 -0.3830336 0.19318362 0.24241763
0.5529353 0.27384853 0.16462773 -0.023528643 0.08612683 -0.2640997 -0.46375385 -0.35234156
0.4065092 0.45866153 -0.43274277 -0.024945443 0.09736253 0.23326929 0.25378704 -0.15932095
0.05549005 0.37952548 0.115879655 -0.04695771 -1.8256378e-05 0.24164629 0.013309724 0.19139108
-0.041084234 -0.31942856 -0.3649177 -0.5863514 -0.25044248 -0.52483267 -0.29173315 -0.20212376
0.0029499342 -0.02628545 0.2512171 0.40832368 0.18225901 0.6072246 0.26572514 0.24001218
-0.060596112 0.08391112 0.112190634 0.19068143 0.25947165 0.30762833 -0.0134706665 -0.26278675
-0.08207694 0.3532344 -0.8356954 -0.18867534 0.24408074 0.33519435 0.07599878 -0.15924639
00000000: 3b03 92bd d316 2f3f a160 ff3c d864 50be
00000010: 12ab e43d 3fa5 ae3b dc04 80bd fa59 383d
00000020: 3040 29be 78b3 86be 8722 ad3e 9364 a2be
00000030: e8d0 04be c375 063f 3702 76be f795 95be
00000040: d3e5 6a3e 35f3 dbbd 4ab0 71be 1a56 e53e
00000050: 3f76 78be acd0 e3be 38cd d63e 134a 063d
00000060: 5d07 31bd e5ba 983e ae4c 99bd fcee 79be
00000070: 7487 2fbe 9905 0d3e d1f4 bb3e 5971 c73e
00000080: ed0a 25bd e705 533e cb0c b33e 12af 853e
00000090: ffbe 083c 38d4 d4be bf70 45bd 2571 59be
000000a0: ef0d 1cbf 13be 0abf fbdf 78be 7ddc 10be
000000b0: 5906 40be cb72 953c 9450 6a3e 957f e43e
000000c0: 07c0 823e 4fbf a7bd e631 993d f9aa e839
000000d0: 5807 2dbd 7f03 7e3d 9379 133c f4d9 c53e
000000e0: d708 fd3e ff3e 61be 11cf 073e e988 143e
000000f0: a47f b5be 87d6 78bd 65b0 5bbe 9e6f e23d
00000100: d6f5 053d 861d 8fbe 965e d43e 23bd 0bbd
00000110: 3c84 27bf d496 8f3e 3ac1 af3e 340a fdbd
00000120: 9ea9 2d3e bb17 27be 7360 a2bd 483f 763e
00000130: 1f94 0bbe dbee c9be 5324 3a3d 187f 453e
00000140: 81b7 05be 0c25 e0bd 1f21 01bf 167e 60be
00000150: ee5a a63e 4ecf 913e d554 fcbd 4af7 063e
00000160: 9e4b 953d a655 44bd 2bd0 a1be 73a4 e8be
00000170: 7543 cabe 686b fb3e 4f2a a53e eb0b 693c
00000180: 7086 df3c 3e11 1b3d 7e62 5c3d ed12 15be
00000190: 85b2 36be 00a8 e9bd 0557 9e3e 1da4 ce3e
000001a0: d4d5 003e 95e0 00bf 03bf 1e3e 3732 8fbd
000001b0: 29c2 6b3d 5d49 41be eeb5 ff3d ee50 8a3e
000001c0: e77e 3f3e 2989 c53e ed0d 97be a5fe c5be
000001d0: 616e cfbd a8a1 b8bd 827c 113d 8894 82be
000001e0: ff36 b43d 322b e73e 6fee c63e 3369 40be
000001f0: 9675 94be dd35 5fbe 5a22 24be 057f 3dbe
00000200: 23cb 6cbe a565 b33e a66e 0f3f d521 013f
00000210: 67a1 e3bd fb1a 08be 08a3 843d 82dd b63e
00000220: f3d7 a03e 12e9 ca3e f2ec 8cbd c08e febe
00000230: 01ee 2f3e ce61 00bf 4d34 febe c392 60bd
00000240: 7b12 7bbe 5902 6bbd 9aa7 a4be fd4f 1e3e
00000250: 8325 cc3d b835 af3d 8b0d 953e 159f 873e
00000260: 24e7 5ebd 3838 39be 77f7 a4be 0e50 09be
00000270: 4f2f 40bd 582f e83e 799b 01be 33c4 4f3e
00000280: ccf0 c93e f519 68bd 223d b0be 4ff3 fbbc
00000290: d674 2ebe e952 8a3e 204a dabe 4dc5 24be
000002a0: 1e1a bc3e 15de 493e bdd1 893e af18 92bd
000002b0: c212 8c3e 432c f83d d249 b2bc 784c f5be
000002c0: 7d97 e03d 8759 1cbd e16b eb3d df3b 033d
000002d0: da10 ec3d 1cef 283f 5712 5a3e 68a5 363e
000002e0: c239 62be 8f7e 643e cffa cebe 9c99 65be
000002f0: fe5a 6ebe d49b 043f c0f9 303e 7f04 a33c
00000300: e023 3c3e 6b0a 95bd 29db ffbe 9061 8cbd
00000310: a674 fd3a fb1c c4be edd1 453e 543c 783e
00000320: 2b8d 0d3f e035 8c3e 2c94 283e 24bf c0bc
00000330: 4363 b03d 1338 87be 2571 edbe 1d66 b4be
00000340: f921 d03e afd5 ea3e 7690 ddbe 635a ccbc
00000350: 0266 c73d 25de 6e3e 60f0 813e 0825 23be
00000360: 8949 633d 2a51 c23e 5052 ed3d ba56 40bd
00000370: 4625 99b7 2072 773e 0711 5a3c 06fc 433e
00000380: f147 28bd 248c a3be 7ed6 babe 201b 16bf
00000390: ff39 80be 6f5b 06bf 0c5e 95be 88f9 4ebe
000003a0: af53 413b 9654 d7bc 879f 803e cd0f d13e
000003b0: 1ba2 3a3e 1273 1b3f 200d 883e c1c5 753e
000003c0: a133 78bd 98d9 ab3d 34c4 e53d fe41 433e
000003d0: 78d9 843e 7681 9d3e 12b4 5cbc fc8b 86be
000003e0: f417 a8bd 24db b43e 22f0 55bf 1c34 41be
000003f0: 4df0 793e 989e ab3e 40a5 9b3d 7c11 23be

conv1.bias f4 [32]
0.13494168 -0.077068396 -0.13852973 -0.04925594 0.10894328 -0.012421235 0.28164354 0.2667518
-0.07934408 -0.15465878 -0.20688085 0.20623972 -0.004993495 0.13103698 0.025812682 -0.07179962
0.13455547 0.17181589 -0.116431616 0.3005103 0.12574424 -0.29406166 -0.36859897 0.26655838
-0.05374868 -0.18488303 -0.13819079 0.18589705 0.16790399 -0.30129948 -0.1344154 0.13670146
00000000: 272e 0a3e 09d6 9dbd bdda 0dbe 99c0 49bd
00000010: a81d df3d 7082 4bbc 9533 903e b193 883e
00000020: 267f a2bd df5e 1ebe 93d8 53be 8130 533e
00000030: 79a0 a3bb 8f2e 063e 1e75 d33c ae0b 93bd
00000040: e9c8 093e 81f0 2f3e b373 eebd 7cdc 993e
00000050: 19c3 003e 408f 96be 01b9 bcbe 577a 883e
00000060: 9327 5cbd fa51 3dbe e381 0dbe cc5b 3e3e
00000070: 06ef 2b3e ed43 9abe 31a4 09be 78fb 0b3e

bn1.weight f4 [32]
0.76038104 0.7384827 0.71140516 0.92118555 0.8401126 0.6923228 0.75789064 0.43143246
0.6667141 0.43092573 0.30799863 1.0546067 0.79654443 0.6344131 0.7192619 1.1333992
0.7437239 1.0210781 0.38843334 1.1243163 0.6096252 0.50545365 1.0208635 0.6126162
0.7506779 0.73514646 0.6463239 0.69347626 0.79452604 0.8156892 0.85614 0.5803716
00000000: 55a8 423f 340d 3d3f a61e 363f d1d2 6b3f
00000010: 9f11 573f 113c 313f 1f05 423f b7e4 dc3e
00000020: c6ad 2a3f 4ca2 dc3e ffb1 9d3e 5afd 863f
00000030: 56ea 4b3f e668 223f 8c21 383f 3a13 913f
00000040: b164 3e3f b0b2 823f bce0 c63e 99e9 8f3f
00000050: 6610 1c3f 6965 013f a8ab 823f 6ad4 1c3f
00000060: 6d2c 403f 8f32 3c3f 7c75 253f a987 313f
00000070: 0f66 4b3f 02d1 503f fe2b 5b3f 3c93 143f

bn1.bias f4 [32]
0.12873366 0.095167115 0.39519233 -0.27460575 -0.04254282 0.13954726 0.29123923 -0.053907678
0.09715538 -0.06359257 0.0937706 -0.14020656 0.017043848 -0.010470819 -0.23315866 0.5291678
-0.17367484 0.018133732 0.04460181 0.5901867 -0.03616944 0.069936395 -0.44376576 0.008484226
0.17496271 0.12066908 0.07383515 -0.25533286 -0.033944953 0.059279706 0.10992908 0.044112045
00000000: c2d2 033e fae6 c23d a656 ca3e 2099 8cbe
00000010: 6141 2ebd 7ae5 0e3e 4f1d 953e 4cce 5cbd
00000020: 66f9 c63d d23c 82bd cd0a c03d 4f92 0fbe
00000030: 8a9f 8b3c cc8d 2bbc 25c1 6ebe 8a77 073f
00000040: d1d7 31be 318d 943c 63b0 363d 7a16 173f
00000050: 6826 14bd d03a 8f3d 4435 e3be 6c01 0b3c
00000060: 6d29 333e 5a21 f73d e236 973d fdba 82be
00000070: dd09 0bbd 47cf 723d 7f22 e13d d5ae 343d

bn1.running_mean f4 [32]
-0.0498695 0.03798955 -0.18003117 -0.025136808 -0.15746485 -0.035645787 0.24161893 -0.024882592
-0.16365768 0.13450484 -0.03537193 0.2188707 0.22274649 0.61877054 0.59492695 -0.16949804
0.074761 0.15609232 -0.12822022 0.23899984 0.40592766 0.076802425 0.04902025 0.16851847
-0.001930574 -0.3098114 -0.19346373 -0.07825889 0.15587664 -0.5523446 -0.16300158 0.24144776
00000000: f643 4cbd ee9a 1b3d 175a 38be b5eb cdbc
00000010: 773e 21be 5101 12bd f46a 773e 94d6 cbbc
00000020: e195 27be a3bb 093e 28e2 10bd a41f 603e
00000030: a817 643e bf67 1e3f 224d 183f e590 2dbe
00000040: 4c1c 993d aad6 1f3e 294c 03be 60bc 743e
00000050: c0d5 cf3e 974a 9d3d 75c9 483d 1b90 2c3e
00000060: 500b fdba 9a9f 9ebe 5b1b 46be 3246 a0bd
00000070: 209e 1f3e 7566 0dbf e3e9 26be 153e 773e

bn1.running_var f4 [32]
2.4477234 0.70162755 1.2384717 2.7956343 3.3992078 0.23764847 0.49862656 4.366471
1.1555185 4.520094 2.2598321 0.34602326 1.6823144 5.958096 6.6678443 1.3940634
0.7447707 2.717133 3.331247 0.5592602 2.103504 3.769517 4.1569552 0.36180678
2.498235 1.9554617 2.2344036 4.744248 2.6362693 2.681412 0.8325717 4.5786905
00000000: 80a7 1c40 dd9d 333f 3e86 9e3f aceb 3240
00000010: 9f8c 5940 1f5a 733e fb4b ff3e 21ba 8b40
00000020: 08e8 933f 9ca4 9040 17a1 1040 f629 b13e
00000030: 1456 d73f b9a8 be40 fb5e d540 ab70 b23f
00000040: 4ba9 3e3f 82e5 2d40 2733 5540 ad2b 0f3f
00000050: cf9f 0640 c43f 7140 c705 8540 bd3e b93e
00000060: 15e3 1f40 924c fa3f 7800 0f40 e1d0 9740
00000070: a3b8 2840 419c 2b40 6b23 553f a284 9240

policy.start_states f4 [2, 4, 16]
0.32739314 -0.03265419 -0.18030787 0.9972283 -1.6730608 -1.0047356 0.04997248 0.38013992
0.77855057 0.8110113 0.2249233 -1.7883081 -0.19820505 1.5293599 -1.7203506 -0.2771979
-0.68955445 0.8905032 -0.11055719 -0.10759124 0.1043562 -1.1656176 0.29389784 0.38771725
-0.5056588 -1.0628651 -0.98199695 -0.8605196 0.004798179 -0.741539 1.3016939 -0.058766242
-0.19667035 0.19720395 0.2461571 0.38843316 -1.4040442 -0.3768387 -0.81578594 1.2900758
-0.16518001 -0.5512125 1.6922038 0.64446795 -0.17360911 0.5169973 -1.0391101 0.34684572
-0.0722909 -0.104297034 -0.20964505 -1.1657188 -0.4052894 -0.14803027 0.9717249 0.34816158
1.5432497 -1.8023754 0.24874565 -0.45913148 -0.26100057 1.3915594 0.9569273 0.9889743
-1.4695202 -0.38931236 1.8449235 0.2706672 -0.049132522 0.80476844 1.6866603 -0.94578826
-0.8065989 0.3788187 -0.9798234 -1.0335051 0.8559232 1.5015182 -1.7425687 0.48069584
-0.04039028 0.7629413 -0.6102627 -0.35422498 -0.0416446 0.6895114 -1.5779784 0.6572081
0.67180437 0.8795258 2.1341064 -1.1780633 -0.6122679 0.58670896 0.32179132 0.9542715
-0.049353488 -0.594665 -1.4567207 -0.37456372 0.24979475 0.35612303 0.76346064 0.5388892
0.4365497 -0.37501436 0.18806586 -0.5915082 -0.97885627 0.8975396 -0.6359719 1.4019802
0.7253428 -1.6743449 0.6943732 1.2366203 -0.21137533 -0.4483919 -0.86644334 -1.9351941
-0.40093234 -1.8367344 0.37671202 0.53162956 0.5999116 -1.6352228 0.7887059 -1.0330113
00000000: 13a0 a73e 66c0 05bd a0a2 38be 5b4a 7f3f
00000010: db26 d6bf 2d9b 80bf f1af 4c3d b3a1 c23e
00000020: 174f 473f 709e 4f3f 4b52 663e 48e7 e4bf
00000030: 44f6 4abe 11c2 c33f 7334 dcbf e2ec 8dbe
00000040: a486 30bf 05f8 633f cf6b e2bd cc58 dcbd
00000050: b4b8 d53d f532 95bf c779 963e e082 c63e
00000060: db72 01bf f70b 88bf 2764 7bbf 034b 5cbf
00000070: 0b3a 9d3b 80d5 3dbf e89d a63f dfb4 70bd
00000080: f463 49be d5ef 493e 9b10 7c3e b6e0 c63e
00000090: b8b7 b3bf 01f1 c0be 59d7 50bf 3421 a53f
000000a0: f324 29be 431c 0dbf 229a d83f dafb 243f
000000b0: 96c6 31be ef59 043f 8f01 85bf c395 b13e
000000c0: 400d 94bd af99 d5bd 31ad 56be 4636 95bf
000000d0: 1882 cfbe 3f95 17be f7c2 783f 3c42 b23e
000000e0: 3589 c53f 3db4 e6bf 2eb7 7e3e 4813 ebbe
000000f0: dea1 85be 9e1e b23f 30f9 743f 6b2d 7d3f
00000100: 3d19 bcbf f353 c7be 7426 ec3f e494 8a3e
00000110: 2f3f 49bd 4e05 4e3f 7ce4 d73f 2e1f 72bf
00000120: 447d 4ebf 86f4 c13e b5d5 7abf e549 84bf
00000130: c81d 5b3f c031 c03f 7e0c dfbf c41d f63e
00000140: 4770 25bd 1f50 433f 2d3a 1cbf fa5c b5be
00000150: 8793 2abd d283 303f 32fb c9bf ca3e 283f
00000160: 5ffb 2b3f 9a28 613f 3395 0840 c7ca 96bf
00000170: 97bd 1cbf 8f32 163f d5c1 a43e 234b 743f
00000180: e226 4abd f73b 18bf d375 babf d1c6 bfbe
00000190: 32ca 7f3e c255 b63e 2872 433f a5f4 093f
000001a0: 7183 df3e e201 c0be 5694 403e 156d 17bf
000001b0: 5396 7abf 28c5 653f 0ecf 22bf 1674 b33f
000001c0: 11b0 393f ef50 d6bf 71c2 313f 9349 9e3f
000001d0: c672 58be a093 e5be 3bcf 5dbf 71b4 f7bf
000001e0: 0147 cdbe 1d1a ebbf 66e0 c03e e018 083f
000001f0: ce93 193f fb4e d1bf a1e8 493f b739 84bf

policy.layer_generator_weight f4 [64, 288]
1.2473662 1.1175932 -0.3465 0.33259755 0.28506938 -1.1464709 0.031326126 -0.68346405
-1.7366339 -0.018825669 0.74342775 0.9637962 -0.8540634 -0.1333568 0.31074268 -0.7724356
-0.16002566 1.4434323 1.0620348 -1.296739 -0.2765128 -0.5563089 -0.50572014 0.8423093
0.12306447 -0.41008502 -0.1999182 0.059525643 -1.0536158 -0.37696368 -1.2953523 0.2995272
-0.6888742 0.26542133 0.23566194 -1.1265063 -0.8487946 0.5007087 -2.2537072 1.8615918
-1.0004272 0.52428645 1.2301905 1.8144027 1.025448 0.9084436 0.24769954 -0.619625
0.3724075 -0.42814487 -0.90351367 0.35557097 0.69329447 1.3646414 0.80324394 -0.48371923
0.65740275 -0.44141063 -0.32249314 -0.39875683 -0.47027105 -0.8138038 1.9175386 1.4147758
-1.5207955 -0.013054561 -0.08929639 -1.9332845 0.19157934 -0.34947997 -0.43002233 0.21195836
0.041536592 0.44093212 1.3405521 0.2854261 -0.21200047 -1.516387 -0.0023996204 -1.1604517
-0.51803404 0.71678054 0.5254182 -1.0798128 -1.7309797 -1.1042418 -0.00971523 1.6150458
2.8304455 1.0338055 -0.6711479 -1.3045197 0.93456924 1.0586704 1.3280777 -0.35998207
-0.7351209 -1.3100301 -0.30796346 0.8536662 0.38206893 0.9834317 0.2529 1.2223914
-0.3394345 1.1033981 -0.1364768 -0.7030534 -0.44146922 -0.30490047 0.48744506 0.36696005
-0.8980825 -0.8951006 -0.9008501 0.40428323 -1.0136745 0.6109185 0.8225657 0.2588949
-0.2782688 -0.0068216906 1.0631725 1.4132515 -0.7293579 0.7278027 -0.3236249 1.0227765
0.015595443 -0.2913991 -1.6981629 1.3838798 -0.642025 0.22649579 0.52439684 -0.46941403
-1.1637999 0.77659136 -0.9907204 1.3094187 0.04693259 -0.3061869 0.70436543 0.27350053
0.1461627 -0.11593948 1.7362796 0.099317655 0.038915973 1.6281075 0.6294208 -0.6245594
1.1747862 -1.4520153 -0.6864827 -0.72878087 0.6460045 -0.3023188 -1.3348775 -0.70195246
0.36011702 -0.5244431 -1.9877758 -0.46672693 1.5664605 0.22418097 1.1221092 2.2680266
1.2295593 1.6095997 1.7374171 0.84109163 -1.220607 0.65539324 -0.4660839 0.88689417
-1.9662416 -0.25073212 -0.46520507 0.85010684 -0.028594343 0.5158868 0.61855555 -0.16042742
-0.6576036 1.9956104 -0.97029155 0.4693096 1.4185262 -1.5936695 -0.60230994 1.8765595
-1.0374458 0.10036479 -0.20281492 0.55020636 0.026360748 -0.5631289 -0.86127627 0.047568403
1.5975062 1.0254327 1.1494185 -1.9457395 -1.4142792 -1.1247909 -1.7311019 -1.119892
-0.5803528 -1.3115369 0.88442016 -0.38864967 0.32254255 -1.1474609 0.9793387 1.1065017
-0.07585174 0.56682897 -0.022590943 -0.44135118 -0.8816365 0.27831498 0.14687456 -0.8257994
-0.171098 0.4132285 0.11209439 -1.6054273 -0.08045347 0.7645424 -0.58124846 0.3952852
-0.73584574 0.114342436 -0.8763084 0.0025337986 -0.31793624 0.5295702 0.88307357 -0.21839808
0.68525636 -0.034064576 -0.32774198 -1.1568801 -0.6654687 0.14230193 -0.9266526 0.035019267
0.0834592 0.0076380046 -0.8313192 -0.58480954 -0.8179088 0.4778744 -1.9906626 1.2186147
00000000: b2a9 9f3f 4b0d 8f3f 7368 b1be 3a4a aa3e
00000010: 9df4 913e 8fbf 92bf d34f 003d 80f7 2ebf
00000020: 054a debf 4a38 9abc 4851 3e3f 59bb 763f
00000030: e6a3 5abf af8e 08be aa19 9f3e 57be 45bf
00000040: c4dd 23be 64c2 b83f c2f0 873f 8bfb a5bf
00000050: 1693 8dbe 436a 0ebf e076 01bf 95a1 573f
00000060: 3a09 fc3d aaf6 d1be 5bb7 4cbe 29d1 733d
00000070: e2dc 86bf 6201 c1be 1bce a5bf a15b 993e
00000080: 0f5a 30bf 4ee5 873e 5d51 713e 5c31 90bf
00000090: 9a4a 59bf 722e 003f bd3c 10c0 a448 ee3f
000000a0: 000e 80bf a337 063f e276 9d3f 593e e83f
000000b0: e141 833f c38f 683f f3a4 7d3e be9f 1ebf
000000c0: 32ac be3e ce35 dbbe ac4c 67bf 660d b63e
000000d0: bf7b 313f 92ac ae3f 65a1 4d3f 0caa f7be
000000e0: 8c4b 283f 9300 e2be d21d a5be db29 ccbe
000000f0: 5ec7 f0be 7255 50bf e871 f53f 6017 b53f
00000100: 6da9 c2bf cce2 55bc 07e1 b6bd de75 f7bf
00000110: 602d 443e 0aef b2be e32b dcbe 9d0b 593e
00000120: 4622 2a3d dbc1 e13e 3697 ab3f 5f23 923e
00000130: a716 59be f818 c2bf f342 1dbb ae89 94bf
00000140: e19d 04bf ee7e 373f cf81 063f 4e37 8abf
00000150: be90 ddbf cc57 8dbf a12c 1fbc d2b9 ce3f
00000160: 0526 3540 bd53 843f 59d0 2bbf 80fa a6bf
00000170: ee3f 6f3f 8382 873f 73fe a93f 924f b8be
00000180: e230 3cbf 11af a7bf 63ad 9dbe de89 5a3f
00000190: 8a9e c33e 2ec2 7b3f 1c7c 813e 5277 9c3f
000001a0: 5cca adbe 263c 8d3f 93c0 0bbe 4ffb 33bf
000001b0: 4108 e2be ea1b 9cbe 6692 f93e 30e2 bb3e
000001c0: bce8 65bf 5025 65bf 1d9e 66bf 36fe ce3e
000001d0: 16c0 81bf 2865 1c3f aa93 523f df8d 843e
000001e0: 4079 8ebe 7d88 dfbb 0916 883f 6de5 b43f
000001f0: 33b7 3abf 4751 3a3f 2ab2 a5be 57ea 823f
00000200: 0784 7f3c 4332 95be 675d d9bf f922 b13f
00000210: c05b 24bf 83ee 673e df3e 063f 0957 f0be
00000220: 65f7 94bf b1ce 463f da9f 7dbf 089b a73f
00000230: 633c 403d 88c4 9cbe 4b51 343f 4308 8c3e
00000240: adab 153e ae71 edbd 693e de3f 0e67 cb3d
00000250: 5b66 1f3d d465 d03f b921 213f 20e3 1fbf
00000260: 655f 963f a3db b9bf 55bd 2fbf 6291 3abf
00000270: 8d60 253f 88c9 9abe 44dd aabf 28b3 33bf
00000280: 4261 b83e e741 06bf 706f febf d5f6 eebe
00000290: c781 c83f b28f 653e 46a1 8f3f 5927 1140
000002a0: 3362 9d3f 5d07 ce3f af63 de3f c851 573f
000002b0: da3c 9cbf dac7 273f 8da2 eebe 7f0b 633f
000002c0: cead fbbf f65f 80be 5c2f eebe 9aa0 593f
000002d0: af3e eabc 2811 043f a859 1e3f 1647 24be
000002e0: b658 28bf 2970 ff3f 0765 78bf 5949 f03e
000002f0: 4492 b53f 5dfd cbbf fc30 1abf 1a33 f03f
00000300: 06cb 84bf 0e8c cd3d b7ae 4fbe 53da 0c3f
00000310: 7ff2 d73c 3729 10bf 9a7c 5cbf 16d7 423d
00000320: 157b cc3f 6141 833f 2520 933f fe0d f9bf
00000330: 1a07 b5bf 26f9 8fbf bf94 ddbf 9f58 8fbf
00000340: 0092 14bf 71e0 a7bf 5c69 623f 17fd c6be
00000350: 4c24 a53e 00e0 92bf f1b5 7a3f d9a1 8d3f
00000360: 2858 9bbd b41b 113f a410 b9bc c8f8 e1be
00000370: eeb2 61bf 4d7f 8e3e 4966 163e 9767 53bf
00000380: 5034 2fbe b092 d33e be91 e53d a47e cdbf
00000390: cac4 a4bd 0db9 433f b3cc 14bf d262 ca3e
000003a0: 6360 3cbf 5e2c ea3d bf55 60bf 160e 263b
000003b0: 8ac8 a2be ea91 073f 1c11 623f bfa3 5fbe
000003c0: f66c 2f3f 4c87 0bbd cccd a7be a614 94bf
000003d0: 285c 2abf 99b7 113e 1b39 6dbf 5d70 0f3d
000003e0: a8ec aa3d 3a48 fa3b 56d1 54bf 14b6 15bf
000003f0: 7962 51bf f4ab f43e 08ce febf 91fb 9b3f

policy.layer_generator_bias f4 [288]
-0.6454201 0.15093043 -1.5182401 0.8836004 -2.1086786 -1.5374099 1.0267911 -0.18315661
-2.392963 -1.5508469 -0.26623157 -0.75681674 -1.6449357 -1.0958072 0.7583711 -1.486888
-0.79017395 0.39780354 -0.30961618 -1.1934777 0.79317296 0.85306126 -0.6993268 -0.40066108
-0.58276606 1.6981673 -1.1048464 -1.7495971 -1.7983136 -0.74197793 -2.075124 -0.1664396
-0.1670078 -0.6281949 -1.8731173 -2.1231964 1.2885972 1.4547371 -0.90416634 -0.66357994
-0.42782816 0.300846 -2.1073651 -0.71154606 -0.9357532 -0.31183404 0.4092484 1.4055474
1.0595571 1.5281667 -0.723846 -1.3774277 1.433439 1.0900849 -0.13682358 -0.9791301
0.69087476 0.5108923 0.59988666 1.2229708 -1.7846285 -0.22336136 -1.9210111 -0.12712853
0.10912155 -0.051401664 0.7966296 0.7173235 -0.47105908 0.85467094 -0.991787 -0.34852728
0.38685587 0.7494787 0.23439878 0.41239277 1.0374422 1.3030541 0.22109886 -0.87001246
-0.89324546 0.3464183 0.2391204 0.028848434 -0.91100776 -0.8367103 0.8062118 0.053530198
0.48958018 1.422559 1.0881739 0.13760984 0.85397404 1.2961397 0.0065085813 1.0499736
0.4168547 0.67148954 1.3766713 0.94410384 -0.29056928 2.4157357 -1.0014029 0.23139499
-0.037698682 0.61501616 -1.1226413 0.69079036 0.23188561 -2.1925247 -0.82821506 0.19147839
-0.29599014 0.6719933 -0.21421917 -0.007188482 -0.97871727 -0.7826039 1.025847 -1.0368154
0.76999533 0.1666682 -1.8762777 0.12416627 1.5218444 1.1445606 0.563084 -1.2954175
0.14120696 1.6799479 1.1455228 0.01904441 -0.5650857 0.34717423 -0.69228846 -0.92469686
0.28105175 -1.8382069 -0.73211485 0.5893847 0.7428515 0.25361052 0.19848703 -0.62249565
-2.0462508 1.1129061 0.3689856 -0.98368526 1.4583999 -1.0737009 0.67682034 1.1805263
-1.0387732 -0.4792289 -0.34063858 -1.4349202 0.0084535 1.0640359 -0.07287333 -2.1462183
-0.67484206 -0.5502668 1.1053488 0.84632874 1.1516796 0.7604702 1.2066451 0.4922949
0.45288527 0.29202014 0.5940819 1.0136395 -0.13394701 0.22039217 -0.31819826 2.2756257
0.28518286 -0.25515154 -0.8009782 -1.093227 -0.88337547 -0.35557696 0.49971265 0.15671206
1.9472674 -0.12714876 -1.0422596 0.12171153 -1.7630371 -0.3880211 0.9701371 1.0883386
0.53231716 -0.13918568 -0.0056391 0.77455366 0.41714582 -0.12422321 -0.82813334 -0.70816326
0.64702904 -0.45910317 0.14636654 1.0827887 -0.0931353 -0.32926756 -0.2413305 1.0044181
0.648363 -0.15231909 1.0910617 1.2242304 0.6968396 -1.2691028 -1.1658128 -0.8254492
-1.8743445 -0.8626639 -0.3794067 -0.4107557 -0.01497349 -1.2133805 -0.24018037 -1.6000444
-0.69671667 -0.053872798 -0.43017343 -1.1413645 -1.1572536 -1.5465413 -1.9639311 -1.6003299
-0.16287655 0.026982928 0.47130895 -0.6358315 0.48081583 1.3752841 -0.046665978 0.3331579
-1.7160228 1.22073 -0.8542422 0.5399379 0.2687626 -0.84049034 -0.13890406 1.5958638
-0.9486384 1.2257686 0.9916277 -1.0609326 -0.07694084 -1.3547231 -2.4368231 0.70048386
00000000: 403a 25bf 828d 1a3e b155 c2bf a333 623f
00000010: 97f4 06c0 d9c9 c4bf e46d 833f 688d 3bbe
00000020: 4e26 19c0 2782 c6bf 814f 88be bebe 41bf
00000030: 418d d2bf 6943 8cbf 9c24 423f 5952 bebf
00000040: d748 4abf e8ac cb3e 0386 9ebe e1c3 98bf
00000050: 620d 4b3f 3962 5a3f 1507 33bf 7323 cdbe
00000060: 2830 15bf 8c5d d93f 9b6b 8dbf ccf2 dfbf
00000070: 242f e6bf 44f2 3dbf d5ce 04c0 246f 2abe
00000080: 1804 2bbe 62d1 20bf 4fc2 efbf 73e2 07c0
00000090: c1f0 a43f d334 ba3f 7277 67bf 60e0 29bf
000000a0: 4b0c dbbe 7d08 9a3e 12df 06c0 e227 36bf
000000b0: 868d 6fbf b6a8 9fbe 0289 d13e fae8 b33f
000000c0: 919f 873f f79a c33f f94d 39bf 8d4f b0bf
000000d0: ee7a b73f e787 8b3f 7b1b 0cbe 45a8 7abf
000000e0: 2bdd 303f d6c9 023f 2c92 193f 4f8a 9c3f
000000f0: b56e e4bf d7b8 64be b1e3 f5bf fb2d 02be
00000100: 1f7b df3d 8d8a 52bd ebef 4b3f 83a2 373f
00000110: a82e f1be b7cb 5a3f c1e5 7dbf 2b72 b2be
00000120: f911 c63e d6dd 3f3f 3c06 703e 2525 d33e
00000130: e8ca 843f 7aca a63f bd67 623e 23b9 5ebf
00000140: bcab 64bf bd5d b13e fadb 743e 8d53 ec3c
00000150: ce37 69bf a532 56bf e663 4e3f 7b42 5b3d
00000160: 41aa fa3e 6a16 b63f 4849 8b3f 98e9 0c3e
00000170: 0b9e 5a3f e8e7 a53f f045 d53b 8965 863f
00000180: fb6d d53e bde6 2b3f c436 b03f cab0 713f
00000190: 7fc5 94be 6a9b 1a40 f82d 80bf cff2 6c3e
000001a0: ef69 1abd b371 1d3f b6b2 8fbf a3d7 303f
000001b0: 6c73 6d3e 5352 0cc0 e705 54bf e912 443e
000001c0: 058c 97be c107 2c3f 455c 5bbe 5c8d ebbb
000001d0: 378d 7abf bb58 48bf f44e 833f 5eb6 84bf
000001e0: 6a1e 453f 12ab 2a3e de29 f0bf e34a fe3d
000001f0: cccb c23f f680 923f 4626 103f 3ed0 a5bf
00000200: 8f98 103e 8808 d73f 7ea0 923f 0603 9c3c
00000210: 75a9 10bf d2c0 b13e d139 31bf efb8 6cbf
00000220: 04e6 8f3e 5d4a ebbf e16b 3bbf eae1 163f
00000230: 842b 3e3f 3dd9 813e 2f40 4b3e e05b 1fbf
00000240: c6f5 02c0 b573 8e3f aeeb bc3e ccd2 7bbf
00000250: d9ac ba3f 086f 89bf 1944 2d3f 7c1b 973f
00000260: 85f6 84bf 7e5d f5be 2e68 aebe 77ab b7bf
00000270: 8d80 0a3c 5432 883f 9d3e 95bd a45b 09c0
00000280: 73c2 2cbf 49de 0cbf 127c 8d3f 00a9 583f
00000290: 3d6a 933f 2dae 423f 5973 9a3f 140e fc3e
000002a0: 94e0 e73e aa83 953e c015 183f f0be 813f
000002b0: 6829 09be 7cae 613e e2ea a2be daa3 1140
000002c0: 7d03 923e 39a3 82be e80c 4dbf ddee 8bbf
000002d0: e524 62bf 2f0e b6be 56da ff3e 2079 203e
000002e0: 0f40 f93f 4933 02be c368 85bf e543 f93d
000002f0: 33ab e1bf b4aa c6be e85a 783f ae4e 8b3f
00000300: f045 083f b186 0ebe 33c8 b8bb 2649 463f
00000310: 2394 d53e bd68 febd 8c00 54bf 304a 35bf
00000320: b2a3 253f 920f ebbe 1ce1 153e d298 8a3f
00000330: b8bd bebd c295 a8be 581f 77be c690 803f
00000340: 1efb 253f 89f9 1bbe e9a7 8b3f 95b3 9c3f
00000350: 1464 323f f671 a2bf 5b39 95bf a450 53bf
00000360: 85ea efbf 8bd7 5cbf 9841 c2be 924e d2be
00000370: 5e53 75bc 0d50 9bbf d8f1 75be 41ce ccbf
00000380: 065c 32bf b9a9 5cbd b13f dcbe 3b18 92bf
00000390: e320 94bf 11f5 c5bf 1862 fbbf 9cd7 ccbf
000003a0: 1cc9 26be 4d0b dd3c 684f f13e dac5 22bf
000003b0: 7e2d f63e 4f09 b03f d324 3fbd ac93 aa3e
000003c0: a3a6 dbbf e140 9c3f 9eaf 5abf 5f39 0a3f
000003d0: 409b 893e 602a 57bf de3c 0ebe 4445 cc3f
000003e0: f7d9 72bf fce5 9c3f 50db 7d3f a4cc 87bf
000003f0: 2993 9dbd 9167 adbf e9f4 1bc0 e952 333f

policy.kernel_embedding_generator_weight f4 [64, 2048]
0.06928971 -0.2658031 1.3571076 0.7974256 -0.6675926 -1.0604635 0.36195248 -0.3558118
-1.5779008 0.97876406 -1.0514158 -0.6966179 -0.6892576 2.0434885 1.1131757 0.49567124
1.8015139 -1.0118064 0.9271105 -0.28851447 0.7849729 -0.25517002 -1.3402171 -1.8556567
0.24555798 -0.95976365 -0.0330923 -0.03475808 0.44935945 -0.95406556 -1.6006 -1.2225971
-1.771431 0.05500501 0.31816 -1.7102185 0.40864813 1.2748421 0.41574576 -0.3857383
-1.1847408 0.904479 -0.7285088 -1.4874023 -1.0228658 -1.2441069 -1.9781129 -1.4541637
-0.27157927 0.35793337 1.2904187 -0.5241288 0.8714481 -1.7701306 -0.10954811 -1.1918784
1.0586693 1.0246743 0.2075834 -1.2707378 0.8958825 0.045116156 -0.29228497 -0.19105935
2.2153168 -1.4329753 1.0888036 -0.84285116 1.1757188 -0.7615964 -0.64921254 1.0967759
0.5394214 0.41841963 0.7951019 -0.00957106 -1.7630672 -0.9899326 -2.114203 -0.25446555
-1.0240824 -1.1403556 -0.6090109 -0.54669106 -1.7628503 -0.2677669 -1.3741376 1.1511072
0.2972816 0.7908201 0.025356155 -1.1813846 0.38539734 -0.5831743 -0.7251866 -0.119637854
0.03303914 -0.12820838 0.7559394 -1.5743077 -0.9958187 -0.6089959 0.23481144 -0.3062032
-0.4518016 1.1237521 0.62276196 -0.03195709 0.19122505 0.6942888 0.76642054 -0.87241703
-0.8547067 -0.074648134 1.4535958 -1.7046273 0.19549191 1.1360052 -0.77050054 -0.055238668
-1.0898434 -0.7305788 0.674947 0.23328847 -0.17741422 1.2085981 0.9463109 0.033789348
-1.3161093 1.1488632 0.19823876 0.108683206 0.43160266 0.22804843 -1.159624 -1.1670986
-0.42361858 0.06248443 0.2609783 0.79977775 -1.7839421 0.78206104 1.8881602 0.9068909
1.1731826 0.6757964 -1.4938262 -2.1344988 1.3021234 0.5493968 -1.2878355 -0.3654999
-1.3453169 -1.310329 -1.4843521 0.23615123 0.8456889 -0.97695047 0.90491575 0.25320986
1.6249063 -0.63440627 -1.3301694 0.53441846 0.74924666 1.037326 -0.8503697 -0.031604167
-0.031172058 -0.2545494 0.9622438 -0.6874784 -0.72446996 -0.007940478 0.70196176 -1.0842341
1.6356293 -0.39895585 0.86058146 0.70673287 -0.94650376 -0.83181924 -1.8151402 -0.56192446
1.8830447 -0.052260686 -0.5759277 0.16594696 -0.33375192 -0.7815499 -1.259797 -0.5097541
-0.08170773 -0.9916041 0.6876449 -1.5176418 -0.14919272 0.50018066 2.0119588 1.9406711
0.7163206 -1.0798008 1.0941348 -1.5449324 1.700534 -0.88998467 -0.8761549 1.0409033
-4.5935594e-05 -0.5932395 -0.7530173 -0.39950103 -1.6848054 1.6816322 -0.3168415 0.48079062
0.061006665 -0.13510211 -0.006115268 0.37227067 -1.2158053 -0.2781328 0.625555 -0.0956582
0.92868954 0.93884295 1.3524809 -0.6890958 0.4749148 1.2003754 1.0813991 -0.5997132
0.8564504 -0.119662784 0.8023525 -1.4221306 -0.68411803 0.10289843 0.5900282 0.22873527
1.1070986 0.29585257 0.5721139 0.10382299 -1.9988246 -0.73263067 0.7887973 0.93591624
-0.3674462 0.17235939 0.38769013 -1.9047408 0.9757855 1.2837123 -0.061377503 -0.021016581
00000000: c3e7 8d3d 5817 88be b4b5 ad3f 1624 4c3f
00000010: 59e7 2abf 45bd 87bf d651 b93e f72c b6be
00000020: a7f8 c9bf 4890 7a3f cb94 86bf 8d55 32bf
00000030: 3073 30bf 84c8 0240 8b7c 8e3f 9fc8 fd3e
00000040: 0298 e63f df82 81bf 1d57 6d3f 2bb8 93be
00000050: fcf3 483f a5a5 82be 3c8c abbf 2986 edbf
00000060: 8d73 7b3e 12b3 75bf cb8b 07bd 7d5e 0ebd
00000070: 7112 e63e a43d 74bf 76e0 ccbf 107e 9cbf
00000080: 40be e2bf ef4c 613d dee5 a23e 71e8 dabf
00000090: 543a d13e 072e a33f a1dc d43e 7e7f c5be
000000a0: 96a5 97bf f08b 673f 8d7f 3abf 3363 bebf
000000b0: 44ed 82bf e53e 9fbf ce32 fdbf 0922 babf
000000c0: 700c 8bbe 0b43 b73e 712c a53f 4e2d 06bf
000000d0: 3917 5f3f a493 e2bf c25a e0bd 798f 98bf
000000e0: 7a82 873f 8728 833f be90 543e 89a7 a2bf
000000f0: 8e58 653f b8cb 383d 60a6 95be 10a5 43be
00000100: c0c7 0d40 bc6b b7bf eb5d 8b3f 18c5 57bf
00000110: f47d 963f fbf7 42bf cb32 26bf 2763 8c3f
00000120: 8517 0a3f 193b d63e cc8b 4b3f efcf 1cbc
00000130: 30ac e1bf 396c 7dbf 1a4f 07c0 4f49 82be
00000140: 2215 83bf 2cf7 91bf 23e8 1bbf f2f3 0bbf
00000150: 14a5 e1bf be18 89be bee3 afbf 7b57 933f
00000160: 4b35 983e 3073 4a3f b6b7 cf3c 9c37 97bf
00000170: cd52 c53e e94a 15bf d4a5 39bf b104 f5bd
00000180: 0d54 073d 0f49 03be 3f85 413f ea82 c9bf
00000190: f9ed 7ebf 28e7 1bbf 6972 703e aac6 9cbe
000001a0: 8a52 e7be 1cd7 8f3f 546d 1f3f 70e5 02bd
000001b0: 80d0 433e e9bc 313f 2334 443f b956 5fbf
000001c0: 0fce 5abf 1fe1 98bd 6d0f ba3f 3a31 dabf
000001d0: 082f 483e 9e68 913f 863f 45bf f141 62bd
000001e0: fd7f 8bbf 3607 3bbf 54c9 2c3f 2ce3 6e3e
000001f0: 13ac 35be 58b3 9a3f 6e41 723f b366 0a3d
00000200: 4576 a8bf f30d 933f 1aff 4a3e 4d95 de3d
00000210: 06fb dc3e 8785 693e 8f6e 94bf 7d63 95bf
00000220: 89e4 d8be acef 7f3d f39e 853e 3cbe 4c3f
00000230: 3758 e4bf 2735 483f 3caf f13f 012a 683f
00000240: d92a 963f fe00 2d3f b235 bfbf a19b 08c0
00000250: fbab a63f 45a5 0c3f cbd7 a4bf ce22 bbbe
00000260: 5833 acbf dcb8 a7bf 40ff bdbf a1d1 713e
00000270: 117f 583f 6d19 7abf 8fa8 673f b9a4 813e
00000280: eefc cf3f 7368 22bf fe42 aabf a6cf 083f
00000290: a1ce 3f3f 19c7 843f d4b1 59bf 5f73 01bd
000002a0: 8b5c ffbc 4d54 82be 9c55 763f 96fe 2fbf
000002b0: dd76 39bf c718 02bc c4b3 333f 2fc8 8abf
000002c0: 4d5c d13f f143 ccbe 114f 5c3f 72ec 343f
000002d0: 124e 72bf 1bf2 54bf 8456 e8bf 48da 0fbf
000002e0: 9c07 f13f 4d0f 56bd ff6f 13bf 00ee 293e
000002f0: 88e1 aabe a713 48bf 0741 a1bf 3f7f 02bf
00000300: 6256 a7bd c4d9 7dbf 7f09 303f 1642 c2bf
00000310: fac5 18be d70b 003f efc3 0040 e967 f83f
00000320: c960 373f ea36 8abf 9c0c 8c3f 58c0 c5bf
00000330: 19ab d93f 09d6 63bf b04b 60bf 523c 853f
00000340: f8aa 40b8 8bde 17bf bec5 40bf 668b ccbe
00000350: b4a7 d7bf b93f d73f 0d39 a2be 302a f63e
00000360: 20e2 793d 3558 0abe 9662 c8bb 439a be3e
00000370: 829f 9bbf 6c67 8ebe 5f24 203f 72e8 c3bd
00000380: 99be 6d3f 0358 703f 181e ad3f 9568 30bf
00000390: 0828 f33e e7a5 993f 496b 8a3f ce86 19bf
000003a0: 5540 5b3f c311 f5bd f966 4d3f 6008 b6bf
000003b0: 5c22 2fbf 69bc d23d 170c 173f 9439 6a3e
000003c0: 68b5 8d3f fd79 973e 0e76 123f 26a1 d43d
000003d0: 7cd9 ffbf af8d 3bbf 9fee 493f 3598 6f3f
000003e0: e921 bcbe fb7e 303e 527f c63e 8cce f3bf
000003f0: 14cd 793f af50 a43f fa66 7bbd f72a acbc

policy.kernel_embedding_generator_bias f4 [2048]
-0.49784738 0.12824328 1.2490698 0.9581145 -0.13849123 -0.61266875 -0.5987205 0.3810149
-0.026031451 0.5400787 0.4275718 0.74498343 1.2546694 0.14006189 -0.054373242 -0.052561607
-0.67425346 0.009326362 0.61347175 -0.7692538 -0.25713226 -0.7661734 -0.6057904 -0.39199513
-2.0445683 0.049059797 1.0512094 0.60959303 1.5926464 1.3908638 0.6891523 -0.45491233
0.4657111 0.45476744 1.3657651 -0.020781983 -0.88008857 -1.1561205 0.53029895 0.5924487
-0.80696714 0.07168807 -0.08616109 -0.32849625 1.0521679 0.113102406 0.04515411 0.7918641
0.19968581 -0.7867473 -0.24755292 -0.75214314 -0.7995879 0.55460536 0.9190661 -0.22567235
0.14170949 -1.763595 -1.2139409 -0.05432392 -1.1395239 0.32323313 0.03254773 -0.6371949
1.1282278 -1.7955468 -0.73112625 0.44721702 0.58238816 0.8199022 -0.82228005 1.7427928
0.20688246 -1.4057559 1.0790565 -0.07285135 0.42208034 0.36506903 0.8651819 -1.621343
1.2242705 -1.5299274 0.31675702 -0.23857994 -0.60015476 -0.5647279 -1.5543078 0.05367303
-1.621908 0.009349945 0.19461705 0.38552207 -0.7695142 -0.1727153 0.28790942 1.48679
0.04382369 -0.66732734 0.38857603 -0.029373499 0.31486616 -1.245973 -0.2781306 -1.2761154
-0.11718592 1.0706347 0.42371368 -1.1798301 0.5925306 2.113021 0.19622241 -0.40715772
1.0548862 0.9195056 0.46147346 -0.25991023 1.5340484 0.15940973 -0.14622755 -0.0061975685
1.0800313 1.0440252 2.173512 0.4694936 -0.6359885 1.2630193 -0.70500755 -0.692661
0.25980344 -1.3096275 0.56803083 -0.5620548 0.18609256 0.14801615 -0.37094337 0.71777046
1.3882653 1.5193956 0.2778622 -1.0607933 0.679329 -0.2876234 -0.3964873 -0.93676436
1.8418366 0.46556643 -0.6853388 0.77344024 0.94796044 0.1419778 1.1038619 0.6205421
-0.7724877 0.3128839 1.5300491 1.2558554 -0.8992382 0.76962405 1.088267 -0.60931855
1.1449707 -0.471405 -1.3280629 -0.32112166 0.6280964 -2.0722072 0.21896802 0.8481215
-0.21158585 0.028035907 -1.8425969 0.45925248 -0.683405 0.7042461 0.79196954 -0.21401301
0.31294364 -0.3662651 -0.31609252 0.87197065 -0.19247092 -0.13388295 -0.2630697 -1.4065167
-0.52951247 1.4155531 -0.856786 -0.14620198 -0.7463635 -1.8221792 -0.5217421 0.8557076
-0.2561633 -1.7300798 0.091236584 1.2615576 0.37180504 -1.6078397 1.0908315 -0.4065475
-0.4909132 1.7629056 1.5943019 -1.1359273 0.44850025 -1.0813147 -0.509676 1.3081405
0.22882134 -1.0532234 -1.9523665 0.32192126 -0.73529464 1.9248254 -0.4076494 -0.13905141
-1.3625592 -0.7682593 -0.041091893 -0.2193546 1.020099 0.07708821 0.13567783 0.5193857
0.53346485 -1.5905414 1.3065943 -1.3129277 0.69737685 -1.5400742 1.6907233 -0.32776034
0.54977894 -0.781922 0.66446775 0.118650675 0.41061196 -1.5414641 -0.41355538 -0.58937377
1.4283067 0.4337739 0.41230276 -0.006889492 0.37570745 -1.815402 -1.0819356 0.43678278
1.3133249 0.96588033 -1.5395427 1.1829267 -0.6728047 -1.13879 -0.43066597 0.07620412
00000000: dae5 febe 3552 033e 85e1 9f3f fe46 753f
00000010: a5d0 0dbe dcd7 1cbf bf45 19bf 6314 c33e
00000020: e93f d5bc 9942 0a3f b1ea da3e 3cb7 3e3f
00000030: 0299 a03f 626c 0f3e 7ab6 5ebd d74a 57bd
00000040: e09b 2cbf 99cd 183c 7c0c 1d3f d1ed 44bf
00000050: d7a6 83be f123 44bf 1415 1bbf 96b3 c8be
00000060: 35da 02c0 edf2 483d 088e 863f 4a0e 1c3f
00000070: d6db cb3f d307 b23f 496c 303f 45ea e8be
00000080: af71 ee3e 47d7 e83e 64d1 ae3f fa3e aabc
00000090: 7c4d 61bf c2fb 93bf acc1 073f b8aa 173f
000000a0: 6695 4ebf 32d1 923d 3a75 b0bd a930 a8be
000000b0: 70ad 863f 3ca2 e73d 84f3 383d 9bb7 4a3f
000000c0: 707a 4c3e 4568 49bf 837e 7dbe 748c 40bf
000000d0: cbb1 4cbf 9efa 0d3f ea47 6b3f a716 67be
000000e0: 4b1c 113e 7bbd e1bf 6a62 9bbf c282 5ebd
000000f0: ebdb 91bf d07e a53e c550 053d 341f 23bf
00000100: c569 903f 7ad4 e5bf 172b 3bbf a1f9 e43e
00000110: 6417 153f 1ce5 513f f280 52bf d613 df3f
00000120: ffd8 533e cfef b3bf 861e 8a3f 1733 95bd
00000130: ea1a d83e 54ea ba3e 907c 5d3f 2b88 cfbf
00000140: e5b4 9c3f a9d4 c3bf fa2d a23e 4d4e 74be
00000150: bea3 19bf 0292 10bf 8ff3 c6bf 40d8 5b3d
00000160: ae9a cfbf 8330 193c b149 473e 2663 c53e
00000170: e2fe 44bf 48dc 30be dd68 933e 224f be3f
00000180: 7880 333d f7d5 2abf 70f3 c63e b1a0 f0bc
00000190: 2336 a13e 0b7c 9fbf 2267 8ebe c057 a3bf
000001a0: 2cff efbd 8f0a 893f 00f1 d83e ac04 97bf
000001b0: 16b0 173f bc3b 0740 87ee 483e fa76 d0be
000001c0: 8306 873f b864 6b3f 4046 ec3e f412 85be
000001d0: b35b c43f 4e3c 233e adbc 15be f914 cbbb
000001e0: 773e 8a3f 9ea2 853f d21a 0b40 7761 f03e
000001f0: 24d0 22bf 9eaa a13f 607b 34bf 3b52 31bf
00000200: f504 853e e0a1 a7bf 786a 113f d3e2 0fbf
00000210: 0c8f 3e3e 8c91 173e 4aec bdbe cebf 373f
00000220: adb2 b13f 8e7b c23f f443 8e3e 13c8 87bf
00000230: 81e8 2d3f 6043 93be 6200 cbbe cacf 6fbf
00000240: 4dc1 eb3f b95e ee3e 5d72 2fbf 2e00 463f
00000250: 89ad 723f a162 113e 594b 8d3f d9db 1e3f
00000260: c1c1 45bf 5232 a03e a6d8 c33f dfbf a03f
00000270: 7a34 66bf 1506 453f 554c 8b3f 4dfc 1bbf
00000280: 668e 923f ff5b f1be f7fd a9bf 0f6a a4be
00000290: edca 203f 0b9f 04c0 2739 603e 7e1e 593f
000002a0: f6a9 58be 8fab e53c 37da ebbf 2423 eb3e
000002b0: a1f3 2ebf 7949 343f 84be 4a3f 3a26 5bbe
000002c0: 263a a03e 1987 bbbe e1d6 a1be 7839 5f3f
000002d0: 1917 45be 9d18 09be 12b1 86be bd08 b4bf
000002e0: 218e 07bf d830 b53f 5456 5bbf f9b5 15be
000002f0: ae11 3fbf 2b3d e9bf e490 05bf a70f 5b3f
00000300: d627 83be 4173 ddbf 3fda ba3d b87a a13f
00000310: 3b5d be3e b1cd cdbf 5ea0 8b3f fe26 d0be
00000320: fa58 fbbe e4a6 e13f 1612 cc3f 1166 91bf
00000330: d3a1 e53e 8568 8abf 207a 02bf 2671 a73f
00000340: 2450 6a3e 06d0 86bf 25e7 f9bf ddd2 a43e
00000350: 453c 3cbf ae60 f63f 6cb7 d0be 7e63 0ebe
00000360: 5768 aebf a4ac 44bf f94f 28bd 7e9e 60be
00000370: 9b92 823f 6ce0 9d3d 21ef 0a3e 76f6 043f
00000380: 2791 083f dc96 cbbf 7b3e a73f 040e a8bf
00000390: 4a87 323f 2721 c5bf 9f69 d83f 34d0 a7be
000003a0: 50be 0c3f 0a2c 48bf 8f1a 2a3f 20ff f23d
000003b0: bb3b d23e b24e c5bf 88bd d3be 33e1 16bf
000003c0: c1d2 b63f 9d17 de3e 5919 d33e 3fc1 e1bb
000003d0: ba5c c03e 185f e8bf de7c 8abf fea1 df3e
000003e0: 081b a83f ef43 773f bc0f c5bf 246a 973f
000003f0: ee3c 2cbf dfc3 91bf 4080 dcbe e810 9c3d

policy.state_update.update_mem.weight f4 [16, 16]
-0.52700865 -0.86102545 0.32046112 0.34147477 -0.027259273 0.018384324 0.27424484 -0.10954936
0.28274295 -0.13057064 -0.09380312 0.26453674 1.0868678 0.42986712 -0.53237027 -0.42295283
-0.97862065 -0.24842058 -0.5171875 0.425869 -0.062209085 -0.3605495 0.06622096 -0.14347109
-0.6493353 -0.41138735 -0.2791948 -0.43493298 -0.33726692 -0.33592492 -0.42109287 -0.62471426
0.45720312 -0.26386288 0.090508625 -0.35129327 0.024762644 0.38637957 -0.6334691 -0.26440424
-0.54034114 0.32521635 0.4367989 0.48818547 -0.35259286 -0.24836178 0.72136784 0.46783593
-0.12664118 -0.17364275 -0.62658656 0.37607715 -0.108835004 -0.58770066 0.06917447 0.57079655
0.7888621 -0.31115302 0.13521011 -0.44209275 0.3326139 0.45629832 0.044634122 -0.8189652
0.14184405 -0.12047664 -0.34059277 0.39792803 -0.09149856 0.60512 -0.27378595 -0.812949
-0.39464813 0.60402465 0.028616747 -0.13302456 0.15469334 -0.21920696 0.30055442 -0.26169407
-0.21836932 0.14621937 0.4160179 0.38105163 -0.1439602 0.77415156 -0.40006042 0.8708551
0.7162814 -0.44305903 -0.023370093 -0.41580325 -0.21156202 0.033134643 0.6390827 -0.115451925
0.83559483 -0.18055631 0.74102694 -0.047682106 0.11154308 0.14906795 0.19256958 -0.1294885
0.08255934 -0.50008273 -0.3786332 0.10559119 -0.511297 0.9581627 -0.34798858 0.7119324
0.6611187 -0.33016807 -0.40729028 0.90015405 -0.96594065 0.45109218 -0.34839317 -0.34614834
-0.18752855 -0.20283362 -0.035239935 0.017608717 -0.09768974 0.060610317 -0.43148383 -0.2254506
0.5231152 -0.47146192 -1.260339 -0.5826297 0.3531566 0.5290755 -0.6169982 0.6449527
0.8166414 -0.7295741 0.20093387 -0.24227078 -0.25163308 1.1531426 -0.83450884 0.51560014
-0.9810324 0.16620016 -0.24198341 -0.11760294 -0.5344621 -0.5077623 -0.09069201 -0.07987507
0.52488834 -0.5134031 0.08919981 -0.33891302 -0.23885037 0.36190438 -0.39935592 0.37940362
0.55397415 -0.10343232 0.45987815 -0.016030738 0.007926885 -0.102193326 0.7220402 -0.18989626
0.24656655 -0.30360755 0.31350803 0.52213037 -0.31688172 -0.23525736 0.82650465 0.11038774
-1.3157755 -0.053518873 0.47735023 0.3226706 -0.04030838 -0.3653881 0.5131927 -0.4124531
0.4746789 -0.31182727 0.16744064 0.22487542 0.19164698 0.6270236 0.2579572 -0.27150592
-0.31818247 -0.3276424 -0.32524142 -0.5570391 -1.2610592 0.070092015 -0.44272718 0.49252588
-0.06733493 -0.34244272 -0.33979064 0.1730773 -0.14538784 0.47308296 -0.37209383 -0.25006026
0.02352931 -0.043976933 -0.91158307 0.3653756 -0.029012647 -0.6122775 -0.35015175 -0.2187349
0.01632172 0.020893969 0.5580858 -0.067198366 0.06215834 0.78094506 0.82707465 -0.10790476
0.41238907 0.28145766 0.45669788 -0.5184367 -0.039177038 0.070466995 -0.43216932 0.21738382
-0.7996309 -0.41977602 0.06887974 0.4097801 -0.40300968 0.0695294 -0.6542213 0.45999762
0.24961443 -0.087120764 -0.12738533 0.2882222 -0.058970302 -1.3134986 -0.055033024 0.059914663
-0.09701728 -0.07674039 0.5305106 -0.07872081 0.41214114 0.31450155 -1.0701258 -0.43243015
00000000: 0aea 06bf 2a6c 5cbf 7b13 a43e c8d5 ae3e
00000010: d74e dfbc b99a 963c d269 8c3e 6a5b e0bd
00000020: afc3 903e 4fb4 05be da1b c0bd 5c71 873e
00000030: 7c1e 8b3f 8b17 dc3e 6b49 08bf 468d d8be
00000040: e286 7abf f761 7ebe 6666 04bf 800b da3e
00000050: f4ce 7ebd f299 b8be db9e 873d 16ea 12be
00000060: d73a 26bf 5da1 d2be 9ff2 8ebe 89af debe
00000070: 40ae acbe 5afe abbe 7c99 d7be 46ed 1fbf
00000080: 8716 ea3e 0919 87be 965c b93d b6dc b3be
00000090: 07db ca3c 8bd3 c53e 082b 22bf fe5f 87be
000000a0: cc53 0abf c282 a63e 1ba4 df3e 72f3 f93e
000000b0: 0d87 b4be 8d52 7ebe 90ab 383f 3188 ef3e
000000c0: 3aae 01be 68cf 31be fa67 20bf 2f8d c03e
000000d0: e3e4 debd 8d73 16bf 58ab 8d3d b91f 123f
000000e0: def2 493f 734f 9fbe 8574 0a3e fb59 e2be
000000f0: 5e4c aa3e ef9f e93e 45d2 363d b4a7 51bf
00000100: 913f 113e 75bc f6bd 2d62 aebe 39bd cb3e
00000110: 9963 bbbd 25e9 1a3f ac2d 8cbe 6d1d 50bf
00000120: 520f cabe 5ca1 1a3f ab6d ea3c 9737 08be
00000130: ee67 1e3e ca77 60be 45e2 993e c4fc 85be
00000140: 359c 5fbe 88ba 153e 4c00 d53e 3319 c33e
00000150: 4d6a 13be cc2e 463f b8d4 ccbe 5cf0 5e3f
00000160: 385e 373f a2d8 e2be a372 bfbc 2ae4 d4be
00000170: b7a3 58be 31b8 073d ec9a 233f 0f72 ecbd
00000180: 8be9 553f c1e3 38be f1b3 3d3f 504e 43bd
00000190: b370 e43d 45a5 183e f630 453e a298 04be
000001a0: df14 a93d 6c05 00bf 36dc c1be 3240 d83d
000001b0: 5ce4 02bf 274a 753f 8f2b b2be 3441 363f
000001c0: 133f 293f ca0b a9be 5a88 d0be 7f70 663f
000001d0: e347 77bf 8ef5 e63e 9760 b2be 5b3a b1be
000001e0: 7c07 40be 9eb3 4fbe c057 10bd 2840 903c
000001f0: 8f11 c8bd 8642 783d 73eb dcbe 86dc 66be
00000200: e1ea 053f 7563 f1be ca52 a1bf 3827 15bf
00000210: f1d0 b43e 7e71 073f 98f3 1dbf 9f1b 253f
00000220: 690f 513f 5ec5 3abf 9cc1 4d3e d515 78be
00000230: 0dd6 80be 2d9a 933f 5fa2 55bf 5ffe 033f
00000240: f024 7bbf 6030 2a3e 80ca 77be cfd9 f0bd
00000250: 82d2 08bf b6fc 01bf bcbc b9bd 8a95 a3bd
00000260: 155f 063f 636e 03bf 64ae b63d 0286 adbe
00000270: 3195 74be 884b b93e 6178 ccbe 3141 c23e
00000280: 40d1 0d3f 53d4 d3bd 2675 eb3e e552 83bc
00000290: c4df 013c bc4a d1bd a0d7 383f 2a74 42be
000002a0: f17b 7c3e 7372 9bbe 2084 a03e 56aa 053f
000002b0: 523e a2be 4ee7 70be cf95 533f f812 e23d
000002c0: 556b a8bf 9b36 5bbd 4067 f43e 1535 a53e
000002d0: 661a 25bd 2614 bbbe 9960 033f 0d2d d3be
000002e0: 1d09 f33e d3a7 9fbe 8f75 2b3e be45 663e
000002f0: 1b3f 443e 9e84 203f f712 843e d302 8bbe
00000300: d0e8 a2be bfc0 a7be 0b86 a6be 1d9a 0ebf
00000310: 636a a1bf 678c 8f3d 23ad e2be 5a2c fc3e
00000320: e5e6 89bd a754 afbe 0af9 adbe 2d3b 313e
00000330: 8de0 14be ee37 f23e 1583 bebe e607 80be
00000340: 8ac0 c03c 2821 34bd 825d 69bf 8312 bb3e
00000350: eeab edbc 38be 1cbf 1747 b3be 0bfc 5fbe
00000360: 21b5 853c d429 ab3c b6de 0e3f 4c9f 89bd
00000370: be99 7e3d 04ec 473f 2abb 533f 2cfd dcbd
00000380: a924 d33e 381b 903e 4ed4 e93e 44b8 04bf
00000390: 1a78 20bd 0051 903d 4c45 ddbe dd99 5e3e
000003a0: 9cb4 4cbf e2ec d6be d210 8d3d b3ce d13e
000003b0: 4957 cebe 6e65 8e3d 0c7b 27bf cf84 eb3e
000003c0: ed9a 7f3e 5f6c b2bd 4d71 02be dc91 933e
000003d0: d88a 71bd b920 a8bf 4f6a 61bd 1469 753d
000003e0: ffb0 c6bd 112a 9dbd 8bcf 073f 6038 a1bd
000003f0: 2a04 d33e 5906 a13e e2f9 88bf 7c67 ddbe

policy.state_update.update_mem.bias f4 [16]
-0.12504032 0.22497915 0.28888962 -0.014324717 -0.1468339 -0.051459488 0.39314133 -0.1476593
0.41870227 0.34331268 -0.106514335 0.4075318 0.15784314 0.114241704 -0.0033703083 -0.162284
00000000: 920a 00be ef60 663e 57e9 933e 38b2 6abc
00000010: a05b 16be 2fc7 52bd d249 c93e 0034 17be
00000020: 2560 d63e aec6 af3e 3024 dabd 02a8 d03e
00000030: a2a1 213e 8ef7 e93d 64e0 5cbb c72d 26be

policy.state_update.update_input.weight f4 [16, 32]
-0.39133418 0.21250084 0.048601568 0.18937057 0.39804968 -0.20667997 -0.61106366 0.17860259
-0.084193766 0.41817668 0.2767233 0.005581232 0.12413283 0.36716676 0.055681117 0.36034542
0.6017024 -0.41556802 0.17034608 0.37836796 0.1111479 -0.2919528 -0.15057167 0.16138561
0.43455702 -0.21497154 0.39809355 -0.24193323 0.50374377 0.6281127 0.99212795 0.3188707
-0.012785284 -0.66305125 0.08457349 -0.09058955 -0.09636402 0.16764759 -0.34395975 -0.23236145
0.02625433 0.17738074 0.7460538 -0.2504514 0.034642626 -0.47654334 0.5722389 -0.021870783
-0.21646346 1.0273547 -0.11173128 0.26390702 -0.02836424 -0.42379612 0.20637602 -0.6495469
0.0076269857 0.47437334 -0.28755477 -0.09638072 0.34114808 -0.22119656 0.03386359 -0.30809623
0.010708662 0.16863145 -0.15642707 -0.3546791 0.2564215 0.3989193 0.11197642 -0.36389527
-0.11656239 0.12125086 0.15527788 0.05284965 -0.3326516 -0.47211117 0.41620505 -0.5584484
0.043669987 0.3430845 0.31501314 -0.08232761 -0.36211598 -0.19593091 0.023359202 -0.07778702
-0.06951511 -0.11977962 -0.021313496 0.29305762 -0.21193449 0.26771465 -0.2902199 -0.5005184
0.09621153 -0.38264844 0.10772051 0.31156018 0.20362853 -0.65109754 -0.13013555 0.093580015
0.39470458 0.13784929 0.09912969 0.10137782 0.08358226 0.39957616 0.16675955 -0.26467746
0.11620987 0.02564737 -0.118515186 -0.20663379 -0.12668535 0.42758834 0.07293789 -0.37413856
-0.22154208 0.1318545 -0.4259358 0.020597596 -0.092905454 -0.15556517 -0.2397456 -0.043584112
-0.01663106 0.6418691 0.06811036 0.12993975 -0.06379499 0.17236675 0.71824956 0.2326732
-0.08137076 -0.26777872 0.045835912 0.6847635 -0.43485224 -0.5925409 1.047934 0.40200564
-0.38378844 -0.18203217 0.06916156 0.49435836 0.2969894 0.3260204 0.19981107 -0.0651834
-0.07145688 0.7832034 -0.18130977 0.22362855 0.04515103 0.8048785 -0.35353488 0.3830775
0.13571665 0.08452122 -0.15072906 -0.6614777 0.096432224 -0.40524566 -0.086461194 0.06929117
0.5816687 0.16253874 -0.010026463 0.5990801 -0.18624231 -0.14110881 -0.07316606 0.50434786
0.86859906 -0.075577214 -0.4716183 0.15225354 -0.2066155 0.36513525 -0.034389526 0.47800985
-0.062485054 0.16142893 0.57992905 0.13962944 0.43398485 -0.3092524 0.26095155 -0.14516751
-0.16576627 -0.102768995 0.018328823 0.01782747 0.14950854 0.06396316 0.47295615 -0.2567987
0.14163579 0.54506093 0.38431948 0.13729692 -0.39238384 -0.13073476 -0.9340738 0.15908414
0.32496747 0.55535805 -0.0057639033 0.0972333 -0.51911694 0.61227626 -0.10422012 0.10731611
0.48019055 -0.35453588 -0.24206367 0.058366336 -0.04615975 -0.10512046 0.49284738 0.19642718
0.6703262 -0.44020995 0.24172059 0.4963574 -0.023353392 0.07176226 -0.30721 -0.26731437
-0.39446646 -0.21550359 0.5157469 -0.5097788 0.16781943 0.6368827 -0.23078619 0.19303972
0.028414419 0.37984166 0.18885863 0.1985834 0.014711137 0.28484634 0.065762326 -0.31465763
0.7951507 0.7782184 0.3018704 0.14591736 0.27576175 0.1716379 0.16621767 0.30724412
00000000: f45c c8be d299 593e 7012 473d 5cea 413e
00000010: 2bcd cb3e eaa3 53be ab6e 1cbf 99e3 363e
00000020: c86d acbd 411b d63e adae 8d3e c4e2 b63b
00000030: 5a39 fe3d 48fd bb3e e211 643d 327f b83e
00000040: 2b09 1a3f 55c5 d4be 346f 2e3e 72b9 c13e
00000050: 83a1 e33d d67a 95be 762f 1abe 4542 253e
00000060: 427e de3e 8021 5cbe ebd2 cb3e 58bd 77be
00000070: 5af5 003f fecb 203f 19fc 7d3f 0543 a33e
00000080: 5e79 51bc babd 29bf de34 ad3d 0487 b9bd
00000090: 805a c5bd cfab 2b3e 7e1b b0be 29f0 6dbe
000000a0: 5213 d73c 4ca3 353e 62fd 3e3f 2a3b 80be
000000b0: 6de5 0d3d 7dfd f3be 407e 123f 5b2a b3bc
000000c0: 99a8 5dbe 5c80 833f 5fd3 e4bd d21e 873e
000000d0: 1f5c e8bc cefb d8be 3c54 533e b548 26bf
000000e0: cbeb f93b 10e1 f23e 613a 93be 4163 c5bd
000000f0: f6aa ae3e 5a81 62be 8cb4 0a3d cabe 9dbe
00000100: 6273 2f3c b9ad 2c3e 6b2e 20be 8098 b5be
00000110: ae49 833e 273f cc3e e553 e53d 7b50 babe
00000120: 43b8 eebd 5f52 f83d 2a01 1f3e e078 583d
00000130: 4f51 aabe 8eb8 f1be d418 d53e 79f6 0ebf
00000140: 4ddf 323d c6a8 af3e 6749 a13e 619b a8bd
00000150: 4467 b9be 1da2 48be cc5b bf3c cd4e 9fbd
00000160: f05d 8ebd 044f f5bd a499 aebc a60b 963e
00000170: 5b05 59be e511 893e b497 94be f921 00bf
00000180: 8d0a c53d 7fea c3be 929c dc3d d184 9f3e
00000190: ff83 503e 54ae 26bf 4142 05be e1a6 bf3d
000001a0: b816 ca3e 5d28 0d3e 8204 cb3d 2d9f cf3d
000001b0: 2d2d ab3d 3f95 cc3e 04c3 2a3e ce83 87be
000001c0: 71ff ed3d 6f1a d23c 17b8 f2bd cf97 53be
000001d0: ceb9 01be dcec da3e 7660 953d 178f bfbe
000001e0: eddb 62be de04 073e 4214 dabe 4abc a83c
000001f0: 3745 bebd 7a4c 1fbe df7f 75be 4185 32bd
00000200: dc3d 88bc 8951 243f 727d 8b3d ed0e 053e
00000210: f3a6 82bd e980 303e 34df 373f e241 6e3e
00000220: b7a5 a6bd 4b1a 89be 70be 3b3d a94c 2f3f
00000230: f4a4 debe c3b0 17bf b422 863f afd3 cd3e
00000240: eb7f c4be a466 3abe 93a4 8d3d 8a1c fd3e
00000250: ff0e 983e 25ec a63e 469b 4c3e e07e 85bd
00000260: fc57 92bd 0580 483f 45a9 39be e2fe 643e
00000270: 49f0 383d 840c 4e3f 8602 b5be bc22 c43e
00000280: 4ef9 0a3e 7619 ad3d b858 1abe 9a56 29bf
00000290: 427e c53d 5c7c cfbe 9112 b1bd 87e8 8d3d
000002a0: 3de8 143f 8e70 263e 0946 24bc 505d 193f
000002b0: 4eb6 3ebe d47e 10be 16d8 95bd f11c 013f
000002c0: 825c 5e3f 3ac8 9abd f477 f1be 5ae8 1b3e
000002d0: 0393 53be 02f3 ba3e 08dc 0cbd b5bd f43e
000002e0: 54f0 7fbd a04d 253e 3b76 143f 05fb 0e3e
000002f0: 4333 de3e 5556 9ebe 719b 853e cba6 14be
00000300: a2be 29be 8d78 d2bd 5426 963c ea0a 923c
00000310: c418 193e 1eff 823d 4f27 f23e 1f7b 83be
00000320: f908 113e 1d89 0b3f 86c5 c43e 9097 0c3e
00000330: 89e6 c8be 55df 05be 761f 6fbf f4e6 223e
00000340: 2362 a63e f22b 0e3f 20df bcbb 4122 c73d
00000350: d9e4 04bf 23be 1c3f 5c71 d5bd 8cc8 db3d
00000360: 89db f53e ba85 b5be 8adf 77be 8a11 6f3d
00000370: 0212 3dbd 6549 d7bd 7e56 fc3e 3524 493e
00000380: 7f9a 2b3f 3363 e1be 9a85 773e 8f22 fe3e
00000390: 9d4f bfbc 17f8 923d a14a 9dbe 6edd 88be
000003a0: 82f7 c9be f9ac 5cbe fd07 043f dd80 02bf
000003b0: dbd8 2b3e bf0a 233f 3753 6cbe 34ac 453e
000003c0: 5bc5 e83c 9b7a c23e 2864 413e 7259 4b3e
000003d0: fb06 713c 61d7 913e 66ae 863d ce1a a1be
000003e0: ff8e 4b3f 5239 473f c28e 9a3e 5c6b 153e
000003f0: a530 8d3e d8c1 2f3e f734 2a3e 1a4f 9d3e

policy.state_update.update_input.bias f4 [16]
0.16325082 0.053758185 0.47099596 0.22160187 0.13918324 0.0767838 0.043386202 0.13894355
0.04267847 0.3922315 -0.13412677 0.53879243 -0.05042126 0.059282813 0.19225696 -0.035450414
00000000: 392b 273e 8b31 5c3d 6226 f13e 9aeb 623e
00000010: 0d86 0e3e d340 9d3d bbb5 313d 3847 0e3e
00000020: 9fcf 2e3d 91d2 c83e 8758 09be 4dee 093f
00000030: 8686 4ebd 89d2 723d 02df 443e 7434 11bd
