conditioned_layers/experiments/factorized_policy_hypernet_cifar/results/lr_0.001_wd_0.0_emb_size_64_channels_32_factor_2/model.pth (torch_old, 716389 bytes, 209 tensors)

conv1.weight f4 [32, 3, 3, 3]
-0.008653508 0.15840305 -0.15186402 -0.19745338 0.13869503 0.08165785 -0.21104503 0.3181163
-0.085034065 -0.25609767 0.049531568 0.120300174 -0.4320496 0.40403643 0.092090644 -0.52562714
0.372104 0.14801407 0.09815839 0.17715482 -0.18534444 -0.4238461 0.331911 0.0354691
-0.20477208 0.2609929 -0.06593139 -0.054070417 0.37433577 0.22145174 0.20594515 0.10240734
-0.13238181 0.079342216 -0.008893306 0.28382722 -0.3052065 -0.28843942 -0.12675035 -0.101789795
-0.7842388 -0.47603 -0.048111822 -0.122845754 0.19195965 -0.10296536 0.37712467 0.27350813
0.39441425 -0.18153515 -0.1343562 0.0837612 -0.1543066 0.004833962 0.22785449 0.4421848
0.3911559 -0.07170506 0.012397147 0.08667227 -0.30526567 -0.20362562 -0.56654465 0.03205541
0.38561037 0.28805584 0.022228805 -0.09102975 -0.23882157 -0.18862504 0.103765346 -0.22051516
0.3376995 0.1119129 0.21178131 0.12112137 -0.14132865 -0.17241916 -0.24257341 -0.010191136
-0.33396083 0.33109492 -0.11035012 -0.02896206 0.09951447 0.3005088 -0.1387255 0.0003624227
-0.08565592 -0.18287936 -0.17686485 -0.4567286 -0.40937188 0.17651531 0.23007697 0.1659141
-0.0023736658 -0.014510172 0.29350317 -0.099861756 -0.37617296 -0.41545773 0.34351024 0.40395322
0.1631636 -0.2323413 0.12029134 0.0149256205 0.04485577 0.3001345 0.43025443 -0.23634669
0.022514597 0.21593401 -0.46763784 -0.23439345 -0.047204923 -0.04855292 -0.11713517 -0.29512477
-0.029237865 -0.005842794 0.13652572 0.27225947 0.07245648 -0.011729214 0.07095279 -0.27393153
-0.530434 0.31792223 0.10742507 -0.21734431 0.36932573 0.21627259 -0.06304759 0.23679215
0.27499795 0.047952015 0.127321 -0.116645105 -0.045027312 -0.041192684 -0.16231918 -0.48839265
-0.20903187 0.57024145 0.018229527 0.040416453 0.29495317 0.0009612958 0.4238853 0.17876065
-0.44687817 -0.08794005 0.08365498 0.31648144 -0.34968776 0.25215048 -0.20222871 0.16097943
0.06277528 -0.2715698 -0.07276623 -0.056093097 -0.16829285 0.13871406 -0.42013615 -0.36478704
0.2997882 -0.16380332 -0.1818992 0.10828716 0.16661702 0.014254773 -0.045974422 -0.23501281
0.22553377 -0.0014393709 0.17162617 0.13129026 -0.0801614 0.339063 -0.028193627 0.07619471
0.11131048 0.73595315 -0.38183972 0.032435175 0.26552638 0.40368167 0.26489806 -0.093143016
0.2639809 0.01563385 -0.43731245 0.00682384 0.06168003 -0.45160356 -0.20349316 -0.267294
0.10022053 0.03319635 0.026934275 0.28784624 0.023859588 -0.10363142 0.014505459 -0.3723127
-0.14840285 -0.06221764 -0.45032972 -0.10410409 0.59149015 -0.0543563 0.28356212 0.34689516
0.16418143 0.07236006 -0.34098104 -0.12682654 0.09320604 -0.19458318 0.5180323 0.34160653
-0.16890228 -0.21091424 -0.08514286 -0.044084683 -0.57506466 -0.24716099 0.064902544 -0.30541155
-0.2590878 0.11422401 0.15576197 0.27239046 0.17216997 0.057053857 0.15969563 0.19566369
-0.023692112 -0.17178164 0.3436648 0.050092157 -0.034989987 0.06561078 -0.11258647 -0.62758285
-0.08908484 -0.09111946 0.11679826 0.12687188 -0.19655614 -0.15969987 -0.18411192 -0.5603396
00000000: 71c7 0dbc 6934 223e 3e82 1bbe 3831 4abe
00000010: 1206 0e3e 3b3c a73d 301c 58be 24e0 a23e
00000020: 5726 aebd 3c1f 83be 9de1 4a3d f05f f63d
00000030: 9b35 ddbe dddd ce3e 059a bc3d 808f 06bf
00000040: 6a84 be3e 0091 173e 4407 c93d 1368 353e
00000050: efca 3dbe 5b02 d9be 3df0 a93e 0c48 113d
00000060: c6af 51be dda0 853e 0907 87bd f178 5dbd
00000070: f0a8 bf3e 3fc4 623e 49e3 523e f1ba d13d
00000080: 198f 07be 2c7e a23d 3bb5 11bc cd51 913e
00000090: 0744 9cbe 55ae 93be d8ca 01be 2b77 d0bd
000000a0: e0c3 48bf 34ba f3be e710 45bd 8e96 fbbd
000000b0: 1291 443e 81df d2bd 7c16 c13e 4209 8c3e
000000c0: aaf0 c93e 5ae4 39be ac94 09be fe8a ab3d
000000d0: 8d02 1ebe 3666 9e3b b052 693e 0c66 e23e
000000e0: 9645 c83e 1ada 92bd 671d 4b3c 3b81 b13d
000000f0: c84b 9cbe 3c83 50be 1209 11bf 894c 033d
00000100: b96e c53e 0e7c 933e 2f19 b63c ce6d babd
00000110: a48d 74be ec26 41be ed82 d43d bace 61be
00000120: f3e6 ac3e 9732 e53d 33dd 583e 7b0e f83d
00000130: 75b8 10be a68e 30be 2a65 78be b9f8 26bc
00000140: eafc aabe 4685 a93e 3eff e1bd d841 edbc
00000150: 3ece cb3d 4adc 993e 0f0e 0ebe 8d03 be39
00000160: 5f6c afbd ba44 3bbe 0f1c 35be 55d8 e9be
00000170: 3199 d1be 6ec0 343e 4c99 6b3e 63e5 293e
00000180: 818f 1bbb 13bc 6dbc 0c46 963e 5284 ccbd
00000190: be99 c0be e0b6 d4be 93e0 af3e f5d2 ce3e
000001a0: 5c14 273e e1ea 6dbe 4e5b f63d 978a 743c
000001b0: afba 373d 3bab 993e 4f4a dc3e de04 72be
000001c0: 8870 b83c ce1d 5d3e 3a6e efbe d604 70be
000001d0: f359 41bd 6ddf 46bd 90e4 efbd 981a 97be
000001e0: 3f84 efbc e974 bfbb 66cd 0b3e 9865 8b3e
000001f0: 1064 943d e42b 40bc b24f 913d c140 8cbe
00000200: 86ca 07bf b4c6 a23e ad01 dc3d 828f 5ebe
00000210: 4318 bd3e 9076 5d3e 181f 81bd a479 723e
00000220: 88cc 8c3e 5569 443d 7060 023e a1e3 eebd
00000230: 8f6e 38bd a9b9 28bd 0037 26be 9a0e fabe
00000240: 730c 56be 58fb 113f 1756 953c b98b 253d
00000250: 1a04 973e 78ff 7b3a 7e07 d93e 080d 373e
00000260: 37cd e4be ea19 b4bd 4d53 ab3d db09 a23e
00000270: 460a b3be de19 813e 0b15 4fbe cbd7 243e
00000280: 5390 803d 320b 8bbe 7606 95bd e0c1 65bd
00000290: f654 2cbe 0f0b 0e3e 161c d7be 5ec5 babe
000002a0: d77d 993e 0fbc 27be c943 3abe a9c5 dd3d
000002b0: a79d 2a3e da8c 693c ad4f 3cbd 33a7 70be
000002c0: 53f2 663e 46a9 bcba c5be 2f3e f470 063e
000002d0: a92b a4bd aa99 ad3e 52f6 e6bc f90b 9c3d
000002e0: c0f6 e33d 6d67 3c3f 7f80 c3be bfda 043d
000002f0: 13f3 873e 5daf ce3e b8a0 873e c4c1 bebd
00000300: 8128 873e 8f12 803c 6be7 dfbe 859a df3b
00000310: 33a4 7c3d 9538 e7be 8360 50be c2da 88be
00000320: 6c40 cd3d e5f8 073d 45a5 dc3c 9560 933e
00000330: 2f75 c33c b63c d4bd 4ea8 6d3c c59f bebe
00000340: ebf6 17be edd7 7ebd 9e91 e6be 8634 d5bd
00000350: e66b 173f b6a4 5ebd 0e2f 913e 3e9c b13e
00000360: 2d1f 283e 8331 943d 1195 aebe d1de 01be
00000370: cfe2 be3d d040 47be c49d 043f 0de7 ae3e
00000380: b8f4 2cbe e7f9 57be 615f aebd 2492 34bd
00000390: 7037 13bf c517 7dbe a0eb 843d e75e 9cbe
000003a0: 28a7 84be 47ee e93d 1180 1f3e c376 8b3e
000003b0: 534d 303e 4eb1 693d 4087 233e 105c 483e
000003c0: f615 c2bc 87e7 2fbe d5f4 af3e 6f2d 4d3d
000003d0: a951 0fbd f25e 863d bc93 e6bd 45a9 20bf
000003e0: 1d72 b6bd d79c babd ed33 ef3d b4ea 013e
000003f0: 0346 49be 5d88 23be d687 3cbe 6b72 0fbf

conv1.bias f4 [32]
0.1461683 -0.024266563 -0.16365512 -0.42917863 -0.08131649 -0.14162022 -0.11636055 0.3520586
-0.26740077 0.12658004 -0.18616119 0.19654876 0.18857929 0.17503054 -0.16784336 0.10258929
-0.43455166 0.22089173 0.118459046 0.13243264 0.27878696 0.061659068 -0.105731525 0.18446954
-0.1282943 0.04940439 -0.13941331 -0.33427668 0.35212034 -0.20782425 0.4176249 0.037111007
00000000: 25ad 153e acca c6bc 3595 27be 4dbd dbbe
00000010: 4389 a6bd e404 11be 714e eebd 0641 b43e
00000020: c1e8 88be 339e 013e 0aa1 3ebe 1444 493e
00000030: ee1a 413e 353b 333e 21df 2bbe 551a d23d
00000040: 8e7d debe 7131 623e a89a f23d 6c9c 073e
00000050: 2abd 8e3e 388e 7c3d c589 d8bd 95e5 3c3e
00000060: 955f 03be 425c 4a3d 5dc2 0ebe 5026 abbe
00000070: 1e49 b43e e1cf 54be eed2 d53e b601 183d

bn1.weight f4 [32]
1.0952953 0.74297315 0.8447201 0.78178585 0.95975894 0.47816852 0.8524923 0.5933456
0.5147842 0.7591466 0.831642 0.6244535 0.80680853 0.70325357 0.92393386 0.6029646
0.74509513 0.73065126 0.49216923 0.58508307 0.65762055 0.71743083 0.49765605 1.3642122
1.0596117 0.85712516 0.81608254 0.70488393 0.7894297 0.9596146 1.2042937 0.77572143
00000000: a332 8c3f 7d33 3e3f 943f 583f 1e23 483f
00000010: c3b2 753f 81d2 f43e ef3c 5a3f 7fe5 173f
00000020: e6c8 033f 6e57 423f 7de6 543f 2fdc 1f3f
00000030: 018b 4e3f 6d08 343f ee86 6c3f e35b 1a3f
00000040: 8ebe 3e3f f60b 3b3f 9bfd fb3e 01c8 153f
00000050: d259 283f 8ca9 373f c6cc fe3e 819e ae3f
00000060: 5ba1 873f 8e6c 5b3f c9ea 503f 4673 343f
00000070: 1118 4a3f 4da9 753f 4c26 9a3f ae95 463f

bn1.bias f4 [32]
-0.09014653 0.09846402 0.05443348 0.07613934 -0.09211951 0.001906451 -0.0023129494 0.0015571598
0.0134971235 -0.24999626 -0.15706348 -0.13973728 0.048927594 0.048754487 0.008689125 0.0182234
-0.033220857 -0.285914 -0.10370693 0.11753033 0.15472363 -0.1447614 -0.050494436 0.02083089
0.04304445 0.1954557 -0.2815692 -0.13749158 -0.034299713 0.27375263 0.35315463 0.05359285
00000000: be9e b8bd 81a7 c93d a4f5 5e3d f1ee 9b3d
00000010: 27a9 bcbd e1e1 f93a da94 17bb 9d19 cc3a
00000020: 0a23 5d3c 05ff 7fbe 40d5 20be 4a17 0fbe
00000030: 4d68 483d c9b2 473d d55c 0e3c 3d49 953c
00000040: 9812 08bd 5263 92be 4d64 d4bd beb3 f03d
00000050: df6f 1e3e 553c 14be 41d3 4ebd 8ba5 aa3c
00000060: 614f 303d 8a25 483e d729 90be 98ca 0cbe
00000070: db7d 0cbd 4e29 8c3e afd0 b43e 2d84 5b3d

bn1.running_mean f4 [32]
0.06626753 0.18106486 -0.168755 -0.47324628 -0.11151289 -0.35982025 -0.2394642 0.3406874
-0.20833302 0.98145205 -0.15602659 -0.025393773 0.20178477 0.8216584 -0.101481676 0.10836264
-0.43368766 -0.27577326 0.02109426 0.31574753 -0.29782373 0.26852745 0.22467594 0.15458554
-0.08784729 0.11649773 0.33624673 -0.5398622 0.28435674 -0.3090995 0.29919297 0.08435751
00000000: 45b7 873d 1169 393e 1cce 2cbe 564d f2be
00000010: df60 e4bd 5c3a b8be 1a36 75be 946e ae3e
00000020: 4055 55be 7140 7b3f 6fc5 1fbe 9a06 d0bc
00000030: aba0 4e3e 3458 523f a0d5 cfbd 3bed dd3d
00000040: 4f0c debe 2732 8dbe dfcd ac3c a9a9 a13e
00000050: 5a7c 98be 6e7c 893e 7311 663e ac4b 1e3e
00000060: 48e9 b3bd 5d96 ee3d 8828 ac3e 6934 0abf
00000070: 3597 913e 4a42 9ebe d22f 993e a1c3 ac3d

bn1.running_var f4 [32]
2.050304 1.183651 4.544702 1.6381475 0.32313848 2.4470599 1.1948566 0.31814826
0.5156262 13.180369 0.5251881 1.1956663 0.25005183 10.655523 1.1607674 0.8308801
0.6217789 5.30852 2.486988 2.5820122 8.332644 2.168541 4.1745114 0.6445732
1.2885547 0.51490486 7.2858176 2.5335155 1.2905066 0.8367999 1.3928947 3.6324916
00000000: 2e38 0340 e081 973f 336e 9140 d1ae d13f
00000010: 6872 a53e a19c 1c40 10f1 983f 54e4 a23e
00000020: 1400 043f cbe2 5241 ba72 063f 980b 993f
00000030: cb06 803e 067d 2a41 0794 943f 8fb4 543f
00000040: e72c 1f3f 65df a940 d02a 1f40 b03f 2540
00000050: 8352 0541 60c9 0a40 9995 8540 c002 253f
00000060: 5cef a43f ced0 033f 6b25 e940 1e25 2240
00000070: 522f a53f 8538 563f 604a b23f be7a 6840

policy.start_states f4 [2, 2, 32]
0.29027316 0.6039265 0.04033726 0.75403786 -1.7794232 -0.9778206 -0.1549799 0.36241394
0.4690805 0.6101542 -0.03453053 -0.70328593 -0.26407835 1.4248257 -1.767404 -0.4741635
-0.82017946 0.8747594 0.15532069 -0.23306762 -0.2781312 -1.2568152 0.15609656 0.16748412
-0.67427117 -0.585445 -1.0150468 -0.09301644 0.1621227 -0.723802 1.4777758 -0.029408544
-0.44821548 0.1076574 0.7863055 0.08580818 -1.7406646 -0.24779917 -0.30146796 1.0087414
-0.26489243 -0.82005906 1.693129 0.23307918 -0.32135907 0.7553823 -0.7755631 0.17638303
-0.05514494 -0.22590443 0.13688172 -0.9144668 -0.1651183 -0.08787513 0.8704818 0.5921173
1.3958375 -1.5068862 0.4676459 -0.11273664 -0.025668817 1.027942 0.6547523 1.0634171
-1.36554 0.13298978 1.5832106 0.027938971 0.039396033 0.7300589 2.0215304 -0.562701
-0.7508659 0.6890557 -0.6240112 -0.9206983 0.89483124 1.1174759 -1.207128 0.59284246
-0.39642596 1.0807302 -0.0072567277 -0.18047425 -0.16589619 1.0063144 -1.3984623 0.5881816
0.66654575 0.59198314 2.1347082 -0.98335254 -0.6748322 0.35658988 0.09891841 1.1234769
-0.084771015 -0.5603921 -1.2343098 -0.56118435 -0.10328633 0.5269156 0.4245382 0.5384559
0.121221565 0.0651673 0.4633839 -1.2041918 -0.8595888 0.78421307 -0.8265178 1.2390053
0.33485642 -1.4006643 0.81836087 0.2755393 -0.26713008 -0.19237578 -1.025483 -1.7021816
-0.5268514 -1.4705299 -0.19188653 0.18448924 0.56474215 -1.5719696 1.0636653 0.13886324
00000000: af9e 943e ed9a 1a3f af38 253d a008 413f
00000010: 24c4 e3bf 7352 7abf 0db3 1ebe 528e b93e
00000020: 522b f03e 1133 1c3f e36f 0dbd 8c0a 34bf
00000030: 4735 87be b060 b63f 4b3a e2bf 8fc5 f2be
00000040: 48f7 51bf 3bf0 5f3f 630c 1f3e 47a9 6ebe
00000050: 3667 8ebe 52df a0bf c7d7 1f3e f580 2b3e
00000060: 099d 2cbf b9df 15bf 0eed 81bf 677f bebd
00000070: 7e03 263e 164b 39bf c227 bd3f 30ea f0bc
00000080: 807c e5be 7c7b dc3d 514b 493f 33bc af3d
00000090: 19ce debf 11bf 7dbe 025a 9abe 701e 813f
000000a0: fb9f 87be 64ef 51bf 73b8 d83f 4fac 6e3e
000000b0: 2d89 a4be bc60 413f 4e8b 46bf c19d 343e
000000c0: a9df 61bd 7e53 67be b92a 0c3e 7f1a 6abf
000000d0: c614 29be e0f7 b3bd e5d7 5e3f 0095 173f
000000e0: ceaa b23f a6e1 c0bf 496f ef3e 78e2 e6bd
000000f0: 6947 d2bc 9a93 833f d99d 273f 0d1e 883f
00000100: 04ca aebf 792e 083e a5a6 ca3f 45e0 e43c
00000110: bc5d 213d 24e5 3a3f c160 0140 2c0d 10bf
00000120: bf38 40bf f465 303f 33bf 1fbf e2b2 6bbf
00000130: a913 653f 7309 8f3f 2c83 9abf 86c4 173f
00000140: 58f8 cabe 5e55 8a3f d8c9 edbb 3ece 38be
00000150: b1e0 29be e9ce 803f d000 b3bf 1293 163f
00000160: bea2 2a3f 358c 173f 0f9f 0840 febc 7bbf
00000170: cec1 2cbf f392 b63e bc95 ca3d 17ce 8f3f
00000180: 6d9c adbd db75 0fbf ddfd 9dbf c7a9 0fbf
00000190: c987 d3bd f1e3 063f 125d d93e 3fd8 093f
000001a0: 0343 f83d 6f76 853d a840 ed3e f522 9abf
000001b0: 030e 5cbf 30c2 483f ac96 53bf ba97 9e3f
000001c0: 4d72 ab3e f848 b3bf 1980 513f 7d13 8d3e
000001d0: 46c5 88be 28fe 44be 0743 83bf 16e1 d9bf
000001e0: bcdf 06bf 533a bcbf e77d 44be bfea 3c3e
000001f0: f192 103f 4d36 c9bf 2f26 883f 2a32 0e3e

policy.layer_generator_weight f4 [64, 288]
0.07732391 0.5146407 -1.1741301 1.1498841 1.2000387 0.24303052 -0.7006336 -0.569681
2.0576918 0.052843504 0.052761734 0.19101289 0.9218953 -0.2748615 1.0933138 1.3429235
-0.17256701 -0.7254859 -1.5193998 -1.9370098 0.00284363 0.08152963 0.23446186 -0.6939531
1.0940632 1.1870553 -1.0214713 -1.5899166 -0.60151005 -1.22815 -1.2829537 -1.073969
1.1078186 1.2888112 0.56864595 -0.38974017 0.40385392 0.1872278 1.0043654 0.20620477
-0.17098418 -0.12169735 -0.02314623 -0.28602454 1.5745765 -0.047541227 -0.42266363 -1.2300154
0.72956455 0.07119261 -1.0628561 -0.2150418 -0.32646182 0.7568447 -0.3365871 0.536291
0.080797866 0.3936813 0.2049734 -0.15087862 1.1826137 0.68883187 0.02750065 -1.1574196
1.9507142 0.41990244 0.32952982 -0.082691185 1.3510587 -0.68995523 0.6288915 0.34246376
0.67571515 1.3199399 -0.34109288 0.91815424 -1.7649015 0.14166847 -0.6224476 0.8658038
-1.2631849 -0.94100666 -1.6519302 -1.587524 -0.5910073 0.059250996 -0.3092316 -1.5577099
-0.03392255 1.5532084 1.0482336 0.54184985 0.018958628 0.51243633 -1.1279179 0.46133178
0.13929848 -1.2940297 0.23328477 -0.526125 0.123561405 0.7407695 0.781701 0.9373443
-0.26743034 -0.7087757 -0.716401 -0.54527515 -0.5398496 0.7694428 1.3251212 -1.3529823
0.7536217 -0.116698004 0.9597112 1.6228867 0.7604661 -0.8057626 0.2288544 -0.49516505
0.509134 0.9027387 0.22985238 0.5728686 -0.520135 -2.5745559 0.4599107 0.9402655
-0.7585959 -1.5343721 -0.027567735 -0.40729874 -0.29862067 -0.97890687 0.25612375 -1.6599957
-1.8746927 0.78173226 -0.4945024 -0.72837335 -0.3856865 -0.8965905 0.31912056 1.4818697
0.55170166 -0.5165047 1.1440557 -0.007968544 0.7573225 -0.5366339 -0.47202986 -0.20210212
-0.8585508 1.0659654 1.19702 0.58589214 0.81549823 0.20244327 0.28298414 1.027322
-0.24576934 0.8591846 -1.1978481 0.44412363 -0.6417756 1.2901915 -0.55277747 -0.36819905
-0.79032844 -0.51597714 -0.26387262 -0.101926506 -0.69959056 -0.41289014 -1.5453497 0.01990763
1.0742086 1.5898168 0.85285497 0.0925655 0.46618444 -0.08516556 1.310215 -1.6908407
-1.3540988 0.15218689 0.7681713 0.0905386 -0.55690855 -1.2357922 -0.22530128 -0.43742794
0.8425653 0.21162981 -1.3331097 -0.9532224 0.44408172 1.3307129 0.56750274 -1.0018781
0.1415548 -0.40611705 -0.57309663 0.718898 0.36107042 -0.37183592 0.38825774 1.530911
0.67401034 1.0669394 0.9308158 0.05100498 0.3178148 0.120339915 0.18457797 0.049846504
0.9901448 0.8352245 0.5482939 -1.6853148 -1.9023849 -0.47607118 -1.6925972 -0.2612526
1.3599399 1.4336771 -0.6392414 -0.27252272 -0.2465842 0.3354218 1.4464613 0.0085730115
-1.1135507 0.64559674 -1.0876588 0.43802878 -0.5988936 -0.37188375 0.45276994 -0.58530855
-1.5684214 0.9066689 -0.016978681 0.86464286 -1.2915051 0.6980177 -0.5750014 -1.161468
-0.59660125 -0.3651895 0.20608927 -0.058205128 0.263769 -0.11394212 -0.2880364 1.1531357
00000000: 005c 9e3d 7ebf 033f e549 96bf 672f 933f
00000010: de9a 993f fedc 783e b95c 33bf 9dd6 11bf
00000020: 39b1 0340 6e72 583d b01c 583d e298 433e
00000030: 5501 6c3f a6ba 8cbe b5f1 8b3f ebe4 ab3f
00000040: 68b5 30be 72b9 39bf b17b c2bf f0ef f7bf
00000050: 325c 3a3b 02f9 a63d c516 703e e9a6 31bf
00000060: 430a 8c3f 6ef1 973f 92bf 82bf 6382 cbbf
00000070: 90fc 19bf 0534 9dbf d437 a4bf d177 89bf
00000080: 00cd 8d3f c4f7 a43f c892 113f 068c c7be
00000090: f1c5 ce3e a5b8 3f3e 0c8f 803f 5827 533e
000000a0: 7a16 2fbe 763c f9bd 2a9d bdbc cf71 92be
000000b0: b98b c93f 97ba 42bd 5e67 d8be 2571 9dbf
000000c0: bec4 3a3f 6ecd 913d ab0b 88bf eb33 5cbe
000000d0: 0126 a7be 93c0 413f 2555 acbe 5e4a 093f
000000e0: 5a79 a53d 9890 c93e 8ce4 513e ed7f 1abe
000000f0: e35f 973f 4957 303f 0b49 e13c 5326 94bf
00000100: 01b1 f93f 74fd d63e 22b8 a83e ff59 a9bd
00000110: 7eef ac3f e8a0 30bf 09ff 203f 6957 af3e
00000120: abfb 2c3f caf3 a83f baa3 aebe 280c 6b3f
00000130: 4be8 e1bf 8a11 113e ba58 1fbf 51a5 5d3f
00000140: 0bb0 a1bf d0e5 70bf 7372 d3bf fd33 cbbf
00000150: 414c 17bf 2cb1 723d 9b53 9ebe 0a63 c7bf
00000160: 5ff2 0abd 88cf c63f 852c 863f acb6 0a3f
00000170: 204f 9b3c 072f 033f 9d5f 90bf ae33 ec3e
00000180: 43a4 0e3e c4a2 a5bf 34e2 6e3e 21b0 06bf
00000190: c30d fd3d 12a3 3d3f 8f1d 483f ccf5 6f3f
000001a0: a1ec 88be 5372 35bf 0e66 37bf 2797 0bbf
000001b0: 9533 0abf 34fa 443f 929d a93f 862e adbf
000001c0: 5aed 403f 5dff eebd a2af 753f c0ba cf3f
000001d0: e8ad 423f 7546 4ebf cf58 6a3e 4686 fdbe
000001e0: 9b56 023f e219 673f 6c5e 6b3e 84a7 123f
000001f0: 9127 05bf 86c5 24c0 6a79 eb3e 3db5 703f
00000200: 5733 42bf 4e66 c4bf bbd5 e1bc 7689 d0be
00000210: cfe4 98be a499 7abf a722 833e bd7a d4bf
00000220: eef5 efbf 9b1f 483f 6b2f fdbe ad76 3abf
00000230: b378 c5be f486 65bf c563 a33e e8ad bd3f
00000240: 523c 0d3f a739 04bf 6b70 923f 7f8e 02bc
00000250: e3df 413f d760 09bf e6ad f1be dcf3 4ebe
00000260: fcc9 5bbf 8e71 883f f437 993f 07fd 153f
00000270: 7ec4 503f 4a4d 4f3e 4ce3 903e 4a7f 833f
00000280: f5aa 7bbe 86f3 5b3f 1653 99bf 2c64 e33e
00000290: 684b 24bf ff24 a53f d382 0dbf 9684 bcbe
000002a0: f752 4abf 1417 04bf 501a 87be d8be d0bd
000002b0: 5e18 33bf 5666 d3be 05ce c5bf 5315 a33c
000002c0: ab7f 893f 1e7f cb3f b454 5a3f fb92 bd3d
000002d0: baaf ee3e 486b aebd 20b5 a73f 786d d8bf
000002e0: 1c53 adbf e1d6 1b3e e0a6 443f 4d6c b93d
000002f0: 8f91 0ebf 702e 9ebf 61b5 66be 8ef6 dfbe
00000300: 5cb2 573f 7cb5 583e 57a3 aabf 6206 74bf
00000310: ae5e e33e cd54 aa3f dc47 113f 8b3d 80bf
00000320: bef3 103e 93ee cfbe 76b6 12bf b309 383f
00000330: 39de b83e 4761 bebe b8c9 c63e e4f4 c33f
00000340: f18b 2c3f 7891 883f f249 6e3f 99ea 503d
00000350: 9fb8 a23e c674 f63d 0202 3d3e d92b 4c3d
00000360: 217a 7d3f 46d1 553f fd5c 0c3f 65b8 d7bf
00000370: 5981 f3bf 9abf f3be 06a7 d8bf e7c2 85be
00000380: 8312 ae3f bb82 b73f 53a5 23bf 1988 8bbe
00000390: 9280 7cbe 68bc ab3e a525 b93f d175 0c3c
000003a0: d488 8ebf d445 253f 6738 8bbf 4f45 e03e
000003b0: 1751 19bf 8c67 bebe 76d1 e73e c8d6 15bf
000003c0: 08c2 c8bf 741b 683f e016 8bbc 3c59 5d3f
000003d0: 0a50 a5bf 4ab1 323f 4b33 13bf fcaa 94bf
000003e0: dcba 18bf 1efa babe 1109 533e 8068 6ebd
000003f0: bb0c 873e 7c5a e9bd 8279 93be f399 933f

policy.layer_generator_bias f4 [288]
0.339329 -0.022379322 -1.5957378 -0.86094403 -1.0164684 -1.9812058 -0.9583005 0.8451592
-1.3486223 -1.0005133 0.9381636 -0.321778 -1.1218684 0.020369494 -0.8100066 -1.3799967
-0.5662076 -1.5728039 -1.4597715 -1.4115332 -1.6368183 0.25770742 0.6010965 -0.5099521
-0.66870075 0.46491182 -0.88369507 1.1030693 0.7497333 0.24872167 0.99357784 1.0966567
-0.5179604 1.752797 -0.21274804 0.92515165 -0.40267947 1.3508289 -0.1656447 1.0380266
0.455969 -0.21733887 1.122722 -0.027195944 1.3910328 -1.4282609 -0.27432564 -1.3065337
0.76734334 0.1313371 -0.8544602 -2.1576157 0.40661508 -1.0323155 0.32921872 0.2154787
-0.59954876 0.20075257 0.18978773 0.35218856 0.46281686 1.6717297 1.1426637 -0.6622892
-0.67927176 0.87012017 -0.66188395 1.5308486 1.4203786 1.0143464 0.47302845 -0.22781315
-0.6372128 1.5967964 0.3041141 -0.996377 0.76731145 -0.94507504 0.11366182 -1.027565
0.453896 -0.89436483 -0.45539773 -0.888641 0.25472698 1.1217991 -0.8146301 0.42775524
0.43966013 -1.7916102 -0.73050284 0.062999815 -1.4851784 -0.08063788 -0.7489514 0.86596215
-1.3388861 0.022895366 -0.3576599 -0.31437793 -0.05678427 -1.083364 -0.2287227 -0.42981717
-0.17250237 0.919435 -1.3604536 -1.348396 0.72488153 0.17339985 -2.2190497 -0.12761056
0.07937322 -0.35167715 -0.44134587 -1.592617 0.33862472 0.39587408 -0.098402366 -1.3496426
0.7834825 -0.8246147 -0.9650873 0.83618474 0.19822866 -0.54162455 0.20696962 -2.145466
-1.51019 -0.63310874 1.340286 0.56470925 -1.7051094 -1.2606517 -1.5486397 -1.2483141
0.17931667 0.43875 0.67577785 -0.19730549 -0.129263 0.35504973 -0.79655415 0.34357616
-1.2719557 -1.6451393 0.16644897 0.0008236557 -1.4065167 1.1086625 1.5715255 -0.7411131
-0.55096674 -1.9523952 -0.5972862 -0.66811806 0.7568919 -0.015489559 0.6453245 -0.22290632
-0.773602 -1.1607624 0.1252563 1.5608363 -0.92246777 -0.9592699 -0.6111569 -0.25505134
0.6909386 0.18002246 -0.28898478 2.0452414 0.7091615 -0.33529288 0.49023718 -0.16715528
-0.97510564 0.22677699 0.057173006 -0.38282534 -0.8159929 0.1334817 1.4703801 1.7013136
-1.9249148 -0.0054137902 0.64253414 -0.025000973 0.19824405 -0.124634 -1.7013503 -0.14734341
-0.41203317 0.10701825 0.7532264 -1.742142 0.56438375 -0.065698676 1.0764374 0.3078078
0.973372 -1.2451226 0.842621 0.9040059 0.5003652 0.10776033 -1.6224039 -1.0933619
-1.4304346 -0.6063273 0.481235 -2.006405 -0.022197656 -1.3981258 -0.58805394 -1.1960702
-0.5179712 0.18699774 -0.525984 -0.11826717 0.97447217 0.24607347 0.1944034 1.1591554
-1.3425592 -1.0204433 -0.38189963 -1.2918572 -2.0813763 -1.2487332 -1.2759463 0.9051445
-0.86398375 0.0104924245 0.40348977 -1.2244147 -1.3961995 -1.0773339 0.76465183 -0.3166725
0.13190043 -0.6598934 -0.070680745 0.8941831 -1.0455163 -1.2129244 1.1723698 -1.4239411
-0.14383389 0.20411651 0.40315938 -0.4168257 -0.04726445 -1.2282289 0.031212991 -0.58492374
00000000: 88bc ad3e d754 b7bc 2341 ccbf d466 5cbf
00000010: a31b 82bf 2798 fdbf 2e53 75bf 5a5c 583f
00000020: a89f acbf d210 80bf 7d2b 703f 16c0 a4be
00000030: 6299 8fbf eddd a63c 985c 4fbf bba3 b0bf
00000040: fbf2 10bf a351 c9bf cbd9 babf 1fad b4bf
00000050: 4383 d1bf 3af2 833e 76e1 193f 398c 02bf
00000060: f92f 2bbf ec08 ee3e d739 62bf 6031 8d3f
00000070: 86ee 3f3f e5b0 7e3e 1e5b 7e3f 3f5f 8c3f
00000080: 0e99 04bf a75b e03f 9fda 59be bdd6 6c3f
00000090: 012c cebe f6e7 ac3f c49e 29be 0ede 843f
000000a0: c574 e93e 158e 5ebe 5bb5 8f3f 07ca debc
000000b0: 5d0d b23f 41d1 b6bf 6974 8cbe 7f3c a7bf
000000c0: 9d70 443f 3c7d 063e e7bd 5abf 6016 0ac0
000000d0: da2f d03e ea22 84bf 5b8f a83e 73a6 5c3e
000000e0: 077c 19bf 1592 4d3e b757 423e 0f52 b43e
000000f0: 55f6 ec3e 3dfb d53f ce42 923f c98b 29bf
00000100: c1e4 2dbf 32c0 5e3f 3a71 29bf d9f2 c33f
00000110: f7ce b53f 1ad6 813f c930 f23e da47 69be
00000120: 6120 23bf d363 cc3f d8b4 9b3e 9012 7fbf
00000130: 866e 443f 70f0 71bf 87c7 e83d 4087 83bf
00000140: 0e65 e83e 18f5 64bf e429 e9be fa7d 63bf
00000150: 936b 823e 1d97 8f3f 998b 50bf bc02 db3e
00000160: 221b e13e 7c53 e5bf 3c02 3bbf 0c06 813d
00000170: 531a bebf 7925 a5bd 47bb 3fbf b2af 5d3f
00000180: 9f60 abbf 108f bb3c 331f b7be 25f6 a0be
00000190: 9f96 68bd acab 8abf 4936 6abe ff10 dcbe
000001a0: 76a4 30be 1860 6b3f 5823 aebf 3d98 acbf
000001b0: d691 393f bb8f 313e e904 0ec0 58ac 02be
000001c0: 6d8e a23d 070f b4be 16f8 e1be e0da cbbf
000001d0: 3860 ad3e 02b0 ca3e 2e87 c9bd 17c1 acbf
000001e0: 4f92 483f f319 53bf f60f 77bf 3410 563f
000001f0: 74fc 4a3e e8a7 0abf d8ef 533e 514f 09c0
00000200: e84d c1bf 6a13 22bf 7e8e ab3f c990 103f
00000210: 0641 dabf 095d a1bf d339 c6bf c2c8 9fbf
00000220: ca9e 373e d7a3 e03e c7ff 2c3f 730a 4abe
00000230: 855d 04be 14c9 b53e f9ea 4bbf 37e9 af3e
00000240: 72cf a2bf ed93 d2bf 9971 2a3e 99ea 573a
00000250: bd08 b4bf a7e8 8d3f bf27 c93f 97b9 3dbf
00000260: 280c 0dbf 16e8 f9bf c0e7 18bf c909 2bbf
00000270: abc3 413f ebc7 7dbc fd33 253f 8e41 64be
00000280: c80a 46bf dd93 94bf 3043 003e 7cc9 c73f
00000290: d926 6cbf b692 75bf c774 1cbf 1796 82be
000002a0: 5ae1 303f cf57 383e d0f5 93be 3ce5 0240
000002b0: 9c8b 353f 82ab abbe 5e00 fb3e c12a 2bbe
000002c0: 86a0 79bf 3a38 683e 3e2e 6a3d af01 c4be
000002d0: e9e4 50bf 6daf 083e 6a35 bc3f a5c4 d93f
000002e0: 9c63 f6bf 2a66 b1bb 1e7d 243f d7ce ccbc
000002f0: 7d00 4b3e 1c40 ffbd d9c5 d9bf 31e1 16be
00000300: 03f6 d2be 622c db3d 72d3 403f 82fe debf
00000310: 747b 103f 078d 86bd b3c8 893f fc98 9d3e
00000320: e82e 793f 2d60 9fbf 03b6 573f ee6c 673f
00000330: ef17 003f 73b1 dc3d eeaa cfbf 48f3 8bbf
00000340: 7b18 b7bf 4438 1bbf 6f64 f63e f168 00c0
00000350: dcd7 b5bc c9f5 b2bf b48a 16bf d418 99bf
00000360: c399 04bf 567c 3f3e e3a6 06bf 0f36 f2bd
00000370: 0277 793f affa 7b3e af11 473e 345f 943f
00000380: fbd8 abbf e39d 82bf 5988 c3be 945b a5bf
00000390: 4535 05c0 7dd6 9fbf 3552 a3bf 8db7 673f
000003a0: 0a2e 5dbf 6be8 2b3c 3696 ce3e 9fb9 9cbf
000003b0: aab6 b2bf 14e6 89bf 39c0 433f e622 a2be
000003c0: e810 073e c6ee 28bf 11c1 90bd 2fe9 643f
000003d0: 7ad3 85bf 1b41 9bbf 3710 963f b443 b6bf
000003e0: 3149 13be eb03 513e e86a ce3e 2e6a d5be
000003f0: 5e98 41bd 9b36 9dbf 63b2 ff3c 90bd 15bf

policy.kernel_embedding_generator_weight f4 [64, 2048]
1.3195322 -0.96239376 -1.5463585 2.2132392 -1.477459 1.4340602 1.6297629 -1.0627552
1.7415884 -0.65962183 1.7333387 0.75009346 1.067695 0.21681383 0.52759707 -0.4252443
-0.24506289 0.20162654 -0.7051553 0.08372234 1.2445263 0.40733454 -0.32714656 0.6834952
1.4007796 0.3456682 -1.1061515 -0.21483208 2.0108793 1.2106093 1.8077826 0.5455209
-0.47416368 0.28643927 -1.4943285 -0.39447388 -0.09643402 0.34410954 0.20735124 -0.44299188
-0.4864886 0.4213214 -0.02837251 0.41550362 0.7845895 -1.1085789 0.2671275 0.10527499
-1.3247559 -0.69699055 -0.60234696 -0.7108577 0.094163865 0.18677379 1.3385489 -0.7745022
-0.1539259 -0.8975665 -1.0669669 -0.55318755 0.025794229 0.07406463 -0.6319387 0.07029584
-0.6886382 0.7615818 -0.0068106432 1.3724539 -0.2471037 -0.037466723 -1.2069108 -0.77223426
-0.35849878 0.5200371 1.0016732 -0.13867547 0.89167434 -0.38595167 -0.44384143 -0.66729033
-0.033733323 -0.011885427 -1.6838384 -1.46153 0.5019171 -0.56919825 -1.2522814 -1.7351336
0.0636405 0.6300864 -1.6285182 1.6154327 -0.026252117 0.8220244 0.01905463 1.4659104
-0.5254299 0.83382785 0.2787751 -0.49239087 0.79829526 0.14580108 -0.26068562 -1.0739579
-0.41282985 -1.8637092 0.5924678 0.88074285 0.9030367 0.80537707 0.74259937 0.47363344
0.45849264 -0.22214928 -0.49449128 1.1324658 -0.76367706 -0.3858474 -0.1511096 0.96812636
-0.7542495 0.6079187 0.3248231 -1.1090957 -0.8620675 0.9533181 -1.7086153 0.08983195
-0.018794173 -0.91709477 0.2941824 0.04609486 0.41649517 0.054258466 -1.1419522 0.5268853
0.5585523 1.9566988 1.3155187 1.1191283 -0.8208031 0.845802 -0.02896972 1.380638
0.48669994 0.83247125 -1.1115932 -0.02673743 -0.5067746 1.2247664 0.6123598 -0.7826243
-0.039699245 -0.019295136 0.2995204 -0.34372357 -1.4820721 1.312726 -0.27561688 -0.9605248
-0.6623658 -0.32860354 -0.16405877 1.0519698 1.275611 -1.486979 0.02380534 -0.13881867
0.4875968 -1.2082351 0.12126316 -0.7715207 0.17225124 0.44050685 0.0858662 1.9590566
-0.37139574 0.030099861 -0.07606127 -0.8374456 -1.2947339 -0.5151546 1.2281346 -1.259579
1.390976 -1.7454659 -0.8217202 -0.8771314 -0.83329856 0.1914849 1.6932244 0.022979062
-1.1460986 0.19524615 0.65417135 0.573661 -0.8160435 -0.7054256 -0.028791081 -0.7180538
-1.4978884 -0.42954367 1.4257919 1.9309262 0.3267217 0.3475754 0.107562974 1.2151673
-0.3974755 -0.4308873 -0.05648174 -0.21825421 -0.6252595 0.14821133 1.346715 -1.0673794
-1.0839798 0.049165487 0.58851635 -0.4361819 0.9545103 0.14399947 -0.023642037 0.40605932
2.0782425 -0.3946187 0.6520587 -1.0743465 -0.41752338 0.34574303 0.9338303 -0.022657182
0.62998426 1.6737391 -0.75325924 -0.74881667 0.16179718 -0.90468997 -0.96223885 -0.51255727
0.56396747 0.57855666 -0.15058438 -1.4988801 -0.6064266 -1.763532 0.97040075 -1.5218182
0.064599924 -0.80323905 -1.6658392 -1.4210218 -1.151102 0.9540445 -0.00014626503 1.1886071
00000000: 6ee6 a83f 705f 76bf 13ef c5bf b6a5 0d40
00000010: 601d bdbf 498f b73f 129c d03f 5d08 88bf
00000020: 5eec de3f fadc 28bf 0bde dd3f 2006 403f
00000030: 3baa 883f 7204 5e3e 9a10 073f 9fb9 d9be
00000040: c4f1 7abe 3077 4e3e 0f85 34bf 9e76 ab3d
00000050: a34c 9f3f 278e d03e c17f a7be 8bf9 2e3f
00000060: bf4c b33f 6cfb b03e 5f96 8dbf f1fc 5bbe
00000070: 3fb2 0040 3ff5 9a3f 6c65 e73f 42a7 0b3f
00000080: 95c5 f2be 2ba8 923e 2846 bfbf 7bf8 c9be
00000090: 337f c5bd 202f b03e e253 543e d5cf e2be
000000a0: 0915 f9be 70b7 d73e 776d e8bc e4bc d43e
000000b0: dcda 483f eae5 8dbf f0c4 883e 6a9a d73d
000000c0: 9a91 a9bf f96d 32bf 6933 1abf c5fa 35bf
000000d0: fcd8 c03d a141 3f3e 9255 ab3f c745 46bf
000000e0: c09e 1dbe ebc6 65bf 5f92 88bf b39d 0dbf
000000f0: 6b4e d33c 32af 973d bcc6 21bf 44f7 8f3d
00000100: 984a 30bf 06f7 423f d12b dfbb 92ac af3f
00000110: c108 7dbe b576 19bd 0e7c 9abf 25b1 45bf
00000120: 278d b7be 2721 053f d436 803f f100 0ebe
00000130: c544 643f 759b c5be 2f3f e3be 8ad3 2abf
00000140: f42b 0abd 18bb 42bc 0488 d7bf 6a13 bbbf
00000150: a47d 003f fab6 11bf c24a a0bf dc18 debf
00000160: f355 823d 584d 213f 4973 d0bf 80c6 ce3f
00000170: ae0e d7bc 3170 523f 7518 9c3c f4a2 bb3f
00000180: 9382 06bf be75 553f 9cbb 8e3e a81a fcbe
00000190: 145d 4c3f e14c 153e 9678 85be 7477 89bf
000001a0: 6f5e d3be 068e eebf f8ab 173f 5d78 613f
000001b0: 6a2d 673f 312d 4e3f fe1a 3e3f 1580 f23e
000001c0: 8cbf ea3e 1a7b 63be f62d fdbe a4f4 903f
000001d0: 5780 43bf ca8d c5be 7abc 1abe 21d7 773f
000001e0: 7f16 41bf 8fa0 1b3f 374f a63e d9f6 8dbf
000001f0: 75b0 5cbf a80c 743f e8b3 dabf d0f9 b73d
00000200: 3df6 99bc b9c6 6abf 139f 963e f7cd 3c3d
00000210: db3e d53e 203e 5e3d 7d2b 92bf f4e1 063f
00000220: 49fd 0e3f 1b75 fa3f eb62 a83f 993f 8f3f
00000230: 2720 52bf 7b86 583f e851 edbc bfb8 b03f
00000240: bc30 f93e d61c 553f b048 8ebf 7408 dbbc
00000250: fbbb 01bf 25c5 9c3f 9dc3 1c3f 115a 48bf
00000260: ad9b 22bd d510 9ebc bd5a 993e 89fc afbe
00000270: 8ab4 bdbf 6807 a83f a81d 8dbe f4e4 75bf
00000280: ce90 29bf b93e a8be 06ff 27be f2a6 863f
00000290: 3947 a33f 5455 bebf 6b03 c33c 7b26 0ebe
000002a0: 4aa6 f93e 73a7 9abf d258 f83d 6182 45bf
000002b0: a162 303e 1d8a e13e 9eda af3d 5ec2 fa3f
000002c0: 9527 bebe fc93 f63c 03c6 9bbd d662 56bf
000002d0: d7b9 a5bf 2ce1 03bf 8433 9d3f e239 a1bf
000002e0: 800b b23f 6d6b dfbf 415c 52bf af8b 60bf
000002f0: 0e53 55bf 9e14 443e 94bb d83f 963e bc3c
00000300: 5cb3 92bf 9bee 473e c677 273f 73db 123f
00000310: 3ae8 50bf c696 34bf 46db ebbc 60d2 37bf
00000320: cfba bfbf 26ed dbbe 5980 b63f 9728 f73f
00000330: 1148 a73e 67f5 b13e fa49 dc3d 9a8a 9b3f
00000340: e981 cbbe 439d dcbe 6659 67bd 087e 5fbe
00000350: 0211 20bf b6c4 173e 2861 ac3f e39f 88bf
00000360: dabf 8abf c061 493d 02a9 163f 3c53 dfbe
00000370: c95a 743f 9974 133e f2ac c1bc 02e7 cf3e
00000380: ed01 0540 760b cabe 52ed 263f 3084 89bf
00000390: a0c5 d5be 3b05 b13e 810f 6f3f 8e9b b9bc
000003a0: a646 213f 153d d63f 99d5 40bf 73b2 3fbf
000003b0: 29ae 253e c399 67bf 4955 76bf f436 03bf
000003c0: 2c60 103f 4a1c 143f cb32 1abe 4edb bfbf
000003d0: c63e 1bbf 6bbb e1bf 2f6c 783f f0ca c2bf
000003e0: f74c 843d 13a1 4dbf 383a d5bf 0be4 b5bf
000003f0: 4f57 93bf 433c 743f b85e 19b9 4724 983f

policy.kernel_embedding_generator_bias f4 [2048]
-0.3896088 0.17211041 -0.31363818 0.26081824 0.4010156 -0.08861096 -0.30250195 -0.22876225
-1.3061031 0.1036 0.34404454 1.1800036 -0.80736953 -0.19110171 0.8726086 -1.3009889
-0.54344404 0.6354782 0.88812983 -1.2860504 1.7601148 0.4761088 -1.5201081 -0.16949014
-1.8655142 -0.22043388 2.2772777 -0.45506924 -0.40836245 0.12477515 -1.6572615 -1.3026277
-0.23452397 -0.8857553 0.98360175 -0.5699304 -0.9893682 -0.86940503 0.5952957 0.395758
0.110164665 1.8693589 0.8907455 0.041479968 0.20039657 1.2526282 -2.0631676 1.2441
-0.7971862 0.080845796 -0.74768525 -0.32272586 0.040971424 -0.39915317 -0.31868 0.7723244
1.9777368 1.3981863 -0.10597115 -0.54108536 -0.107879475 0.46783075 2.1752508 -0.60972464
-2.0645275 0.03294341 0.70331776 0.4373346 0.0059585418 -0.16130567 0.7010823 0.59019285
1.3587947 1.4237517 -0.40756026 0.11864998 0.06258351 -1.1538198 0.5302368 1.062949
-1.145954 -0.24797232 1.238486 0.50006646 -0.16106178 0.56178117 0.8527371 0.48076952
1.214905 -2.1384985 0.37788823 0.015580708 1.7013884 1.112274 -0.6052946 1.6118423
0.786716 -0.042214513 0.08245343 -0.14936505 0.4886572 1.0219837 0.34995586 0.31848717
-0.18675369 -0.64925337 -0.6021097 -0.39709368 -0.84771556 -1.3717548 -1.5407676 -0.98978114
-1.3364927 -1.9029166 0.38495454 -0.7125639 -0.67575234 0.61411715 0.028554225 -0.70442665
-1.0130229 -0.5285416 -1.1226915 0.2787512 -0.35581276 -0.20588319 -0.9261265 0.28909442
0.31423795 1.1100647 0.6030454 -0.28109506 -0.676834 1.5634819 0.5976464 -0.04709974
-0.9649675 0.38793492 -0.39320123 1.1231198 0.72422945 -0.45549223 -0.6462903 0.2294661
1.0962366 -0.3147397 0.023746615 -0.46927804 0.96414536 1.076383 0.52100325 -0.1643944
0.16199306 -0.05781146 -0.9459578 0.12994325 0.68937975 -1.2763013 -0.27474988 1.4918056
0.3172838 0.90680957 -1.0274962 0.5701137 0.64237374 -1.7248396 1.8685753 -0.59265393
1.1474146 -1.3764224 -0.7866109 -0.33409894 -0.84025097 0.13244969 -0.33795914 -0.21324292
-0.5091506 0.3760648 -0.25086778 0.19733983 1.485979 -0.24934334 -0.11260782 -1.0101346
0.40067494 -0.7787802 0.40795705 0.7356388 -0.21584608 0.65348303 -0.18120752 0.17260514
-0.93803895 0.14399515 1.9223799 -0.18085258 -0.10047479 -0.27367398 1.979328 -0.5133911
-0.10586906 -0.1243819 0.07469375 -0.4376994 0.46045068 1.8112189 -0.2803876 0.41449827
1.0646544 -0.611226 -0.8326017 0.016793149 0.71539885 1.1824439 0.047299724 -0.030069925
-1.0894351 -0.11462068 0.5910134 -1.0359149 0.82946575 -0.4841172 0.44286287 1.222099
0.98355377 -0.86714166 0.4629121 0.62163615 0.19560768 0.91014177 0.13510402 -1.5047647
1.4118431 -1.1261268 0.8752737 -0.43227822 1.30957 -1.3410027 0.56611365 0.5110108
1.8125967 1.4284207 -0.039049897 -0.076013066 0.4578629 -0.22091497 -0.6902971 0.40222102
-0.56714994 -0.15568651 1.0432599 0.7452734 0.647282 1.1370425 0.5521924 -0.6912551
00000000: ce7a c7be b63d 303e 2f95 a0be f889 853e
00000010: eb51 cd3e aa79 b5bd 89e1 9abe a740 6abe
00000020: 632e a7bf 3d2c d43d 9b26 b03e 5c0a 973f
00000030: c5af 4ebf 2bb0 43be 4763 5f3f ce86 a6bf
00000040: 261f 0bbf b3ae 223f 7a5c 633f 4d9d a4bf
00000050: 714b e13f 88c4 f33e e792 c2bf d38e 2dbe
00000060: 2bc9 eebf 6bb9 61be ebbe 1140 d6fe e8be
00000070: e214 d1be 1d8a ff3d 2521 d4bf 81bc a6bf
00000080: 0d27 70be dcc0 62bf 53cd 7b3f f5e6 11bf
00000090: 3c47 7dbf 5491 5ebf 4d65 183f cba0 ca3e
000000a0: 039e e13d 2747 ef3f e607 643f e6e6 293d
000000b0: c234 4d3e 1f56 a03f f00a 04c0 ab3e 9f3f
000000c0: 6514 4cbf 7b92 a53d 4d68 3fbf 533c a5be
000000d0: a7d1 273d ce5d ccbe 062a a3be 0db7 453f
000000e0: 7b26 fd3f c5f7 b23f 6707 d9bd 9284 0abf
000000f0: eaef dcbd 8387 ef3e 4f37 0b40 ea16 1cbf
00000100: 3821 04c0 abef 063d a20c 343f 52ea df3e
00000110: df3f c33b 502d 25be 217a 333f e116 173f
00000120: fcec ad3f 7f3d b63f bdab d0be c3fe f23d
00000130: c92b 803d 5eb0 93bf 99bd 073f b60e 883f
00000140: 9fae 92bf 75ec 7dbe b686 9e3f 5b04 003f
00000150: 61ed 24be e4d0 0f3f fb4c 5a3f 6c27 f63e
00000160: 0282 9b3f 29dd 08c0 917a c13e 3a46 7f3c
00000170: 18c7 d93f ff5e 8e3f 96f4 1abf d950 ce3f
00000180: 3866 493f 20e9 2cbd 58dd a83d 27f3 18be
00000190: 4731 fa3e 5dd0 823f 6a2d b33e c010 a33e
000001a0: 5c3c 3fbe 7835 26bf dc23 1abf dd4f cbbe
000001b0: e303 59bf a995 afbf df37 c5bf 4c62 7dbf
000001c0: 3112 abbf c592 f3bf c318 c53e 966a 36bf
000001d0: 1bfe 2cbf c836 1d3f 8dea e93c 4e55 34bf
000001e0: bcaa 81bf 814e 07bf 5bb4 8fbf 7ab8 8e3e
000001f0: 172d b6be 0bd3 52be a016 6dbf 2f04 943e
00000200: cce3 a03e 9a16 8e3f 2f61 1a3f b1eb 8fbe
00000210: fe44 2dbf 2d20 c83f 5bff 183f a8eb 40bd
00000220: 1c08 77bf 689f c63e ac51 c9be 64c2 8f3f
00000230: 1a67 393f 4736 e9be 4873 25bf 29f9 6a3e
00000240: 7b51 8c3f 9025 a1be 4388 c23c 3645 f0be
00000250: 3bd2 763f ebc6 893f 7860 053f 0157 28be
00000260: 82e1 253e b6cb 6cbd 4a2a 72bf d80f 053e
00000270: 317b 303f d75d a3bf 04ac 8cbe 7cf3 be3f
00000280: 0673 a23e ac24 683f ff84 83bf f9f2 113f
00000290: 9b72 243f 8bc7 dcbf 7a2d ef3f 2bb8 17bf
000002a0: 7bde 923f 9c2e b0bf 555f 49bf 040f abbe
000002b0: b01a 57bf e4a0 073e fb08 adbe 5a5c 5abe
000002c0: b257 02bf 918b c03e be71 80be 7413 4a3e
000002d0: 8f34 be3f dc53 7fbe ee9e e6bd 174c 81bf
000002e0: 4425 cd3e 245e 47bf bfdf d03e d352 3c3f
000002f0: c106 5dbe aa4a 273f 778e 39be 67bf 303e
00000300: 5223 70bf 7773 133e 8b10 f63f 6b31 39be
00000310: bac5 cdbd ff1e 8cbe 9f5a fd3f 996d 03bf
00000320: e1d1 d8bd f0bb febd 09f9 983d 231a e0be
00000330: 31c0 eb3e 05d6 e73f f78e 8fbe 1e39 d43e
00000340: 9846 883f 4f79 1cbf 6325 55bf c991 893c
00000350: 6124 373f 525a 973f 5bbd 413d 3455 f6bc
00000360: 9c72 8bbf 3fbe eabd a74c 173f dc98 84bf
00000370: de57 543f 36de f7be ecbe e23e bd6d 9c3f
00000380: 2eca 7b3f fffc 5dbf d102 ed3e 8c23 1f3f
00000390: 614d 483e 0dff 683f b558 0a3e 219c c0bf
000003a0: 46b7 b43f ec24 90bf f011 603f 9253 ddbe
000003b0: fd9f a73f faa5 abbf d3ec 103f 9bd1 023f
000003c0: 2b03 e83f 7dd6 b63f c9f2 1fbd bdac 9bbd
000003d0: 026d ea3e 8937 62be 50b7 30bf eaef cd3e
000003e0: bd30 11bf 496c 1fbe 8a89 853f 3dca 3e3f
000003f0: 46b4 253f 9c8a 913f 7b5c 0d3f 18f6 30bf

policy.state_update.update_mem.weight f4 [32, 32]
-0.15000843 -0.50035095 -0.2835348 -0.4602212 0.014490351 0.5816635 0.25415117 0.18954673
-0.10471487 -0.23079711 -0.63685244 -0.60051537 -0.3054946 -1.0991054 0.010224258 -0.31414995
0.26532745 -0.28819185 0.30970928 0.07092829 -0.49843785 -0.057033837 -0.3343289 -0.3979568
0.0064014904 -0.38778928 -7.458417e-05 0.16183572 0.72506225 -0.2404623 -0.31131777 0.0018024641
-0.6625018 -0.24518389 -0.085210405 -0.12910636 -0.16804048 -0.2008287 0.21181013 -0.6499233
-0.5669434 0.24426642 -0.0068155797 -0.23427476 0.41790912 0.40228647 0.09879817 0.3330549
0.77536297 0.21594234 0.11362553 -0.016703779 0.30144352 0.24882574 0.018940499 -0.22233896
-0.09952324 0.46978396 0.0923336 -0.39269197 -0.36072257 -0.48533875 0.12573679 0.43416613
0.21268149 0.2406681 -0.35581833 -0.1329847 0.0730347 -0.020929724 -0.20445165 0.32659996
0.14012335 0.068683006 0.6805344 -0.5314561 -0.43868622 0.29418677 0.18372512 0.40490845
-0.00482851 -0.16777863 0.14395836 -0.36223006 0.15427558 -0.13218455 0.3112137 0.6846129
0.03564674 0.16171944 0.14414619 0.14824416 0.4743304 -0.01565854 -0.23320194 0.2448587
-0.462534 0.111615576 0.12978114 0.33455452 -0.15949652 0.16025016 0.19742797 0.27117974
0.10707502 0.4082627 0.19674431 0.2951317 -0.19241476 0.11325046 -0.30953538 0.30290326
0.6748069 0.0066056857 0.89702606 -0.11276905 0.50552917 0.56419295 -0.080750026 -0.43089634
-0.13697694 0.27401727 -0.9138591 -0.03908465 -0.03187099 -0.7189967 -0.2875687 0.0055696685
-0.06757776 0.08953803 -0.47833648 -0.23061581 0.0963974 -0.071875796 0.3272199 0.19927089
0.20242153 0.32529765 -0.19334483 -0.049089964 -0.1204171 -0.0142112365 0.10035469 -0.25465938
-0.34391484 0.07165379 -0.07163495 0.40185302 -0.48750994 0.0013507252 0.29409182 -0.14845748
-0.6214993 0.41279438 -0.09127469 0.026377907 0.3602169 0.10423942 -0.09224033 -0.32360247
0.064290896 0.36136293 0.2190362 0.6112816 -0.2058074 -0.21875991 0.4850992 0.2685081
0.011836406 -0.18581924 0.2758575 -0.16640775 -0.08094218 -0.19054832 -0.038728002 0.18562819
0.27266976 -0.044225052 -0.10770424 -0.32362187 -0.6813979 -0.14623414 -0.29068694 -0.34151036
0.57520854 0.113473415 0.32212338 -0.3797164 0.050006874 -0.41597795 0.26954845 0.42909524
-0.45293272 0.36205456 -0.027262295 -0.2461942 0.054638956 0.42178112 0.015364938 0.14161985
0.13030095 0.27649665 0.07058042 0.34624657 0.16734396 0.3281586 -0.22316208 0.40936548
-0.23722346 -0.16069697 -0.057880424 -0.11663626 -0.1295468 -0.3172339 -0.3270138 0.0688303
0.8934945 -0.5090387 0.16883016 -0.11789947 -0.12936342 0.1020305 0.37446222 0.60378784
0.026152652 0.0599721 0.28447214 0.05199639 0.15136087 -0.07025247 0.5821069 0.08349495
0.1307073 0.29998308 0.04682736 -0.046822477 0.19297762 0.16590333 -0.12644511 0.17668481
-0.22938243 -0.4271867 0.083803535 -0.22747532 0.33294597 -0.054838136 0.21708024 -0.24784614
0.28039518 -0.5174397 -0.41603717 -0.16349612 0.14203261 -0.22761127 -0.22482781 -0.0850417
00000000: cf9b 19be 0017 00bf 792b 91be 1da2 ebbe
00000010: f068 6d3c e6e7 143f 1a20 823e 8a18 423e
00000020: c074 d6bd 1456 6cbe c308 23bf 60bb 19bf
00000030: ca69 9cbe 7caf 8cbf a583 273c 43d8 a0be
00000040: 00d9 873e e28d 93be 3792 9e3e da42 913d
00000050: 3f33 ffbe 509c 69bd 282d abbe fec0 cbbe
00000060: 98c3 d13b 518c c6be 126a 9cb8 43b8 253e
00000070: ae9d 393f c03b 76be 0b65 9fbe a940 ec3a
00000080: b899 29bf 7c11 7bbe cb82 aebd 7534 04be
00000090: ce12 2cbe 0aa6 4dbe c1e4 583e 6061 26bf
000000a0: 3423 11bf fa20 7a3e 3a55 dfbb b9e5 6fbe
000000b0: 2ff8 d53e 7ef8 cd3e b256 ca3d 2c86 aa3e
000000c0: 307e 463f fd1f 5d3e 80b4 e83d 5dd6 88bc
000000d0: ce56 9a3e 2dcc 7e3e 1b29 9b3c d3ac 63be
000000e0: d7d2 cbbd 8687 f03e 6619 bd3d ec0e c9be
000000f0: a1b0 b8be 527e f8be 25c1 003e 064b de3e
00000100: 2dc9 593e b371 763e d22d b6be 242d 08be
00000110: 3793 953d d074 abbc c65b 51be 1c38 a73e
00000120: 7f7c 0f3e ada9 8c3d 8137 2e3f 820d 08bf
00000130: 7b9b e0be a69f 963e 7022 3c3e 2950 cf3e
00000140: 7a38 9ebb 29ce 2bbe d269 133e 3876 b9be
00000150: 6bfa 1d3e 635b 07be 6757 9f3e ca42 2f3f
00000160: 5102 123d c899 253e 0f9b 133e 51cd 173e
00000170: 6fdb f23e 5746 80bc 7dcc 6ebe 3dbc 7a3e
00000180: 42d1 ecbe b596 e43d 59e5 043e bb4a ab3e
00000190: 0e53 23be 9e18 243e 8f2a 4a3e 12d8 8a3e
000001a0: 264a db3d cf07 d13e 5777 493e 811b 973e
000001b0: 6008 45be dbef e73d 6c7b 9ebe 2316 9b3e
000001c0: 25c0 2c3f 8274 d83b 80a3 653f 76f3 e6bd
000001d0: 5c6a 013f f36e 103f 4560 a5bd 729e dcbe
000001e0: af43 0cbe fe4b 8c3e acf2 69bf 3a17 20bd
000001f0: 288b 02bd 2b10 38bf 343c 93be c481 b63b
00000200: 3566 8abd b75f b73d 85e8 f4be 8d26 6cbe
00000210: 006c c53d 9e33 93bd 5e89 a73e ab0d 4c3e
00000220: 9747 4f3e 6a8d a63e 30fc 45be 8f12 49bd
00000230: 3e9d f6bd 3fd6 68bc c286 cd3d b762 82be
00000240: 9b15 b0be 39bf 923d 58b5 92bd aebf cd3e
00000250: e79a f9be d10a b13a 3493 963e 3d05 18be
00000260: 941a 1fbf c959 d33e 3aee babd 7b16 d83c
00000270: 596e b83e 7a7b d53d 80e8 bcbd 39af a5be
00000280: f2aa 833d 9004 b93e 074b 603e f37c 1c3f
00000290: 2dbf 52be 9902 60be ec5e f83e e579 893e
000002a0: 7ced 413c 6647 3ebe 323d 8d3e cb66 2abe
000002b0: 03c5 a5bd 191f 43be 41a1 1ebd 5115 3e3e
000002c0: 5f9b 8b3e 5425 35bd 0a94 dcbd c4b1 a5be
000002d0: 1870 2ebf 67be 15be ebd4 94be 72da aebe
000002e0: de40 133f c064 e83d 5bed a43e 306a c2be
000002f0: 02d4 4c3d 10fb d4be 4102 8a3e 5fb2 db3e
00000300: cce6 e7be 375f b93e 2d55 dfbc 551a 7cbe
00000310: 19cd 5f3d b2f3 d73e 39bd 7b3c cb04 113e
00000320: 9d6d 053e f890 8d3e 788c 903d 3b47 b13e
00000330: 375c 2b3e 6704 a83e 9a84 64be 5a98 d13e
00000340: b5ea 72be bf8d 24be 0614 6dbd fede eebd
00000350: eba7 04be 7b6c a2be 5a6e a7be e6f6 8c3d
00000360: 0ebc 643f 5c50 02bf d0e1 2c3e 4775 f1bd
00000370: d877 04be 5ef5 d03d 83b9 bf3e d791 1a3f
00000380: 163e d63c 4ea5 753d 55a6 913e 2bfa 543d
00000390: 58fe 1a3e 87e0 8fbd f504 153f 66ff aa3d
000003a0: 22d8 053e 6297 993e 0cce 3f3d edc8 3fbd
000003b0: ed9b 453e 90e2 293e d47a 01be ddec 343e
000003c0: 3ae3 6abe 37b8 dabe 30a1 ab3d 4aef 68be
000003d0: e577 aa3e f49d 60bd 484a 5e3e 61cb 7dbe
000003e0: f58f 8f3e ee76 04bf d302 d5be 876b 27be
000003f0: ff70 113e ee12 69be 4339 66be 582a aebd

policy.state_update.update_mem.bias f4 [32]
-0.19282335 -0.20271415 -0.12962987 0.057833575 -0.05242686 0.19006784 0.15540323 0.07546286
0.24042755 -0.07072381 -0.04063433 -0.285106 0.02584941 0.015144293 0.017815452 0.0075189355
0.15685403 -0.015317764 -0.062895946 -0.11167164 -0.21458213 -0.140068 -0.15094082 0.08059756
0.22132446 -0.18593426 -0.101634435 0.3121188 0.18780924 0.075936124 -0.1699716 -0.119090535
00000000: 7c73 45be 4c94 4fbe b1bd 04be e6e2 6c3d
00000010: 8cbd 56bd 25a1 423e 0622 1f3e 468c 9a3d
00000020: a432 763e a5d7 90bd 2f70 26bd 6af9 91be
00000030: 24c2 d33c c51f 783c b6f1 913c 6761 f63b
00000040: 589e 203e 5cf7 7abc 97cf 80bd 1ab4 e4bd
00000050: 6bbb 5bbe fc6d 0fbe 3b90 1abe 5510 a53d
00000060: e1a2 623e 8d65 3ebe b725 d0bd 09ce 9f3e
00000070: 1151 403e 6684 9b3d 090d 2ebe bde5 f3bd

policy.state_update.update_input.weight f4 [32, 32]
-0.1193676 0.29450196 0.38433993 0.30087152 -0.14680016 0.5679465 -0.029612577 0.12547277
0.27775407 -0.5379432 0.13689561 0.0019643765 0.06691714 -0.26222423 0.12704192 0.19163409
-0.39462572 -0.04434834 -0.4929256 0.09020635 -0.31977487 0.0036583229 -0.55157864 0.36987773
-0.15378086 0.045882173 -0.3691503 -0.41479576 0.33185875 0.66431373 -0.22749999 -0.14593796
-0.17036578 -0.78023833 -0.058136683 0.042589452 0.029126685 0.22407255 0.08430547 0.23249874
0.43754193 0.26604003 0.21110502 0.26306716 0.11279164 0.6669056 0.3305848 -0.2586034
0.06320747 -0.3926766 0.7417156 -0.84549177 -0.2779668 0.21742597 -0.20853283 -0.42697895
-0.5980918 -0.20271955 -0.11936294 0.25485224 -0.8882222 -0.09468823 -0.13260633 0.32937303
-1.0861374 0.6362462 0.042695362 0.074484296 0.5285721 0.23071542 0.45805308 0.13051283
0.27994034 0.24775459 0.7098453 -0.7997291 -0.5981401 0.07986306 0.87127686 -0.051620945
0.021819105 0.32600588 -0.19911571 -0.34899145 -0.66823846 0.14528827 -0.75022775 0.0810588
-0.2189346 -0.09154776 -0.5395695 0.17225124 0.32450482 -0.79627216 -0.7557538 0.036838453
0.037140675 -0.28604344 0.07751676 0.09691094 0.60330963 0.363352 -0.14804699 -0.25785992
0.42937246 -0.26636437 0.3908376 -0.543914 0.7421323 0.36954454 -0.20291817 0.6559524
-0.2564124 -0.56343395 -0.20810464 0.39420387 0.31222793 -0.088988274 0.42183697 -0.23136117
0.6631625 0.0584354 0.13690163 0.072416335 0.08394193 0.2469776 0.29719245 0.64293677
0.42212704 0.22533982 0.40918738 0.38328797 0.5037736 -0.38310966 0.5399832 0.2449625
0.6071272 0.08300913 -0.41621974 0.75501114 -0.15180123 0.077831574 1.0071421 -0.06954094
0.30188632 0.0924328 0.2838935 -0.09715776 0.0046108332 0.805444 0.7231872 0.11808987
-0.116814025 0.57371294 -0.06585286 -0.32647648 -0.32092658 -0.42066833 -0.15125345 0.316325
0.015844772 0.14582078 -0.40140432 0.37240708 -0.3297829 0.27157024 0.0549846 -0.036349703
0.2727734 0.33838814 -0.040290892 -0.067425884 -0.12655969 0.12969373 0.15704547 0.20408604
-0.53384465 0.54465324 0.3945436 -0.23059776 0.40942237 0.0590763 0.28469315 -0.31670132
0.44411406 -0.2827238 -0.32609925 0.42800257 0.41047812 0.1584218 0.18929575 -0.4439604
-0.10236594 0.7620373 -0.30719924 0.38323689 -0.037063923 -0.18861824 -0.14177151 -0.23404452
0.08796226 0.33101326 0.20438136 0.6257774 -0.26217136 -0.082759656 -0.2819189 -0.063415326
-0.5970802 0.22207434 -0.14916426 -0.21732481 0.19450666 0.07248665 -0.44182587 0.2269523
0.13734235 0.013470558 -0.020963188 -0.08793224 -0.42795715 0.37869617 -0.11401453 -0.70430845
-0.020277334 0.12676446 0.099212945 0.098651506 0.41699952 0.058531553 -0.1800594 0.4995934
-0.97749627 -0.7121949 -0.03911869 -0.3326734 -0.5414257 -0.9339236 -0.4945327 0.24376322
-0.012982631 -0.47277188 -0.054392185 -0.2234985 -0.14506322 -0.54763 -0.18125682 -0.19583997
0.37931362 -0.21084298 -0.17333743 -0.0011545378 -0.21714832 -0.3080482 -0.052016743 -0.26935786
00000000: 0077 f4bd f6c8 963e 34c8 c43e d50b 9a3e
00000010: c852 16be f164 113f 1396 f2bc ef7b 003e
00000020: c835 8e3e a5b6 09bf 5d2e 0c3e c5bc 003b
00000030: da0b 893d 4142 86be 4717 023e ba3b 443e
00000040: 620c cabe 9ba6 35bd bf60 fcbe 1bbe b83d
00000050: 88b9 a3be 79c0 6f3b 4234 0dbf 9d60 bd3e
00000060: bb78 1dbe f2ee 3b3d 4501 bdbe 1c60 d4be
00000070: 64e9 a93e 7710 2a3f c2f5 68be c370 15be
00000080: 5e74 2ebe b3bd 47bf bb20 6ebd 4772 2e3d
00000090: 169b ee3c 4673 653e 59a8 ac3d 2614 6e3e
000000a0: 7f05 e03e 6636 883e ea2b 583e bdb0 863e
000000b0: 4eff e63d 53ba 2a3f 6942 a93e aa67 84be
000000c0: eb72 813d e80c c9be 13e1 3d3f 2672 58bf
000000d0: aa51 8ebe eaa4 5e3e a189 55be fc9c dabe
000000e0: 8b1c 19bf b795 4fbe 8f74 f4bd fe7b 823e
000000f0: 8862 63bf e7eb c1bd f4c9 07be 95a3 a83e
00000100: 8d06 8bbf 08e1 223f 55e1 2e3d 398b 983d
00000110: 8050 073f aa40 6c3e ef85 ea3e 28a5 053e
00000120: 5754 8f3e 61b3 7d3e 6cb8 353f 0cbb 4cbf
00000130: b61f 19bf 3e8f a33d 000c 5f3f 7c70 53bd
00000140: fbbd b23c 3eea a63e fde4 4bbe 02af b2be
00000150: ad11 2bbf 73c6 143e ed0e 40bf 2802 a63d
00000160: 6430 60be 647d bbbd 3a21 0abf a162 303e
00000170: 7f25 a63e 7ed8 4bbf 1579 41bf ebe3 163d
00000180: d220 183d 4974 92be 1bc1 9e3d 3e79 c63d
00000190: 8072 1a3f 4609 ba3e a199 17be 3706 84be
000001a0: b5d6 db3e e960 88be de1b c83e f33d 0bbf
000001b0: 62fc 3d3f f134 bd3e c8c9 4fbe 7fec 273f
000001c0: 7c48 83be 353d 10bf 6219 55be 17d5 c93e
000001d0: 57dc 9f3e 7c3f b6bd 04fb d73e f1e9 6cbe
000001e0: 05c5 293f f559 6f3d f12f 0c3e 044f 943d
000001f0: bfe9 ab3d b2e7 7c3e 9c29 983e 8197 243f
00000200: 0921 d83e 7bbf 663e 0281 d13e 523e c43e
00000210: 4ff7 003f f326 c4be 573c 0a3f 73d7 7a3e
00000220: b06c 1b3f b100 aa3d c11a d5be 6948 413f
00000230: c871 1bbe 2966 9f3d 08ea 803f 7b6b 8ebd
00000240: d890 9a3e 684d bd3d 7d5a 913e a6fa c6bd
00000250: 7916 973b 9431 4e3f cc22 393f 1ad9 f13d
00000260: 313c efbd dade 123f dddd 86bd ed27 a7be
00000270: 7d50 a4be d761 d7be 2fe2 1abe 5af5 a13e
00000280: e5cc 813c 0b52 153e de84 cdbe 24ac be3e
00000290: 4ed9 a8be 410b 8b3e 8837 613d 6de3 14bd
000002a0: f5a8 8b3e 3641 ad3e 1008 25bd 9516 8abd
000002b0: dd98 01be 6fce 043e 87d0 203e eefb 503e
000002c0: 0baa 08bf 656e 0b3f 9e01 ca3e d221 6cbe
000002d0: cf9f d13e fef9 713d 4dc3 913e ad26 a2be
000002e0: eb62 e33e 2dc1 90be 7bf6 a6be 2723 db3e
000002f0: 302a d23e 5339 223e bfd6 413e c74e e3be
00000300: 3ca5 d1bd e014 433f 3849 9dbe a037 c43e
00000310: 57d0 17bd 2425 41be 8d2c 11be 5ea9 6fbe
00000320: 8f25 b43d 927a a93e 5949 513e f332 203f
00000330: 533b 86be e57d a9bd ad57 90be e5df 81bd
00000340: 3fda 18bf 7567 633e 84be 18be 658a 5ebe
00000350: c12c 473e e173 943d 0037 e2be 2f66 683e
00000360: 79a3 0c3e 9eb3 5c3c feba abbc d115 b4bd
00000370: 331d dbbe 77e4 c13e 7380 e9bd 8f4d 34bf
00000380: a71c a6bc 8bce 013e 2830 cb3d cd09 ca3d
00000390: f680 d53e c8be 6f3d 7e61 38be b5ca ff3e
000003a0: 323d 7abf 6852 36bf eb3a 20bd 2b54 aabe
000003b0: e09a 0abf 9e15 6fbf 6433 fdbe 119d 793e
000003c0: 1ab5 54bc 280f f2be 57ca 5ebd cadc 64be
000003d0: 748b 14be 7b31 0cbf 639b 39be 468a 48be
000003e0: 6535 c23e 39e7 57be 5e7f 31be dc53 97ba
000003f0: 215c 5ebe 7eb8 9dbe 820f 55bd 46e9 89be
