conditioned_layers/experiments/baseline_hypernet_static_feature_count_cifar/results/lr_0.001_wd_0.0_t_8_state_size_64/model.pth (torch_old, 766283 bytes, 209 tensors)

conv1.weight f4 [32, 3, 3, 3]
0	0xbe17719b	-0.14789431
1	0x3e99637d	0.29958716
2	0xbf205932	-0.626361
3	0xbd590ff2	-0.052993722
4	0xbe54ea8a	-0.20792595
5	0xbc60781c	-0.013700511
6	0xbea7ba55	-0.32759348
7	0x3c0a0bc3	0.008425656
8	0xbe08bbac	-0.13352841
9	0xbc3dffa9	-0.011596599
10	0x3f018240	0.5058937
11	0x3cf74d71	0.030188294
12	0x3db22ace	0.086995706
13	0x3d2de476	0.042454205
14	0x3e9a6370	0.3015399
15	0xbea47ef5	-0.3212811
16	0xbd7a4236	-0.0610983
17	0x3ebddee5	0.37084118
18	0x3e2f2525	0.17104013
19	0x3f43c9cb	0.76479787
20	0xbe4631a4	-0.19354874
21	0x3d4ad62f	0.049520668
22	0xbae46a1c	-0.0017426643
23	0x3ee54e54	0.44786322
24	0x3d551c45	0.052028913
25	0xbea35390	-0.3189969
26	0x3e8e77b8	0.27825713
27	0xbd1bc840	-0.03803277
28	0x3dc21b52	0.09477867
29	0x3e05096f	0.1299188
30	0x3eac520a	0.3365634
31	0x3e7901bb	0.24317066
32	0x3d46924d	0.048479367
33	0x3e45775a	0.1928381
34	0x3e12459a	0.14284363
35	0x3df8794e	0.12132512
36	0xbe03d1b9	-0.12872972
37	0xbe76b73f	-0.2409334
38	0xbe894a12	-0.26814324
39	0xbe785eba	-0.24254885
40	0xbf574012	-0.8408214
41	0xbf271395	-0.65264255
42	0xbda00ed3	-0.078153275
43	0xbe621d71	-0.22081544
44	0xbe65a6cd	-0.2242691
45	0xbdba3794	-0.09092632
46	0x3ec47d90	0.38377047
47	0x3eb412d5	0.35170618
48	0x3e68a051	0.22717406
49	0xbe52794b	-0.20554082
50	0x3e16c11f	0.14722107
51	0x3e8eb00f	0.27868697
52	0x3dc3cd1c	0.09560606
53	0x3e42f956	0.19040427
54	0x3dfab85f	0.12242197
55	0xbe2879b0	-0.1645267
56	0x3e9b4c91	0.30331853
57	0xbe31f934	-0.1738022
58	0x3bc7af75	0.006093914
59	0xbb394096	-0.0028267256
60	0xbe27472e	-0.16335747
61	0x3c0dcec9	0.008655258
62	0xbe7205d4	-0.23635036
63	0x3ee0a1be	0.438734
64	0x3e0f8fd9	0.14019717
65	0x3e8f15ce	0.27946323
66	0x3da4c01b	0.08044454
67	0xbd416e99	-0.047224615
68	0xbf233add	-0.63761693
69	0xbea12f73	-0.31481513
70	0x3dcdd71b	0.10050794
71	0xbeaf1b93	-0.34200725
72	0x3e94437f	0.28957745
73	0x3b49e175	0.003080455
74	0x3efdaa66	0.49544066
75	0x3ec7a6eb	0.38994536
76	0x3e800349	0.25002506
77	0xbe69ed76	-0.2284449
78	0x3d777625	0.060415406
79	0x3ef0c118	0.4702232
80	0xbdc3b688	-0.095562994
81	0x3e98f882	0.29877096
82	0xbe9ff989	-0.31245068
83	0xbd667e1b	-0.056272607
84	0x3d0d36b5	0.034476
85	0x3c9e8779	0.019351708
86	0x3de24460	0.11048198
87	0xbdcce010	-0.10003674
88	0x3dfaaf3e	0.12240456
89	0xbdae8890	-0.08522141
90	0x3cbb65f5	0.022875765
91	0xbf19d900	-0.6009674
92	0xbe8e11e9	-0.2774804
93	0x3eb66687	0.35625097
94	0xbcbf2603	-0.023333555
95	0x3ef30db0	0.4747138
96	0xbd826ee5	-0.06368808
97	0x3d0d7644	0.034536615
98	0x3e058020	0.13037157
99	0x3c83758b	0.01604726
100	0xbef49996	-0.47773427
101	0xbe943dbc	-0.2895335
102	0x3e92d460	0.28677654
103	0x3deed4c7	0.11661678
104	0x3ee6fcaf	0.45114657
105	0xbee2da8b	-0.4430736
106	0x3e1ea6e6	0.15493354
107	0x3de64aa8	0.11244708
108	0x3d19ae7b	0.037519913
109	0xbe39fe06	-0.18163309
110	0x3ee160e6	0.4401924
111	0xbd4845e5	-0.04889478
112	0x3dedc8d4	0.116105705
113	0x3eb00549	0.34379032
114	0xbf187028	-0.59546137
115	0xbe6cdab4	-0.23130304
116	0x3e08b1ca	0.13349071
117	0xbcbd1b05	-0.023084173
118	0xbec20977	-0.37897846
119	0xbed33930	-0.41254568
120	0x3ec76441	0.38943675
121	0x3ea76c6a	0.326999
122	0x3c77d517	0.015126488
123	0x3e5a3b31	0.21311642
124	0x3ddb2b09	0.10701568
125	0xbdd62549	-0.1045633
126	0x3de60bf2	0.11232747
127	0xbea0f136	-0.3143403
128	0xbe1b8600	-0.15187836
129	0x3ed9e04a	0.4255393
130	0x3ea24f4e	0.3170113
131	0xbe4d48cb	-0.200473
132	0x3d27533a	0.040850855
133	0x3d8f4cca	0.06997068
134	0xbe49f5b1	-0.1972263
135	0xbe637d36	-0.22215733
136	0x3e0cab46	0.1373721
137	0x3e99a6bf	0.3001003
138	0x3c959b2a	0.018262465
139	0xbe03e7c3	-0.12881379
140	0x3eab6c6c	0.33481157
141	0xbe458174	-0.19287664
142	0xbeb8b1a5	-0.36073032
143	0xbe232cb0	-0.15935016
144	0xbea9bb62	-0.33150774
145	0x3eecadb1	0.46226266
146	0x3d9de172	0.07709016
147	0x3cf8481e	0.030307826
148	0x3f253a23	0.64541835
149	0x3f46d610	0.77670383
150	0xbe90f575	-0.2831227
151	0xbe533c4e	-0.20628473
152	0xbe6689a3	-0.22513442
153	0x3e31d9ee	0.1736829
154	0x3d114d5e	0.035474174
155	0xbdcce154	-0.100039154
156	0x3cf0618a	0.029343385
157	0x3f3864b7	0.7202868
158	0x3cf61ed5	0.030043999
159	0xbc10fd6c	-0.008849483
160	0x3e0a00b2	0.13476828
161	0xbe217314	-0.15766555
162	0x3de553d9	0.11197633
163	0xbda2cbc5	-0.07949022
164	0xbe91e86b	-0.28497633
165	0x3eeb7c0f	0.45993087
166	0xbea308a3	-0.31842527
167	0xbeb297d2	-0.34881455
168	0x3ef57549	0.47941044
169	0xbc9b1f2d	-0.018935764
170	0xbe924806	-0.28570575
171	0xbd8220d4	-0.06353918
172	0x3c329714	0.010900278
173	0x3d297572	0.04137177
174	0xbe0cc310	-0.13746285
175	0xbec2569b	-0.379567
176	0x3e4fbdbf	0.20287226
177	0x3c9737dc	0.018459253
178	0x3e1c1ad7	0.15244614
179	0x3cbe1d30	0.023207277
180	0xbe085da7	-0.13316976
181	0x3ecaf03c	0.3963641
182	0x3e239c9a	0.15977708
183	0xbdfae001	-0.122497566
184	0xbcb48e57	-0.02204053
185	0x3f177353	0.59160346
186	0xbf0096a4	-0.5022986
187	0x3ca07d87	0.019591106
188	0x3e2c5099	0.1682762
189	0x3e083f97	0.13305508
190	0x3f07c5a0	0.53035927
191	0x3e83ee0c	0.25767553
192	0x3db0667a	0.08613296
193	0xbe0ee8fe	-0.13956067
194	0xbe9a63e2	-0.3015433
195	0xbd4de736	-0.050269328
196	0x3e06c229	0.13160004
197	0xbeaff145	-0.34363762
198	0xbee1e0b1	-0.44116738
199	0x3d55122a	0.052019276
200	0x3e9b4fd2	0.30334336
201	0x3e1ec1c9	0.1550361
202	0x3e8ac079	0.2709997
203	0x3f09e7a0	0.53869057
204	0x3d2abda1	0.04168475
205	0x3ec5ba40	0.3861866
206	0x3e81d454	0.25357306
207	0xbf09dabd	-0.53849393
208	0x3d515574	0.051106885
209	0x3e185739	0.14877023
210	0xbea92828	-0.3303845
211	0xbea6651c	-0.32499015
212	0x3eaf78a2	0.34271723
213	0x3dcb1ab6	0.09917204
214	0x3e888ca0	0.26669788
215	0x3dd58a86	0.10426812
216	0x3de0a151	0.10968269
217	0x3e5b3172	0.2140558
218	0xbdc978c6	-0.09837489
219	0xbf3c421b	-0.7353837
220	0xbf77ebcc	-0.9684417
221	0x3dd0393f	0.10167169
222	0x3ea79e8f	0.32738158
223	0xbe5f2453	-0.217912
224	0xbdb2402e	-0.087036476
225	0xbe38dac0	-0.18052197
226	0x3e8564b4	0.26053393
227	0x3dbf6a19	0.093464084
228	0xbefb33c5	-0.49062935
229	0xbef44722	-0.4771052
230	0x3e9466e5	0.28984752
231	0xbb204f3d	-0.0024461292
232	0xbeb6fccf	-0.35739753
233	0x3de4f0ce	0.11178742
234	0xbe59c671	-0.21267106
235	0x3e2bcaa3	0.16776519
236	0xbc4f1306	-0.012638813
237	0x3e387b7d	0.18015857
238	0xbd6ded6a	-0.058087744
239	0x3e14167c	0.14461702
240	0x3ec06a74	0.37581217
241	0xbe162468	-0.14662325
242	0x3e5fbc39	0.21849145
243	0x3e771546	0.24129209
244	0x3f088ece	0.533429
245	0x3ed25b5d	0.4108533
246	0x3e50659a	0.20351258
247	0x3d8a5187	0.06753831
248	0xbe915e80	-0.2839241
249	0xbd34e737	-0.044165816
250	0xbf25f79f	-0.64830965
251	0xbf1438f5	-0.5789941
252	0xbc1b4712	-0.009477394
253	0x3e7a94c3	0.2447081
254	0x3e0ac14c	0.135503
255	0xbd247b39	-0.040156577

conv1.bias f4 [32]
0	0xbd306b6e	-0.043071203
1	0xbc68b80a	-0.014204035
2	0xbe5f2ce4	-0.21794468
3	0xbee687fd	-0.45025626
4	0x3d8c1ab1	0.068410285
5	0x3dd8e73f	0.10590982
6	0x3e2f0587	0.17091952
7	0xbe8d8467	-0.27640077
8	0xbdb11d40	-0.08648157
9	0xbe7b9493	-0.24568395
10	0xbecb17e6	-0.3966667
11	0x3e91b835	0.2846085
12	0x3e7163c7	0.23573218
13	0x3db904d3	0.09034123
14	0x3e35686f	0.1771562
15	0xbdc860fd	-0.09784124
16	0xbdb1c32b	-0.086798035
17	0x3cd2e957	0.02574603
18	0xbe3d4c89	-0.18486227
19	0x3de23cb7	0.11046737
20	0x3e0e66eb	0.13906448
21	0xbe6fc03b	-0.23413174
22	0xbe8e89d0	-0.27839518
23	0x3e269167	0.16266404
24	0xbd212719	-0.039343927
25	0xbe0568f8	-0.13028324
26	0xbe306daf	-0.17229341
27	0xbda6d8f3	-0.081468485
28	0xbd050cb1	-0.032482807
29	0xbe6bb85a	-0.23019543
30	0x3e389332	0.180249
31	0x3d69ae11	0.05705077

bn1.weight f4 [32]
0	0x3f16094e	0.5860795
1	0x3f3301c3	0.69924563
2	0x3f1a7cce	0.60346687
3	0x3f73505d	0.950445
4	0x3f4734d0	0.7781496
5	0x3f5ea4e8	0.86970377
6	0x3f5a3117	0.85231155
7	0x3f1d5f5f	0.6147365
8	0x3f83101e	1.0239294
9	0x3f79542d	0.9739407
10	0x3f19ae23	0.60031337
11	0x3f551e4d	0.8324936
12	0x3f4254ac	0.7591045
13	0x3f827b7e	1.0193937
14	0x3f4a6ce4	0.79072404
15	0x3f488699	0.7833038
16	0x3f611838	0.8792758
17	0x3f2fc600	0.686615
18	0x3f04430a	0.51664793
19	0x3f3787cb	0.7169158
20	0x3f34b7aa	0.7059275
21	0x3f831078	1.0239401
22	0x3f526b42	0.8219491
23	0x3f9d5004	1.2290044
24	0x3f5db76c	0.86608005
25	0x3fb80081	1.4375154
26	0x3f0a3d46	0.53999746
27	0x3f4bd405	0.7962039
28	0x3f089504	0.5335238
29	0x3f98da37	1.1941594
30	0x3f83f6e1	1.0309716
31	0x3f62b227	0.8855309

bn1.bias f4 [32]
0	0x3e2e553a	0.17024699
1	0x3e26d2c8	0.16291344
2	0xbde721cc	-0.11285743
3	0x3e897d0e	0.26853222
4	0x3e4b780f	0.19870017
5	0xbee6385c	-0.44964874
6	0x3e954043	0.2915059
7	0x3cf5f103	0.03002215
8	0xbf0499f6	-0.51797426
9	0xbbc2cfd0	-0.0059451833
10	0x3dc4a399	0.09601516
11	0xbddb0368	-0.10694009
12	0xbdc76b76	-0.097372934
13	0xbe266ac4	-0.16251665
14	0x3daca712	0.08430304
15	0x3e03e181	0.12878992
16	0x3e8ec495	0.27884355
17	0x3d99369e	0.074811205
18	0x3e6083cb	0.21925275
19	0xbdca3f5a	-0.098753646
20	0xbcbbdcd7	-0.022932453
21	0x397d2bbe	0.00024144255
22	0xbd3024ea	-0.043003954
23	0xbd1206f2	-0.035651155
24	0x3dd2c48c	0.102913946
25	0xbc3069ba	-0.010767395
26	0x3df3814a	0.11889894
27	0x3e843893	0.25824413
28	0xbe0da652	-0.13832977
29	0xbc1e2240	-0.0096517205
30	0x3eb91412	0.36148125
31	0x3d74e358	0.059787124

bn1.running_mean f4 [32]
0	0xbea6540b	-0.32485995
1	0x3e1c8862	0.15286401
2	0xbee50234	-0.44728243
3	0xbef53b62	-0.47896868
4	0xbd1bea9a	-0.03806553
5	0xbeceab01	-0.4036484
6	0x3e2f0194	0.17090446
7	0xbf454ed2	-0.77073395
8	0x3ed6819a	0.41895753
9	0xbe3be33a	-0.18348399
10	0xbe6ec5ea	-0.23317686
11	0x3e23d5c4	0.15999514
12	0x3eab0c64	0.3340789
13	0x3f3f4f2d	0.7473019
14	0x3e7bbd74	0.2458399
15	0xbe0a42f8	-0.13502109
16	0xbdf4c615	-0.11951844
17	0x3d959993	0.073046826
18	0xbe96ddf6	-0.29466218
19	0x3f1b546d	0.606757
20	0xbf3109a3	-0.6915533
21	0xbe4a05c7	-0.19728766
22	0x3dca4c80	0.098778725
23	0x3e250834	0.1611641
24	0x3d25fe0f	0.040525492
25	0xbd979cf5	-0.07402984
26	0x3a015f4d	0.00049351604
27	0xbe94d875	-0.29071394
28	0xbe7cfd24	-0.2470594
29	0xbf063dfe	-0.5243834
30	0x3e3db139	0.18524636
31	0x3e106b80	0.14103508

bn1.running_var f4 [32]
0	0x405327f5	3.2993138
1	0x3f9d6963	1.2297786
2	0x406d4866	3.7075438
3	0x3fdbcea3	1.7172436
4	0x3f8016ef	1.0006999
5	0x40e8601a	7.261731
6	0x3e9b53ab	0.3033727
7	0x40aa4cc6	5.3218718
8	0x40b66378	5.699642
9	0x3ffca732	1.9738524
10	0x4034a891	2.8227885
11	0x40078bd0	2.1179085
12	0x3fe401aa	1.7813008
13	0x41155cb9	9.335137
14	0x3eefcf02	0.46837622
15	0x3f0971fd	0.5368956
16	0x3f9e803a	1.2382882
17	0x3f922609	1.1417857
18	0x3f9d5549	1.2291652
19	0x40cc96a0	6.393387
20	0x4164635c	14.274258
21	0x3fbef9f3	1.4920028
22	0x40966417	4.699718
23	0x404175a9	3.0228064
24	0x3fd690c2	1.6762927
25	0x3fbc11c3	1.469292
26	0x3ff4b1f8	1.9116812
27	0x400bf632	2.1869016
28	0x40962a11	4.692635
29	0x406117fe	3.5170894
30	0x3f9bb924	1.2165875
31	0x40a11f3f	5.035064

policy.start_states f4 [2, 64]
0	0x3dad89d4	0.08473554
1	0x3dfa09e8	0.12208921
2	0xbc093b82	-0.008376004
3	0x3f1a8784	0.6036303
4	0xbffbc174	-1.9668412
5	0xbf9a3a4d	-1.2049042
6	0x3dbbcf11	0.09170354
7	0x3e4e171f	0.20126007
8	0x3f276569	0.65389115
9	0x3eb08915	0.34479585
10	0x3e191733	0.14950256
11	0xbf83b878	-1.029067
12	0xbef45c74	-0.47726786
13	0x3f918173	1.136763
14	0xbfd2e692	-1.6476614
15	0xbdda6821	-0.10664392
16	0xbee8f7fe	-0.45501703
17	0x3f59c872	0.8507148
18	0xbe63f9f6	-0.22263321
19	0xbf20b031	-0.62768847
20	0xbda05828	-0.078293145
21	0xbf28333c	-0.6570318
22	0x3e331c98	0.17491376
23	0x3d89fa79	0.06737227
24	0xbe8bc603	-0.27299508
25	0xbf3e225d	-0.74271184
26	0xbf22d089	-0.6359945
27	0xbcc6320e	-0.02419379
28	0xbd0884cd	-0.033329774
29	0xbec1053e	-0.37699312
30	0x3f8b5755	1.0886027
31	0x3e9f5396	0.31118459
32	0xbef9bf4d	-0.48778763
33	0x3d610ef8	0.054945916
34	0x3e072ac5	0.13199909
35	0x3cd49b7e	0.02595305
36	0xbf955e78	-1.1669455
37	0xbeb3e2a5	-0.35133854
38	0xbefb7d2d	-0.4911894
39	0x3f885e3f	1.0653762
40	0x3cf3072f	0.029666511
41	0xbf01d4a5	-0.50715095
42	0x3faf2ade	1.3684957
43	0xbd99125b	-0.07474204
44	0xbe2b816e	-0.16748592
45	0x3f3e64d2	0.7437259
46	0xbf24e1bb	-0.6440694
47	0x3e449673	0.19198017
48	0xbe074394	-0.13209373
49	0x3cc4afe6	0.024009656
50	0xbe99a1bb	-0.30006203
51	0xbfb05c9c	-1.3778262
52	0x3eb306e5	0.34966198
53	0x3e66cc45	0.2253886
54	0x3e8d8c3b	0.2764605
55	0x3ed2b761	0.41155532
56	0x3f0e1405	0.554993
57	0xbfc6d808	-1.5534678
58	0x3e3f63d0	0.18690419
59	0xbea7cc43	-0.32773027
60	0xbd9e7967	-0.077379994
61	0x3f696cc4	0.9118159
62	0x3f071d16	0.52778757
63	0x3f6061ce	0.8764924
64	0xbfae00a4	-1.3593946
65	0x3e4c3094	0.19940406
66	0x3fa9c94c	1.3264556
67	0x3eaca5cc	0.33720243
68	0xbe32ed0e	-0.17473242
69	0x3f35c04c	0.70996547
70	0x3fb85b0b	1.4402784
71	0xbf9d684c	-1.2297454
72	0xbeff2dbc	-0.4983958
73	0x3f37220e	0.7153634
74	0xbf1bba5d	-0.6083124
75	0xbf288e91	-0.6584254
76	0x3ef4d719	0.47820356
77	0x3f875aa7	1.057454
78	0xbf75e802	-0.9605714
79	0x3e351fbb	0.17687885
80	0x3d337612	0.043813772
81	0x3fb28c6d	1.3949105
82	0xbdec94d0	-0.11551821
83	0xbed91ce4	-0.42404854
84	0x3d0df596	0.034658037
85	0x3f49f884	0.7889483
86	0xbfa8bae8	-1.3182039
87	0x3e43b85d	0.19113298
88	0x3f03e01c	0.5151384
89	0x3f549c08	0.83050585
90	0x3fe598b5	1.7937227
91	0xbf969b55	-1.1766154
92	0xbf434bf1	-0.7628775
93	0xbd92ec7e	-0.071740136
94	0x3e39408c	0.18091029
95	0x3f5d9f42	0.86571133
96	0x3cffde05	0.031233797
97	0xbe9ce7c4	-0.30645573
98	0xbf7e78d6	-0.9940313
99	0xbf323994	-0.6961911
100	0xbe81ccbb	-0.2535151
101	0x3f1b7cfe	0.607376
102	0x3eade39f	0.33962724
103	0x3f114a03	0.5675356
104	0xbe3314df	-0.1748843
105	0x3e938652	0.28813416
106	0x3e2bc232	0.16773298
107	0xbfc059da	-1.502742
108	0xbfadf14e	-1.3589265
109	0x3f1c48b8	0.6104846
110	0xbf64bbb7	-0.8934893
111	0x3fcb0fea	1.5864232
112	0x3e31fd36	0.17381749
113	0xbed08377	-0.407253
114	0x3f6038c1	0.875866
115	0x3ef48980	0.47761154
116	0xbe423cef	-0.18968557
117	0xbe0b94ab	-0.13630931
118	0xbfb33cf7	-1.400298
119	0xbfd30826	-1.6486862
120	0xbef7b592	-0.48380715
121	0xbfcdc31c	-1.6075168
122	0xbce86507	-0.028368486
123	0x3ec89b7f	0.39181134
124	0x3f5449d7	0.8292517
125	0xbfb44af7	-1.4085377
126	0x3f887ff9	1.0664054
127	0xbe838ec2	-0.25694853

policy.layer_generator_weight f4 [64, 288]
0	0xbf073f5c	-0.52831054
1	0x3fc0d59f	1.5065192
2	0x3e0389cd	0.12845536
3	0x3f8089ee	1.0042093
4	0x3e35e422	0.17762807
5	0xbf01da08	-0.50723314
6	0xbf483927	-0.7821221
7	0x3d16482b	0.03668992
8	0x3f43b81e	0.76452816
9	0x3ff356c8	1.9010859
10	0x3f6aeddf	0.9176921
11	0xbfc89d81	-1.5673066
12	0xbf00ad41	-0.50264364
13	0xbe8af300	-0.2713852
14	0xbea3f00d	-0.32019082
15	0x3fefd20b	1.8735975
16	0xbfcf8f93	-1.621569
17	0xbf22e5f7	-0.6363215
18	0x3e927489	0.28604534
19	0x3e4f27b7	0.20229994
20	0xbd728787	-0.05921128
21	0xbf65dbf0	-0.89788723
22	0xbeb8283b	-0.35968193
23	0x3e3ca165	0.18420942
24	0x3d922a45	0.071369685
25	0x3ed20d96	0.4102599
26	0xbfa1fca3	-1.2655224
27	0xbd4bb95a	-0.049737312
28	0x3e35cfe9	0.17755093
29	0x3dc57aba	0.09642549
30	0x3faf1e6f	1.3681163
31	0xbf90e346	-1.1319358
32	0xbf15cc1e	-0.58514583
33	0x3f366349	0.7124525
34	0xbda6a3bd	-0.08136699
35	0x3dd17cfa	0.102289155
36	0xbea86cb6	-0.3289544
37	0xbddfac62	-0.10921551
38	0xbff8612a	-1.9404652
39	0x3f8a64ca	1.0812008
40	0xbfebaa05	-1.8411261
41	0xbf841b44	-1.0320821
42	0xbe3c1051	-0.18365599
43	0xbf852da5	-1.0404555
44	0xbffaffa7	-1.9609269
45	0x3d539ca8	0.05166307
46	0x3d7de213	0.06198318
47	0xbfa4aaf7	-1.2864674
48	0xbd393e17	-0.04522523
49	0x3ebbb086	0.36658114
50	0x3f4a4691	0.79013926
51	0x3e094feb	0.13409393
52	0x3f3c32eb	0.73515195
53	0x3f6c4f4c	0.923085
54	0x3f2d8962	0.67787755
55	0xbf4421d9	-0.7661415
56	0xbd5ae451	-0.053440396
57	0xbf95402f	-1.1660212
58	0xbffa9c79	-1.9579002
59	0x3f1f548b	0.6223838
60	0xbfc0a163	-1.5049251
61	0xc0060645	-2.0941327
62	0x3fe651bd	1.7993695
63	0x3f7eb6ef	0.99497885
64	0x3ebaaa39	0.36457995
65	0xbea10d5b	-0.31455502
66	0x3fc22aa3	1.5169262
67	0xbe73d9ab	-0.23813502
68	0x3d9a9f1b	0.07549878
69	0x3f98f2d1	1.1949102
70	0xbf849d1e	-1.0360448
71	0xbf86655e	-1.0499685
72	0x3f20c421	0.6279927
73	0xbfef6753	-1.8703407
74	0xbf7d0aa3	-0.98844355
75	0xbf750ea4	-0.95725465
76	0xbf55f647	-0.83578914
77	0x3f86eadb	1.0540422
78	0xbf1293c0	-0.572567
79	0xbf453a10	-0.7704172
80	0x3ea17f44	0.31542408
81	0xbe8d93b7	-0.2765176
82	0x3f3d16e5	0.7386306
83	0xbf13ab88	-0.5768361
84	0x3f7c0da2	0.984583
85	0xbfd19ad7	-1.6375378
86	0x3f15edd0	0.58566
87	0xbf198275	-0.59964687
88	0x4004c00b	2.0742214
89	0x3f6f7b14	0.9354718
90	0xbecd4cbb	-0.40097603
91	0x3f839b49	1.0281764
92	0xbeea9436	-0.458162
93	0xbf801758	-1.0007124
94	0x3fd1ee52	1.6400855
95	0x3d723283	0.059130203
96	0x3e89c6cf	0.2690949
97	0x3febb608	1.8414927
98	0x3ea40ff4	0.3204342
99	0xbe9e232a	-0.30886203
100	0x3f006555	0.5015462
101	0xbebfee19	-0.37486342
102	0xbf63447b	-0.8877637
103	0xbe16431d	-0.14674039
104	0x3e1eac18	0.15495336
105	0x3d68afa0	0.056808114
106	0x3f43186d	0.76209146
107	0x3ed486a0	0.4150896
108	0x3f9b4cbe	1.2132795
109	0x3f31d617	0.694673
110	0x3ecf680f	0.40509078
111	0xbbdc70ff	-0.0067273374
112	0xbfcfe649	-1.6242152
113	0xbf00a23e	-0.5024756
114	0xbd89096c	-0.0669125
115	0xbf5ec850	-0.870244
116	0x3f0bef0f	0.5466165
117	0x3fd9dbbe	1.7020185
118	0x3fa8538d	1.3150498
119	0x3f6a51a3	0.9153082
120	0x3f8e34fd	1.1109921
121	0xbe1c6d4b	-0.15276067
122	0xbf926451	-1.1436864
123	0xbf9c9e34	-1.223578
124	0xbf54dc54	-0.83148694
125	0x3f6b6542	0.9195138
126	0x3dc0bf91	0.094115384
127	0xbfce4dc4	-1.6117482
128	0x3e37be2e	0.17943642
129	0x3f8a18a4	1.078877
130	0xbe71fffb	-0.23632805
131	0xbfb35277	-1.4009541
132	0xbf6ef84f	-0.9334764
133	0x3f2ae691	0.66758066
134	0x3f40cde5	0.7531417
135	0xbf5a8cfe	-0.85371387
136	0x3f3a80a9	0.7285257
137	0x3e708622	0.23488668
138	0x3e9e4bbc	0.30917156
139	0x3f4c6c6c	0.7985294
140	0xbd3077ed	-0.04308312
141	0x3fb0a572	1.380049
142	0xbf339742	-0.70152676
143	0xbebbdbfe	-0.36691278
144	0xbded33ec	-0.11582169
145	0xbda99743	-0.08280804
146	0x3e71afae	0.23602173
147	0xbfe4f75f	-1.7887992
148	0x3d90d687	0.07072168
149	0x3f17a2b2	0.5923263
150	0x3f72f7a6	0.9490913
151	0xbef3c29b	-0.4760941
152	0xbf231451	-0.63702875
153	0x3f2cc9fa	0.6749569
154	0x3ee9fdc2	0.45701414
155	0x3eb332bd	0.34999648
156	0x3efa39ac	0.48872125
157	0x3f5b46fe	0.856552
158	0x3f20a6ee	0.62754714
159	0x3fa56fa5	1.2924696
160	0x3e818d94	0.25303328
161	0xbec4af85	-0.3841516
162	0x3f49457a	0.7862164
163	0xbf89811d	-1.0742527
164	0x3ee7ae9b	0.452504
165	0x3f08e886	0.534798
166	0x3ea69dc8	0.32542253
167	0x3f490e34	0.785373
168	0x3fd33c5d	1.6502796
169	0x3f07a14a	0.5298048
170	0x3f83d9e5	1.0300871
171	0x3f4f7b9a	0.81047976
172	0x3f50eb48	0.8160901
173	0xbec54343	-0.3852788
174	0xbf99a0d2	-1.2002203
175	0xbf85f330	-1.046484
176	0xbf65fa09	-0.8983465
177	0x3fc143c4	1.5098805
178	0x3f5469e0	0.8297405
179	0x3fbbefeb	1.4682592
180	0xbe9435d1	-0.2894731
181	0xbf037443	-0.51349276
182	0x3f937c2f	1.1522273
183	0x3f3d0a82	0.7384416
184	0xbf62d3c1	-0.8860436
185	0x3fd57562	1.6676447
186	0xbefc4519	-0.49271467
187	0x3e7254e4	0.23665196
188	0x3f6a12db	0.9143502
189	0xbf903924	-1.1267438
190	0xbf39d729	-0.72593933
191	0x3f549679	0.83042103
192	0x3f4d9f37	0.8032107
193	0xbf125c3d	-0.57171994
194	0x3f9da2b8	1.2315283
195	0xbf9466df	-1.1593894
196	0x4013306f	2.2998312
197	0xbe192761	-0.14956428
198	0xbefe556a	-0.4967454
199	0xbf3264b6	-0.6968492
200	0x3f9284b4	1.1446748
201	0xbe97c184	-0.29639828
202	0x3fd48a02	1.6604617
203	0xbea8e945	-0.3299047
204	0x3e852ebc	0.26012218
205	0xbe3c4ea4	-0.18389374
206	0xbf4cb9aa	-0.799708
207	0x3f33dc8c	0.702584
208	0x3f6a3b80	0.9149704
209	0xbf88f8ee	-1.0700967
210	0x3f23cb87	0.63982433
211	0x3fc6937d	1.551376
212	0x3ee6b196	0.45057362
213	0x3fe6c31f	1.8028296
214	0x3e8dc784	0.2769128
215	0x3e6645bc	0.22487539
216	0x3fcfbc27	1.6229295
217	0x3e73c194	0.23804313
218	0x3ef513a0	0.47866535
219	0xbfc96dfa	-1.5736687
220	0xbe55d3c6	-0.20881566
221	0x3f35fd11	0.71089274
222	0xbfbbc03c	-1.466804
223	0x3a3d58a0	0.0007222984
224	0x3fef55d6	1.869807
225	0xbe4061c4	-0.18787295
226	0xbfa1482f	-1.2600154
227	0x3e134f04	0.14385611
228	0xbf08bfe4	-0.534178
229	0x3f2fc87a	0.6866528
230	0x3e213a3b	0.1574487
231	0x3ee5a7ef	0.44854686
232	0x3f0e8669	0.55673844
233	0xbf27f6e6	-0.6561111
234	0x3db020d2	0.0860001
235	0xbf8f8180	-1.1211395
236	0x3e8c9bfa	0.2746275
237	0xbf2da352	-0.6782733
238	0xbef52196	-0.47877187
239	0x3e9a2f5d	0.3011426
240	0x3ee15b30	0.44014883
241	0x3ee0cce6	0.43906325
242	0xbe427169	-0.18988575
243	0xbea3af8c	-0.3196987
244	0xbf1fcf35	-0.6242555
245	0xbf152d1e	-0.5827197
246	0x3f57d6be	0.84312046
247	0xbf889eb9	-1.0673438
248	0xbfe27d39	-1.7694465
249	0xbdd4ea20	-0.10396218
250	0x3f607c98	0.87690115
251	0x3d98685e	0.074417815
252	0x3fb8d013	1.4438499
253	0xbf156a01	-0.58364874
254	0x3f4d9404	0.8030398
255	0x3f836eb3	1.0268158

policy.layer_generator_bias f4 [288]
0	0x3dce0515	0.10059563
1	0xbe482074	-0.1954363
2	0xbf93359b	-1.1500734
3	0xbec48ff1	-0.3839107
4	0x3cf3bf8c	0.029754423
5	0xb7e0af2f	-2.6784457e-05
6	0xbe534a0b	-0.20633714
7	0x3f838766	1.0275695
8	0x3f1df2f8	0.61698866
9	0x3d0ec286	0.03485348
10	0x3f4197f1	0.7562247
11	0xbf8347da	-1.0256302
12	0xbdf4d9f7	-0.11955636
13	0xbd823a69	-0.06358797
14	0x3e51eb1f	0.20499848
15	0xbeec7821	-0.461854
16	0x3f68db00	0.9095917
17	0xbf1973c9	-0.599423
18	0xbf86597b	-1.0496057
19	0xbf0ed7b1	-0.5579787
20	0xbee005a7	-0.43754312
21	0x40024d24	2.0359583
22	0x3fb0a308	1.3799753
23	0xbf8fe111	-1.124056
24	0xbfb3e4fe	-1.4054258
25	0xc000ea3e	-2.014297
26	0x3d888578	0.06666082
27	0x3f278448	0.6543622
28	0x3f6a70bb	0.91578263
29	0x3f0cc60f	0.54989713
30	0xbdf3ab5b	-0.11897918
31	0x3fa2dd03	1.2723697
32	0xbfb23862	-1.3923457
33	0xbf5961b2	-0.84914696
34	0x3e15be8c	0.14623469
35	0xc02c56e4	-2.6928034
36	0x3f1028e8	0.5631242
37	0xbf012a41	-0.504551
38	0x3e8820c0	0.26587486
39	0x3ee7f571	0.45304444
40	0xbfc308e8	-1.5237093
41	0x3d2ca141	0.04214597
42	0x3f27d1ec	0.6555469
43	0x40080a80	2.1256409
44	0xbf682362	-0.9067899
45	0xbf8a897f	-1.082321
46	0xbe1f285f	-0.15542744
47	0xbf67e64a	-0.9058577
48	0xbfe4f084	-1.78859
49	0x3f93d37f	1.1548918
50	0x3fb7a560	1.4347343
51	0x3f4022d3	0.7505314
52	0x3e11d42a	0.1424109
53	0x3e81f537	0.25382397
54	0xbfac3c72	-1.3455946
55	0xbf3e0024	-0.74218965
56	0x3e8cc701	0.27495578
57	0x3fef4a3c	1.869453
58	0x3f15e36d	0.5855015
59	0xbfc78326	-1.5586898
60	0x3fa47dfb	1.2850946
61	0x3f90c624	1.1310468
62	0xbfc46056	-1.5341899
63	0xbf714a44	-0.94253945
64	0xbe85dfe0	-0.26147366
65	0xbfb74fca	-1.4321225
66	0xbfb47142	-1.4097064
67	0x3ea7a588	0.32743478
68	0xbf5079bc	-0.8143575
69	0xbf8f376e	-1.1188791
70	0x4010769d	2.2572396
71	0x3f9eee4a	1.241647
72	0xbe81b711	-0.2533498
73	0xbf26b21e	-0.65115535
74	0xbf6dc1d0	-0.9287386
75	0xbe8b9732	-0.2726379
76	0xbf886d58	-1.0658369
77	0xbfb33faf	-1.400381
78	0xbf00868f	-0.5020532
79	0xbff3d266	-1.9048584
80	0xbf915c33	-1.1356262
81	0x3f289438	0.65851164
82	0xbf058462	-0.52155125
83	0xc00d57a4	-2.2084742
84	0xbf10e4d1	-0.56599146
85	0xbe4c5d98	-0.19957578
86	0x3f3ba715	0.7330182
87	0xbe247d88	-0.16063511
88	0xbe44a0c6	-0.19201955
89	0xbffc6f13	-1.9721397
90	0xbf3b311c	-0.7312181
91	0xbfc5a175	-1.5439898
92	0xbee6b616	-0.45060796
93	0xbf3c074b	-0.7344863
94	0x3f92cbd5	1.1468455
95	0x3fccb319	1.5992156
96	0x3f5c93a3	0.86162776
97	0x4007536c	2.1144667
98	0x3e924454	0.28567755
99	0x3f3bd8b4	0.7337754
100	0xbf576f03	-0.84153765
101	0xbf150d15	-0.58223087
102	0xbfe8aa2a	-1.817693
103	0xbf7e4400	-0.9932251
104	0xbe89041b	-0.26760945
105	0x3f6c3bd1	0.9227877
106	0xbf8f365f	-1.1188468
107	0xbf7cebe0	-0.98797417
108	0x3f8c483e	1.0959547
109	0x3f85acd2	1.0443366
110	0xbecd7924	-0.40131485
111	0xbf088c48	-0.5333905
112	0xbf101d3f	-0.56294626
113	0x3efe71eb	0.49696288
114	0xbfa14c25	-1.2601362
115	0xbff148bd	-1.8850323
116	0xbeabc64e	-0.33549732
117	0x3f85845c	1.0431018
118	0xbf178a90	-0.59195805
119	0xc01254f6	-2.2864356
120	0x3da40305	0.080083884
121	0x3fb64e63	1.4242672
122	0xbfcb68f4	-1.5891404
123	0x3dfd6a12	0.12373747
124	0xc0045b36	-2.068067
125	0xbf85a620	-1.0441322
126	0xbf9e8523	-1.238438
127	0xbed2d3ff	-0.41177365
128	0xbddea592	-0.10871424
129	0x3f349168	0.7053437
130	0x3de6615c	0.112490386
131	0x3e41dcd3	0.18931894
132	0xbfa574bc	-1.292625
133	0xc00bb0b1	-2.1826594
134	0x3c0571d8	0.008144818
135	0xbf94ac5d	-1.1615101
136	0xbf1bc2b7	-0.60843986
137	0xbf7ac9a4	-0.9796393
138	0x3f341b25	0.7035392
139	0xbff9fa0b	-1.9529432
140	0xbfd53fc6	-1.6660087
141	0x3e871689	0.2638438
142	0xbfdd49f5	-1.7288195
143	0x3ecf5322	0.40493113
144	0xbfe35a0f	-1.7761859
145	0xbd6adefb	-0.057341557
146	0x3f0c3c8b	0.5477988
147	0x3f18e2bb	0.59720963
148	0x3f81f647	1.0153283
149	0xbf013ee5	-0.50486594
150	0xbe024238	-0.12720573
151	0x3f872904	1.0559392
152	0x3f45f920	0.7733326
153	0xbf87e746	-1.0617454
154	0x3f6a5370	0.91533566
155	0xbf6f90d6	-0.9358038
156	0xbc477fed	-0.012176496
157	0xbe833247	-0.25624296
158	0xbf2ead0f	-0.68232816
159	0x3ed68eb4	0.4190575
160	0x3f2bea95	0.6715482
161	0x3ebfeeba	0.3748682
162	0x3d8dde2f	0.06927144
163	0xbeb0f5c5	-0.34562507
164	0x3ed38158	0.4130962
165	0x3f1f03c8	0.62115145
166	0xbf2322ff	-0.63725275
167	0xbfab00d0	-1.3359623
168	0xbe71574e	-0.2356846
169	0x3e4d3095	0.20038064
170	0xbf15fe6a	-0.5859133
171	0xbedc65b5	-0.43046346
172	0xbeebc36b	-0.4604753
173	0x3e949164	0.29017174
174	0x3e58ad85	0.21159942
175	0x3e58b1b4	0.21161538
176	0xbfb1de00	-1.3895874
177	0x3e4b2b25	0.19840677
178	0xbd2d0f38	-0.04225084
179	0xbf0030ac	-0.5007427
180	0x3f1a85ea	0.60360587
181	0xbf85743d	-1.0426098
182	0xbff73428	-1.9312792
183	0xbcde271b	-0.027118256
184	0xbebc742d	-0.36807385
185	0xbf5696c9	-0.8382383
186	0x3f48fdef	0.7851247
187	0xbf00d817	-0.50329727
188	0xbda5000b	-0.08056649
189	0xbf5cf10d	-0.86305314
190	0xbf251682	-0.6448747
191	0xbf867095	-1.0503107
192	0xbfa1288c	-1.2590499
193	0xbfd0927e	-1.6294706
194	0xbf010424	-0.50396943
195	0x3e4289f8	0.18997943
196	0xbf0d9d11	-0.5531779
197	0xbf37df08	-0.71824694
198	0xc0390e44	-2.8914957
199	0xbea60306	-0.32424182
200	0x3d886ea8	0.06661731
201	0xbf9319a3	-1.1492199
202	0xbe982d89	-0.2972224
203	0x3ea0af80	0.31383896
204	0x3da97aa3	0.08275344
205	0xbf3b089a	-0.7306
206	0x4016463b	2.3480365
207	0x3e7ebfba	0.24877825
208	0xbf8aef9b	-1.0854372
209	0xbf181115	-0.59401065
210	0xbffbf074	-1.9682755
211	0x3f6b1d44	0.9184153
212	0xbe50513d	-0.2034349
213	0xbe9cb9c4	-0.30610478
214	0x3fa699d2	1.3015692
215	0xbfb9a5d9	-1.4503738
216	0x3e538d58	0.20659387
217	0x3e1556b9	0.14583863
218	0x3ea834eb	0.32852873
219	0x3e359759	0.17733516
220	0x3faf0434	1.3673158
221	0x3f04a552	0.5181476
222	0xbf446e0d	-0.76730424
223	0xbe6ad5b4	-0.22933084
224	0xbe941017	-0.28918526
225	0xbf283d63	-0.6571867
226	0xbf6edc2f	-0.93304724
227	0x3ec9da79	0.39424494
228	0x3de36d2d	0.11104808
229	0xbf402305	-0.75053436
230	0xbfae1dd7	-1.3602856
231	0xbf938c69	-1.1527225
232	0x3f63687a	0.88831294
233	0xbff85cc6	-1.9403312
234	0xbeb2aa7a	-0.34895688
235	0x3f9ef6b1	1.2419034
236	0xbf5bc98f	-0.8585443
237	0x3f407700	0.7518158
238	0x3f21802c	0.630862
239	0xbfe2767e	-1.7692411
240	0xbe286640	-0.16445255
241	0x3e995609	0.29948452
242	0x3ff12bdd	1.8841511
243	0xbe9401de	-0.28907675
244	0xbe6e8117	-0.23291431
245	0xbfcba9e3	-1.591122
246	0x3f2f2dc3	0.684292
247	0x3f2aa04f	0.6665086
248	0x3f94fbf1	1.1639386
249	0x3f509d27	0.81489795
250	0xbf3479bb	-0.70498246
251	0xbf29f8d8	-0.6639533
252	0x3eacaabd	0.33724013
253	0x3f14770a	0.5799414
254	0xbd4f09cc	-0.050546452
255	0xbf5952d6	-0.8489202

policy.kernel_embedding_generator_weight f4 [64, 2048]
0	0x3ed4c917	0.4155967
1	0x3e37de9b	0.17956011
2	0x3f18b839	0.596561
3	0x3ee205e8	0.4414513
4	0x3ee1d524	0.44107926
5	0xbfe47a2d	-1.7849785
6	0x3f012cd9	0.5045906
7	0x3d87e8c5	0.06636194
8	0x3f5e83f6	0.86920106
9	0xbeea49e8	-0.4575951
10	0xbed891ac	-0.4229864
11	0x3d7c9694	0.06166704
12	0x3f3c4fc1	0.73559195
13	0xbd1cd87a	-0.038292386
14	0x3fa65b47	1.2996606
15	0x3c0b3f0e	0.00849892
16	0x40008188	2.007906
17	0xbd809104	-0.062776595
18	0x3fad5fba	1.3544838
19	0xbf1ad202	-0.60476696
20	0xbe3dd375	-0.18537696
21	0x3f7721dd	0.96536046
22	0x3f8e8b61	1.1136285
23	0xbf821368	-1.0162172
24	0x3f0df1b4	0.55446935
25	0x3fbea83e	1.4895093
26	0xbf8a06f2	-1.078337
27	0xbefdbe73	-0.49559364
28	0x3f535b29	0.82560974
29	0x3f0d3682	0.551613
30	0x3e1223d2	0.14271477
31	0x3d7613e9	0.06007758
32	0x40062950	2.0962715
33	0x3f15d298	0.58524466
34	0x3e52b72d	0.20577689
35	0x3e84db34	0.2594849
36	0x3f29e652	0.66367066
37	0x3f58b3f2	0.84649575
38	0x3f967788	1.1755228
39	0x3cbf2d60	0.023337066
40	0xbf9e1b72	-1.2352126
41	0xbe6b797e	-0.22995564
42	0xbfc5e0cf	-1.5459231
43	0xbf25f1ff	-0.6482238
44	0xbfa2939d	-1.2701298
45	0xbe018faa	-0.1265246
46	0x3e9c5955	0.30536905
47	0xbfddc424	-1.7325482
48	0xbf1142a9	-0.5674234
49	0x3e0fd3a7	0.14045583
50	0xbfa78014	-1.3085961
51	0xbf0f90ed	-0.56080514
52	0xbc97e05a	-0.018539596
53	0x3f0d4f9a	0.5519959
54	0xbe3f2ad9	-0.18668689
55	0xbfc8090a	-1.5627759
56	0xbf8e6dfc	-1.1127315
57	0xbfc6cdd7	-1.5531567
58	0xbef99e3e	-0.48753542
59	0x3ea87b99	0.32906798
60	0xbf8ebd1a	-1.1151459
61	0x3ee7af58	0.45250964
62	0xbe306738	-0.17226875
63	0xbfa06d42	-1.2533343
64	0xbeaa5b2f	-0.33272693
65	0x3e556864	0.20840603
66	0xbf15b07e	-0.5847243
67	0xbf47a996	-0.7799314
68	0x3ee557c1	0.44793513
69	0xbea5d942	-0.32392317
70	0x3f5e70c0	0.8689079
71	0xbf048d79	-0.5177837
72	0xbe9af29c	-0.3026322
73	0x3e9a77b1	0.30169442
74	0xbf310861	-0.6915341
75	0xbf83c5fd	-1.0294796
76	0x3f081743	0.53160495
77	0xbfa0bcd5	-1.2557627
78	0x3fa0b3b6	1.2554843
79	0xbfbced6b	-1.4759954
80	0xbed530c0	-0.41638756
81	0x3fd045b8	1.6271276
82	0x3f6e3a7a	0.9305798
83	0xbf0e5108	-0.55592394
84	0x3eae4b2a	0.3404172
85	0xbed3dc35	-0.41378942
86	0xbdc397e5	-0.09550456
87	0xbf4aafff	-0.791748
88	0x3ef965b7	0.48710415
89	0xbf7af42b	-0.9802882
90	0x3f68616d	0.9077366
91	0x3e00d13d	0.12579818
92	0xbedcc24b	-0.43116984
93	0x3e1a76f8	0.15084445
94	0xbfb18547	-1.3868798
95	0x3f6a3e81	0.91501623
96	0xbee039aa	-0.43793994
97	0x3fb245e3	1.3927578
98	0x3f0af301	0.54277045
99	0x3f537ff2	0.82617104
100	0x3f1c7488	0.6111531
101	0x3f84254b	1.0323881
102	0x3fd59717	1.6686734
103	0x3f33c392	0.7022029
104	0x3fc59721	1.5436746
105	0x3f251c31	0.6449614
106	0x3da21d4c	0.07915744
107	0x3f9d3201	1.2280885
108	0x3f22d5b1	0.6360732
109	0x3f2005e1	0.6250897
110	0xbeb5f974	-0.3554188
111	0x3e299caf	0.16563676
112	0x3e045282	0.12922099
113	0x3fe1ef40	1.7651138
114	0xbed6d616	-0.4196021
115	0x3f5d36ee	0.8641194
116	0x3fb49654	1.4108377
117	0x3f566c16	0.83758676
118	0xbf91ffba	-1.1406167
119	0xbf919dbd	-1.1376263
120	0xbe77a274	-0.24183065
121	0x3e470788	0.19436467
122	0xbf48457b	-0.7823102
123	0xbecc48c9	-0.3989928
124	0x3f9bd3ba	1.2173989
125	0xbe4faff9	-0.20281972
126	0x3fbc9340	1.4732437
127	0xbf3e0d6c	-0.7423923
128	0xbf7665ce	-0.9624909
129	0x3fbd58ad	1.4792687
130	0xbfa03dbb	-1.2518839
131	0xbe5c20ef	-0.21496938
132	0xbf610de7	-0.8791184
133	0xbd9e07bb	-0.07716318
134	0x3f02de5d	0.5112055
135	0xbfc8d4e2	-1.5689967
136	0x3f39fcea	0.7265154
137	0xbe43bdf0	-0.19115424
138	0x3fbdebba	1.4837563
139	0xbfb206d3	-1.3908333
140	0xbf0c5778	-0.54820967
141	0x3e716cda	0.2357668
142	0xbe9fdd41	-0.3122349
143	0xbea0a525	-0.31375995
144	0xbf39b09c	-0.7253511
145	0xbe98efaa	-0.2987035
146	0xbdae644e	-0.08515225
147	0x3f1dcdeb	0.6164233
148	0x3fb0eb9c	1.3821902
149	0x3e2f76c3	0.17135148
150	0xbe451e81	-0.19249918
151	0x3ef293dc	0.47378433
152	0xbf67b165	-0.9050506
153	0x3f766503	0.9624788
154	0x3fa84bf7	1.3148183
155	0xbfac8117	-1.3476895
156	0xbf8d14e5	-1.1022002
157	0x3f52db1a	0.8236557
158	0xbf8c8d9b	-1.0980715
159	0xbed398bc	-0.41327465
160	0x3ebe18ed	0.37128392
161	0xbe80cff4	-0.25158656
162	0xbf54aa11	-0.83072
163	0x3e0a614e	0.13513681
164	0x3f9dfa55	1.234202
165	0xbf911145	-1.1333395
166	0x3f074951	0.52846247
167	0xbe137c15	-0.14402802
168	0xbd97769c	-0.0739567
169	0xbf2522d7	-0.64506286
170	0xbe83ea83	-0.25764856
171	0x3f296efd	0.6618498
172	0x3e5bb135	0.21454318
173	0xbe56afdd	-0.20965524
174	0xbe956c4c	-0.29184186
175	0x3f932696	1.149615
176	0x3f25a798	0.6470885
177	0xbe671aed	-0.22568865
178	0xbfbf9474	-1.4967179
179	0x3eae5ab5	0.3405358
180	0xbf0ce219	-0.550325
181	0x3f4115d5	0.7542394
182	0xbf810d6f	-1.0082225
183	0xbf2fae65	-0.6862548
184	0xbd27cb7d	-0.040965546
185	0x3f26ad78	0.6510844
186	0x3f608904	0.8770907
187	0xbe36827c	-0.17823213
188	0x3f563a5c	0.836828
189	0xbf4d6da5	-0.8024543
190	0x3ec3e5c1	0.38261226
191	0xbd943dd9	-0.07238359
192	0xbf11562b	-0.56772107
193	0xbfa98895	-1.3244807
194	0xbec3b11f	-0.3822107
195	0x3f08ebd1	0.5348483
196	0x3de08d5a	0.10964461
197	0x3f4b32b1	0.79374224
198	0xbf8e61bd	-1.1123577
199	0xbf61389c	-0.87977004
200	0xbfb0f9d7	-1.3826245
201	0xbf30849d	-0.6895235
202	0x3f67533a	0.9036137
203	0xbf6c7339	-0.92363316
204	0x3df59b18	0.119924724
205	0xbed37f17	-0.413079
206	0x3fcdc8a7	1.6076859
207	0xbf08623d	-0.532749
208	0x3f3894a0	0.72101784
209	0xbd7b4d2b	-0.06135289
210	0xbf0afb88	-0.54290056
211	0x3e33318d	0.17499371
212	0xbdece41b	-0.11566945
213	0xbf98e0a2	-1.1943552
214	0xbf564ba4	-0.8370917
215	0xbe7439c6	-0.23850164
216	0xbfe7519b	-1.8071779
217	0x3fb156a1	1.3854562
218	0x3eb9ac84	0.3626443
219	0xbf09ddf2	-0.53854287
220	0xbe8a24d9	-0.26981238
221	0xbf917f32	-1.1366942
222	0x3d6695c9	0.05629519
223	0xbea52f39	-0.3226259
224	0x3fc04624	1.5021405
225	0x3f36a70a	0.7134863
226	0xbe299dbe	-0.1656408
227	0xbf05a5a7	-0.5220589
228	0x3f5da807	0.86584514
229	0xbe2e7ee5	-0.17040594
230	0x3ed8c4f7	0.42337772
231	0x3f2252f4	0.63407826
232	0xbe07643f	-0.13221835
233	0x3ee828b2	0.45343548
234	0xbfd906d4	-1.6955209
235	0x3ee0f312	0.43935448
236	0xbe560e8a	-0.20903984
237	0xbf116e55	-0.5680898
238	0x3f8290ec	1.0200477
239	0x3edda43a	0.43289357
240	0xbfd5a3e7	-1.6690644
241	0xbe0361e0	-0.12830305
242	0x3f5aee80	0.8552017
243	0xbfc2c815	-1.521731
244	0x3fc2a150	1.5205479
245	0x3f8af606	1.085633
246	0x3f84a165	1.0361754
247	0x3f45d408	0.7727666
248	0x3e11842f	0.1421058
249	0x3e6fa0fb	0.23401253
250	0x3e1b792d	0.15182944
251	0x3e92686f	0.28595302
252	0x3b4f149f	0.0031597984
253	0xbf2d2ceb	-0.67646664
254	0xbed3cc96	-0.41367024
255	0xbed6c098	-0.41943812

policy.kernel_embedding_generator_bias f4 [2048]
0	0xbea553c3	-0.32290468
1	0xbfc611d0	-1.5474186
2	0xbe41145c	-0.18855423
3	0x3f0ae0cf	0.5424928
4	0xbe06c927	-0.13162671
5	0x3f8842e0	1.0645409
6	0xbefc61d0	-0.49293375
7	0x3e05ea7f	0.13077734
8	0xbe169c39	-0.14708032
9	0x3f17d9eb	0.5931689
10	0xbee6084c	-0.44928205
11	0x3ea14855	0.31500497
12	0xbf4d7bf5	-0.8026727
13	0x3d81b33b	0.063330136
14	0xbf04d7f1	-0.51892
15	0xbf8313e8	-1.024045
16	0xbf5523ba	-0.8325764
17	0x3fa0cc93	1.2562431
18	0x3ec240ee	0.37940162
19	0xbf6ce7cf	-0.9254121
20	0xbe8f7152	-0.28016144
21	0x3f25cf04	0.64769006
22	0x3f0b0ea5	0.5431922
23	0x3f87122b	1.055242
24	0x3eefdd51	0.4684854
25	0x3faf4065	1.3691527
26	0x3fd3208a	1.6494305
27	0x3e9ebf7b	0.31005463
28	0xbe9ea1d1	-0.3098283
29	0x3f1441b2	0.57912743
30	0xbf3fe60f	-0.74960417
31	0xbee5e9e9	-0.44905022
32	0x3e6b2f06	0.22967157
33	0x3fac686a	1.3469365
34	0x3de30359	0.11084623
35	0x3e605526	0.21907482
36	0x3f6b479b	0.91906136
37	0x3c1967a6	0.009363091
38	0x3f9ba72e	1.2160394
39	0xbf83314f	-1.0249423
40	0xbf4d4417	-0.8018202
41	0x3f255e60	0.6459713
42	0xbe697630	-0.22798991
43	0xbead0ff7	-0.33801243
44	0x3e8a3f2c	0.2700132
45	0x4008a2c6	2.134935
46	0x3fa36c01	1.2767335
47	0x3bee463a	0.0072715553
48	0x3f84f8e7	1.0388459
49	0xbf630c96	-0.8869108
50	0x3f22e660	0.63632774
51	0xbecba4c0	-0.39774132
52	0xbebc5ee3	-0.36791143
53	0xbf4a5f4f	-0.7905168
54	0x3f8ad343	1.0845722
55	0x3e680d3e	0.22661301
56	0x3e16173b	0.14657299
57	0x3fcc073e	1.593971
58	0xbf851c65	-1.039929
59	0xbe9df913	-0.3085409
60	0x3f5a96ec	0.8538654
61	0xbfb20654	-1.3908181
62	0xbf9513f8	-1.1646719
63	0x3f49ae8d	0.7878197
64	0xbe183b41	-0.14866354
65	0xbe900668	-0.28129888
66	0xbf1cb2bb	-0.6121022
67	0x3e1dd1c8	0.15412056
68	0xbf107067	-0.5642151
69	0xbf70a59a	-0.9400269
70	0xbf552e51	-0.832738
71	0xbeef0d73	-0.46689948
72	0xbc26a4d6	-0.010171136
73	0x400b4e75	2.1766636
74	0xbf85a749	-1.0441676
75	0xbf0bb805	-0.54577667
76	0xbf321560	-0.69563866
77	0xbea6e840	-0.32599068
78	0x3eba69e5	0.36408916
79	0xbeb971bd	-0.36219588
80	0xbe6557ad	-0.22396727
81	0x3fb61b51	1.4227086
82	0x3f0d0665	0.5508788
83	0x3f0af76a	0.54283774
84	0x3e3084b8	0.17238128
85	0xbe34d1fd	-0.17658229
86	0xbe98429d	-0.29738322
87	0xbeb1d8a0	-0.34735584
88	0x3f36a88c	0.7135093
89	0x3f2e183e	0.6800574
90	0x3f6b33fb	0.9187619
91	0xbfd7bfa5	-1.685536
92	0x3e9ed11f	0.31018922
93	0x3f3a4143	0.7275583
94	0x3f8b9269	1.0904056
95	0x3e4260ca	0.18982235
96	0xbb079ded	-0.0020693496
97	0xbd6dca07	-0.058053996
98	0xbffe8008	-1.9882822
99	0x3f874655	1.0568339
100	0x3e2c3576	0.16817269
101	0x3f5d5690	0.8646021
102	0x3d16f461	0.03685415
103	0x3f4db869	0.8035951
104	0x3f862e2f	1.0482844
105	0xbe977655	-0.29582468
106	0x3ff9fbee	1.9530008
107	0x3f258c62	0.6466733
108	0x3ff7ab80	1.9349213
109	0xbfb45aa7	-1.4090165
110	0x3fad880f	1.3557147
111	0x3f85d1a1	1.0454599
112	0x3e3f3238	0.186715
113	0xbfb4a93b	-1.4114145
114	0x3f92911a	1.1450531
115	0xbec0e327	-0.37673303
116	0x3e984581	0.29740527
117	0x3f5f15ee	0.8714284
118	0x3ef1abee	0.47201484
119	0x3fbeae45	1.4896933
120	0xbf11a826	-0.568972
121	0xbf5dd0bf	-0.86646646
122	0x3d60b3de	0.054859035
123	0x3f3bc92c	0.7335384
124	0xbefc4fd7	-0.49279663
125	0xbf14fb86	-0.58196294
126	0x3f5feac5	0.87467605
127	0xbf423c11	-0.75872904
128	0xbe78669e	-0.24257895
129	0xbfd29095	-1.6450373
130	0xbdc894c0	-0.09793997
131	0xc002eba3	-2.0456321
132	0xbf139edc	-0.57664275
133	0xbfe224ec	-1.7667518
134	0xbf08c501	-0.53425604
135	0x3fe9d2aa	1.8267415
136	0xbf06cb47	-0.52653927
137	0xbf1b2665	-0.6060546
138	0xbf5c9fa2	-0.8618108
139	0x3e0c3f66	0.1369606
140	0xbfd0a921	-1.6301614
141	0xbfe13fbe	-1.7597578
142	0xbff1a741	-1.8879167
143	0x3f7fa33d	0.99858457
144	0xbdfd8a86	-0.12379937
145	0xbe428c52	-0.1899884
146	0xbe271c40	-0.1631937
147	0xbd50bd52	-0.0509618
148	0x3ea57da9	0.32322434
149	0x3d08bcfb	0.03338335
150	0x3da0c024	0.07849148
151	0xbec82f2d	-0.39098492
152	0x3f0add94	0.5424435
153	0x3e54b9e4	0.20774037
154	0xbe90a8f0	-0.2825389
155	0xbfb304c8	-1.3985834
156	0xbd9e5fd2	-0.0773312
157	0x3e85c240	0.26124763
158	0xbefe2049	-0.49634007
159	0xbf2974bd	-0.66193753
160	0xbeae63a6	-0.340604
161	0x3f87b079	1.060073
162	0x3f8755fc	1.0573115
163	0x3f8fcf13	1.1235069
164	0xbeb01daa	-0.34397632
165	0xbe744794	-0.2385543
166	0xbe317e21	-0.1733327
167	0x3f1936b3	0.5984909
168	0x3f0c2c0b	0.54754704
169	0x3d851910	0.06498921
170	0xbfceecb4	-1.6165986
171	0x3f657866	0.8963684
172	0xbf457a9b	-0.77140206
173	0xbebdb9c6	-0.37055796
174	0xbe1c39ba	-0.15256396
175	0xbf520be6	-0.82049406
176	0xbc5d04bf	-0.013489901
177	0xbe9a4ea1	-0.30138114
178	0x3f22b230	0.6355314
179	0x3db5b669	0.088726826
180	0x3f651de9	0.89498764
181	0x3f082594	0.5318234
182	0xbf4c91a0	-0.79909706
183	0xbf1db581	-0.6160508
184	0x3f1126b6	0.56699693
185	0x3e587967	0.21140061
186	0xbf4b4cfc	-0.79414344
187	0xbf27cd77	-0.6554789
188	0x3d8ed4fb	0.069742166
189	0x3f084d4f	0.53242964
190	0x3d8f7973	0.070055865
191	0x3eb71bbc	0.35763347
192	0x3fa0da4b	1.2566618
193	0xbf3b2354	-0.7310078
194	0x3fbf2b08	1.4935007
195	0xbddb9aa3	-0.10722854
196	0xbf5144ef	-0.8174581
197	0x3f6dca39	0.9288669
198	0xbf3266ab	-0.6968791
199	0x3f25564d	0.6458481
200	0x3ef59eef	0.4797282
201	0xbf7234d6	-0.9461187
202	0x3e72c521	0.23708011
203	0xbf5ab835	-0.8543733
204	0x3fb9c4cd	1.4513184
205	0xbf7c1db5	-0.9848283
206	0x3bc1064e	0.005890644
207	0xbfc8be0e	-1.5683
208	0x3eed5b88	0.46358895
209	0xbfab2c41	-1.337288
210	0xbf0a320e	-0.5398263
211	0xbf8afc1a	-1.0858185
212	0xbec66668	-0.38750005
213	0x3f532bad	0.8248852
214	0x3ec10df9	0.37705973
215	0xbd9ca05b	-0.07647773
216	0x3f90a949	1.1301662
217	0xbc0ace54	-0.008472044
218	0x3e394ce7	0.18095742
219	0x3faa30ea	1.3296177
220	0xbf0cef43	-0.55052584
221	0xbe1c805a	-0.15283337
222	0xbfc501a7	-1.5391129
223	0xbf63140f	-0.8870248
224	0x3f1f1fc1	0.6215783
225	0x3ec7bca1	0.390111
226	0x3fec8c32	1.8480284
227	0x3f76ff21	0.96483046
228	0xbfa13b1e	-1.2596166
229	0x3fb38c42	1.4027178
230	0x3f3c2303	0.73490924
231	0x3f5bffbe	0.85937107
232	0xbfe09495	-1.7545344
233	0xbf5dccac	-0.8664043
234	0x3f6e7da1	0.93160444
235	0xbd0135b5	-0.03154536
236	0x3de43af5	0.11144058
237	0x3f372635	0.71542674
238	0x3f68820b	0.9082343
239	0x3aea1393	0.0017858617
240	0xbd56c350	-0.05243236
241	0xbf017aba	-0.5057789
242	0x3f3d1dfc	0.7387388
243	0xbf5ab7b4	-0.8543656
244	0x3fd8a157	1.6924237
245	0xbf896139	-1.0732795
246	0xbfe0143a	-1.7506173
247	0xbfaf335c	-1.3687549
248	0x3e5073f4	0.20356733
249	0x3f86f9b5	1.0544955
250	0xbf7180a9	-0.94336945
251	0xbed7d83b	-0.42157158
252	0x3e7f70ef	0.24945424
253	0xbdd75f99	-0.10516281
254	0xbef6f17c	-0.48231113
255	0xbeec5e30	-0.4616561

policy.state_update.update_mem.weight f4 [64, 64]
0	0x3e0d5d82	0.13805202
1	0x3d927dff	0.07152938
2	0x3e06146a	0.13093725
3	0xbe20384b	-0.15646474
4	0x3e83a4cb	0.25711665
5	0x3eb13e64	0.34617913
6	0xbe4ec163	-0.20190959
7	0x3dbb5aae	0.09148155
8	0xbdb49206	-0.08816914
9	0x3dcf9784	0.10136321
10	0xbdd7802a	-0.10522492
11	0x3d8b0e60	0.06789851
12	0xbe311093	-0.17291479
13	0x3d99090a	0.07472427
14	0x3eabb2ed	0.33534947
15	0x3d54200e	0.051788382
16	0x3d72ebeb	0.05930702
17	0xbdb9b10a	-0.09066971
18	0xbe1113e5	-0.14167745
19	0xbe14ed45	-0.14543636
20	0xbf01d33e	-0.50712955
21	0x3cdac0fd	0.026703352
22	0xbe2917e8	-0.16513026
23	0x3e731bde	0.23741099
24	0x3f7a6670	0.9781256
25	0x3d23a6a6	0.03995385
26	0x3ea115bf	0.31461903
27	0xbeb4d0b7	-0.35315487
28	0xbed28975	-0.41120496
29	0x3e7b173a	0.24520579
30	0x3e308960	0.17239904
31	0x3f015704	0.505234
32	0xbdc1407e	-0.09436129
33	0xbf910038	-1.1328192
34	0xbf1304a8	-0.5742898
35	0xbe85b121	-0.261117
36	0xbe53bce0	-0.20677519
37	0xbe47cd02	-0.19511798
38	0x3e8ac5f1	0.27104142
39	0x3d41efa5	0.047347683
40	0xbe64fbef	-0.2236173
41	0x3e696b3a	0.2279481
42	0xbebe734d	-0.37197343
43	0xbef8de30	-0.48607016
44	0xbe73e831	-0.23819043
45	0x3d89c9eb	0.06727966
46	0x3e8b8f4b	0.2725776
47	0x3ecc0242	0.39845473
48	0xbd3cb2b1	-0.04606885
49	0xbeeefb19	-0.46675947
50	0x3de1b463	0.11020734
51	0x3f27f12d	0.6560238
52	0xbd9e8bed	-0.077415325
53	0x3cf4c64d	0.029879713
54	0xbe6fd499	-0.23420943
55	0xbe6f74f9	-0.23384465
56	0xbe7352be	-0.23762032
57	0xbe710305	-0.23536308
58	0x3d7c6054	0.061615303
59	0xbdc21d8a	-0.094782904
60	0x3e87cf1c	0.265252
61	0x3d70b748	0.05876854
62	0xbe6a1fb8	-0.22863662
63	0xbe63b5bb	-0.22237293
64	0x3e9ab82e	0.30218643
65	0xbb54c9a6	-0.0032468825
66	0xbe9f0201	-0.31056216
67	0xbd01cf1a	-0.031691648
68	0xbe84cfd5	-0.25939813
69	0xbe5ae08f	-0.21374725
70	0x3e6322a9	0.2218119
71	0xbc79204e	-0.015205456
72	0x3d379dcd	0.044828225
73	0xbd8bf483	-0.06833746
74	0x3de09b48	0.109671175
75	0x3e36d322	0.17853978
76	0xbefda7e6	-0.4954216
77	0xbcfd6179	-0.030930268
78	0x3e79d8fc	0.24399179
79	0x3e8abf92	0.27099282
80	0xbdbd9a47	-0.09257942
81	0x3e253525	0.16133554
82	0xbed84de1	-0.42246917
83	0xbe36c8e5	-0.17850073
84	0xbed6d11c	-0.41956413
85	0xbe6c6712	-0.23086193
86	0x3e32c3f1	0.17457558
87	0xbe204a7d	-0.15653415
88	0xbf39db1e	-0.7259997
89	0xbe83bedc	-0.25731552
90	0xbf281abb	-0.6566579
91	0xbf10554e	-0.56380165
92	0xbdb4ecbb	-0.08834215
93	0xbe73bba9	-0.23802055
94	0x3e5ea777	0.2174357
95	0x3e12acbc	0.14323705
96	0xbf31956c	-0.69368625
97	0xbe00cacd	-0.12577362
98	0x3f18d044	0.5969279
99	0x3e984299	0.2973831
100	0x3e910e4e	0.28331226
101	0xbd8eed73	-0.069788836
102	0x3eafb27c	0.3431586
103	0x3e953842	0.29144484
104	0xbeeb06e0	-0.45903683
105	0xbe538081	-0.20654489
106	0xbcc552b9	-0.024087297
107	0xbeaf76c5	-0.342703
108	0x3e952594	0.29130232
109	0x3ea4c806	0.32183856
110	0xbc0e64e4	-0.008691046
111	0xbd83dcb4	-0.0643858
112	0x3e96f02d	0.29480115
113	0xbc094e09	-0.008380421
114	0xbf13bd60	-0.5771084
115	0xbd3110b6	-0.043228827
116	0x3f0583c9	0.52154213
117	0xbec4716f	-0.38367793
118	0x3e83a461	0.2571135
119	0x3e998d36	0.29990548
120	0x3ad2781e	0.0016057526
121	0xbe84cbd3	-0.25936756
122	0x3df4ca15	0.119526066
123	0xbbba8592	-0.0056921924
124	0x3e1e4b0b	0.15458314
125	0x3ecaee5a	0.39634973
126	0xbea05279	-0.31312922
127	0x3e28560a	0.16439071
128	0x3e616a27	0.2201315
129	0xbd33e10c	-0.043915793
130	0x3e085e4b	0.1331722
131	0x3edafc92	0.4277082
132	0xbe93c6aa	-0.28862506
133	0x3da877bc	0.082259625
134	0x3cae1716	0.021251243
135	0xbe7f86db	-0.24953787
136	0x3e8f0b66	0.27938384
137	0x3e36c1ff	0.17847441
138	0xbe945956	-0.28974408
139	0xbf11bf13	-0.5693218
140	0xbe8a8eae	-0.2706198
141	0x3d27d05a	0.040970184
142	0xbd571814	-0.052513197
143	0x3e1a2826	0.15054378
144	0xbec1edb1	-0.37876657
145	0x3f067f92	0.52538407
146	0xbedca2cb	-0.4309295
147	0xbf0be370	-0.5464392
148	0xbf03bbb0	-0.51458263
149	0x3dab19fa	0.08354564
150	0xbcd2c989	-0.025730865
151	0xbea8f659	-0.33000448
152	0xbe8d78d0	-0.27631235
153	0x3ed4ae5a	0.4153927
154	0xbe01bdc4	-0.12670046
155	0xbf252c65	-0.64520866
156	0xbd149939	-0.036278937
157	0xbd6bfcca	-0.057614125
158	0xbe4aac62	-0.19792321
159	0xbde4c703	-0.11170771
160	0xbee7576c	-0.45183885
161	0x3d8ca4ec	0.06867394
162	0x3e136f81	0.14398004
163	0xbe59203a	-0.212037
164	0xbdbcb262	-0.09213711
165	0x3e9792db	0.2960423
166	0x3ebad007	0.36486837
167	0x3eca9f03	0.3957444
168	0x3ec01a8a	0.37520248
169	0x3e8686d0	0.2627473
170	0x3ec3de00	0.3825531
171	0xbd046d4f	-0.032330807
172	0x3e5b1035	0.21392901
173	0xbebf8b99	-0.37411192
174	0xbf09a6b4	-0.53769994
175	0x3e638134	0.22217256
176	0x3dab1caf	0.0835508
177	0xbe7d89a4	-0.24759537
178	0x3eb44e1e	0.3521585
179	0xbeebd583	-0.46061334
180	0xbdbe0546	-0.092783496
181	0x3e48e77b	0.19619553
182	0xbd8f0f46	-0.06985335
183	0x3e8d3b0d	0.27584115
184	0x3d7ecdd4	0.06220801
185	0x3e385ef8	0.18004978
186	0xbeb569ae	-0.3543219
187	0x3e906258	0.2820003
188	0xbe53bc45	-0.20677288
189	0x3e151e75	0.145624
190	0xbd21f57c	-0.039540753
191	0xbe47d847	-0.19516097
192	0xbcd941f4	-0.026520707
193	0x3c322e95	0.010875364
194	0x3e8e9f1c	0.27855766
195	0xbea70007	-0.32617208
196	0xbe427dc9	-0.18993296
197	0xbd99b9d6	-0.075061485
198	0x3db7b8a2	0.08970763
199	0x3e4e6f1c	0.20159572
200	0xbda957af	-0.082686774
201	0x3acd7f22	0.0015678147
202	0xbe1e3020	-0.15448046
203	0x3e90a68f	0.28252074
204	0xbe56623e	-0.20935914
205	0xbe2ed00c	-0.17071551
206	0xbe15be23	-0.14623313
207	0x3e506cec	0.2035405
208	0xbb2e8af3	-0.0026633113
209	0xbe8a0f64	-0.26964867
210	0xbe44c088	-0.1921407
211	0x3e78e388	0.24305546
212	0xbe707751	-0.23483016
213	0x3d3663bc	0.044528708
214	0x3ee165f4	0.44023097
215	0xbefaa1f9	-0.489517
216	0xbe1305ee	-0.14357731
217	0x3e2f7660	0.17135
218	0xbf030f94	-0.51195645
219	0x3f6b9f49	0.92039925
220	0xbe5c69de	-0.2152476
221	0xbece2d3a	-0.4026888
222	0x3c1f1784	0.009710196
223	0xbd92e204	-0.07172015
224	0x3e8027e0	0.25030422
225	0xbd32432c	-0.04352109
226	0x3e8d989e	0.276555
227	0x3cd79f12	0.026320968
228	0x3cf838b3	0.030300474
229	0x3e9129d5	0.28352228
230	0xbe84f0a8	-0.25964856
231	0xbdd93d37	-0.10607379
232	0xbe1dff06	-0.15429315
233	0x3e745a56	0.23862585
234	0xbde0ffcf	-0.109862916
235	0xbb8e45bd	-0.0043418095
236	0x3d2be62f	0.041967567
237	0x3e957ef6	0.29198426
238	0xbc46e98a	-0.012140641
239	0x3e936bc5	0.2879316
240	0xbf1f2d59	-0.6217857
241	0x3dca7475	0.09885494
242	0xbf123f05	-0.5712741
243	0xbe544e88	-0.20733082
244	0x3e2fc391	0.17164446
245	0x3e64871d	0.22317167
246	0xbdba0cdf	-0.09084486
247	0x3e6f63de	0.2337794
248	0x3eae6fd0	0.3406968
249	0xbe2a8433	-0.16651992
250	0x3e9db20b	0.30799899
251	0xbe609b34	-0.21934205
252	0x3e8ae5af	0.2712836
253	0x3e59796e	0.21237728
254	0xbea01567	-0.3126633
255	0x3dd20609	0.10255057

policy.state_update.update_mem.bias f4 [64]
0	0x3e083656	0.13301978
1	0xbdaff014	-0.08590713
2	0x3dba4d8c	0.09096822
3	0x3d8c8270	0.068608165
4	0x3e86cb39	0.26326922
5	0x3dda4c43	0.10659077
6	0xbd7b1185	-0.061296005
7	0xbe822576	-0.25419205
8	0x3d441fd4	0.047881916
9	0xbb9fe1e5	-0.0048792236
10	0x3ad6806d	0.0016365178
11	0xbd99c398	-0.0750801
12	0xbc677fbe	-0.014129577
13	0x3e1595ee	0.14607975
14	0x3d2a2fc9	0.041549478
15	0x3da7809a	0.08178826
16	0x3d92bdfc	0.07165143
17	0xbe054603	-0.13014989
18	0x3bb1dfb2	0.005428278
19	0x3e6a271d	0.22866483
20	0x3db40315	0.0878965
21	0xbf227921	-0.6346608
22	0x3e39db1f	0.18149994
23	0x3db6c07b	0.089234315
24	0x3d2c3a42	0.042047746
25	0x3d9b25b4	0.07575551
26	0x3e28ad5c	0.16472381
27	0xbc3c3d5d	-0.0114892395
28	0x3e13e250	0.144418
29	0xbc68c5bf	-0.014207303
30	0xbd3d24aa	-0.046177544
31	0xbe1177ff	-0.14205931
32	0xbdaa5181	-0.08316327
33	0x3b09048a	0.0020907247
34	0x3e635dc1	0.22203733
35	0x3e4306af	0.19045518
36	0xbe2a8f15	-0.16656144
37	0xbad476d4	-0.001620973
38	0xbe31754b	-0.173299
39	0xbb6e882c	-0.0036397083
40	0x3df9d161	0.12198139
41	0xbd321178	-0.04347369
42	0x3db7ae79	0.08968825
43	0xbdc86027	-0.097839646
44	0xbd06daac	-0.032923386
45	0x3b4450c4	0.0029955367
46	0xbd360356	-0.044436775
47	0x3d04dea0	0.032438874
48	0x3d2763a5	0.040866513
49	0xbdb5f40b	-0.08884438
50	0x3e45369c	0.19259113
51	0x3e99df9c	0.30053413
52	0xbdeb71e3	-0.114963315
53	0x3d04993a	0.03237269
54	0xbd2b0749	-0.041754995
55	0xbdaa7821	-0.08323694
56	0x3bb8a137	0.0056344527
57	0xbd8491ee	-0.064731464
58	0xbe1070c4	-0.14105517
59	0x3d62562f	0.055257972
60	0x3e606ab5	0.21915706
61	0x3e235628	0.15950835
62	0x3dbc8453	0.09204926
63	0x3db5aaf5	0.08870498
