conditioned_layers/experiments/factorized_policy_hypernet_cifar/results/lr_0.001_wd_0.0005_emb_size_64_channels_32_factor_2_correct_factor/model.pth (torch_old, 414231 bytes, 209 tensors)

conv1.weight f4 [32, 3, 3, 3]
00000000: 838e b9be d623 21bd 01b3 2cbe 8775 03bd
00000010: b2bc 70bc e4bb 193e bfd2 a7bd 2dbf 2b3e
00000020: 6f54 37be 33fb 59be daca fa3e 6690 083f
00000030: 2b6c 983e 8803 4a3f c5b0 993d b864 a03d
00000040: 6855 db3e fe6e d4be 1d0e 0dbe 72b0 2d3e
00000050: 3fba 14bd 2407 b7be f8a2 a63d c3e5 4ebd
00000060: 5f78 04be 86a1 853d 5140 aabe b870 26be
00000070: 4c1d 813e 4464 1d3e 828f 4d3d d5f0 1b3e
00000080: 88b6 65bd c0bf 733e 8a27 043d 6c96 d73e
00000090: c979 09be 9634 babe 3ea9 00bf 914c 87be
000000a0: 80b7 34bf 19b1 58bf e76f eebc 41d8 55be
000000b0: 10d8 623d dfc4 1bbd 7b86 aa3e 5bf5 6c3e
000000c0: 11de 823e b7e0 363b 12a2 383c 820d ec3d
000000d0: ea71 9ebe 7604 babc e491 30bd 4a0d a43c
000000e0: 5c70 983e cdc6 c3be 684a 99be e308 923e
000000f0: 2a36 c9be d49a 06bf e33d f5be f598 da3d
00000100: 321b b53e 0c31 d23e d539 913d 7e61 e9bd
00000110: 4e0a 4a3d 694c 4fbd 9678 393d 07de 7bbd
00000120: f343 db3e a7c3 bb3d 6499 da3e b5b2 583e
00000130: 1a63 76be 62e0 3a3d 8af3 59be c564 20be
00000140: 7353 eebd 1546 d93e c19b a6be d84e 4abe
00000150: 14b4 aebd ab2e 773e bf54 98bd d3a6 32be
00000160: 765e 423d b50a 503d 3cde bc3d 60bf d4be
00000170: 5ea2 8ebe f332 2f3d 4e96 973e 5746 8a3e
00000180: e8a0 80be 06a5 ae3d 900c a53e 8d3f 6b3e
00000190: 84e9 b5be 6546 d7be 589c 2d3e 2718 b13e
000001a0: e681 193d 1096 d0be 2027 613e bef0 c53d
000001b0: 2b84 0ebe c944 18be 2bf9 863e f7b3 5b3e
000001c0: cbea 013e c9fd 683e 25e0 88be 98f8 e4bd
000001d0: ed05 17be 8c50 a1be f09a d7be 18d0 9bbe
000001e0: 89a3 653e edde 623e be47 a23e 52d9 263d
000001f0: f8b0 14bd 3b8c c8bd a53b 18be e2c7 debe
00000200: 2d8c 93be 6aee 1c3f 983c b43e 76d0 2e3e
00000210: de04 363e e698 2abc 72df aebd 0d66 a43e
00000220: e2c7 bc3e 4c50 cd3e d4ef 323e 509f 0abd
00000230: d4b4 883e f407 05bf 4d59 06bf ae83 dcbe
00000240: ef27 58be 8743 53bd 98eb 93be 43b3 bdbc
00000250: 626c 153c c864 ad3b 9b42 653e 0d56 383e
00000260: ef67 a53d 0295 97bd 15ab acbe 269e fbbd
00000270: b7b4 55be 526a 023e a87d 7bbe 53be 9f3e
00000280: 12b2 883e b25d a43e 26a9 c3bd c649 a3bd
00000290: e3d5 8dbe 2d6d bd3e fd2e b3be 1c35 40bd
000002a0: 1875 673e 178d 7ebd 4ec4 243d bccf 353d
000002b0: a05c 013e c1c0 433e 9fd1 4a3e ab9d dfbe
000002c0: 5e9a 993e 2e9d dc3d ceda ce3c d2e3 89be
000002d0: 2e63 9abe 60c2 e53e fd31 073f 2d92 4a3e
000002e0: 9461 2abe e192 373f 9cc1 76be c566 55be
000002f0: d8d2 83be 793a 9e3e 052f b03d 8925 c4bd
00000300: 7b10 543e cbc2 f9bc a49b a0be eb47 1fbe
00000310: e0aa 87bd d085 1fbe 4d82 91bd f097 f2be
00000320: f6f0 94bc c684 903e 255e 1dbd eb08 783e
00000330: c20f b0bd a942 e4be bb62 4e3d 10fc fcbe
00000340: 4d6a 30be e47e d23d 407a 75be 07f5 c0bd
00000350: f30f 273f 0640 263e f5d3 683e 27a3 073f
00000360: 2259 44be b658 9e3b af2d 05bd e62f 4fbe
00000370: df74 f13d d3c2 883e 14eb fb3e 3462 9f3e
00000380: 2adf 463e 62c9 e4be a3c0 a0be 7daf 11be
00000390: a968 a3be 72cb 67be 0340 c73d 7de8 e03d
000003a0: 32ea debd 9377 fa3e 026d 903e bfbf c13e
000003b0: 1ede ac3e 92cb 653e 45b8 8c3e 0b27 253e
000003c0: 7569 d63d b95e a6be b1ba ce3c a150 993e
000003d0: 53f2 1d3e 7269 093e 47d2 bd3e 4f16 50be
000003e0: e1cd 30be 6887 b43e 3a8d e0be 2f08 8ebe
000003f0: 9807 d1bc 7693 7cbd 0f84 11be 5848 cabd
-0.3624154 -0.039340816 -0.1686516 -0.032094505 -0.014693426 0.15013081 -0.081944935 0.16772147
-0.17903303 -0.21287231 0.48982888 0.53345335 0.29770026 0.7891164 0.07504419 0.078317106
0.42838597 -0.4149093 -0.13774915 0.1696184 -0.03631043 -0.35747635 0.081365526 -0.050512087
-0.12936543 0.06524949 -0.33252195 -0.16253936 0.25217664 0.1537028 0.050185688 0.15228589
-0.05608228 0.23803616 0.03226427 0.4210695 -0.13425364 -0.36368245 -0.50258243 -0.26425603
-0.705925 -0.8464523 -0.029106094 -0.20883276 0.055381835 -0.038029548 0.33305725 0.2314047
0.25560048 0.0027904937 0.011269109 0.11526014 -0.30946285 -0.022707205 -0.043107882 0.020025868
0.29773223 -0.3823761 -0.2993958 0.28522405 -0.39299136 -0.5258 -0.47898778 0.106737055
0.3537231 0.41053045 0.07091109 -0.11395548 0.049326234 -0.05060998 0.045281015 -0.06149104
0.4282528 0.09168177 0.42695153 0.21161921 -0.24061242 0.045624144 -0.21284309 -0.1566344
-0.116370104 0.4243628 -0.32540706 -0.19756639 -0.08530441 0.24138896 -0.07438039 -0.17446451
0.047453366 0.05079146 0.09222075 -0.41552258 -0.2785825 0.0427732 0.2960686 0.2700679
-0.25122762 0.085275695 0.32236147 0.22973461 -0.3552972 -0.42045894 0.16954172 0.3458874
0.037477396 -0.4073949 0.21987581 0.096650586 -0.13917606 -0.1486999 0.26361975 0.2145537
0.12687223 0.22753061 -0.2673351 -0.11180228 -0.14748354 -0.31506765 -0.42110395 -0.304322
0.22425665 0.22155352 0.3169536 0.040734597 -0.036301583 -0.09792372 -0.14866503 -0.43511873
-0.28817883 0.6130129 0.3520248 0.17071709 0.17775294 -0.01041243 -0.085387126 0.3210911
0.36871248 0.40100324 0.174743 -0.03384334 0.2670046 -0.5196526 -0.5248001 -0.43069214
-0.21108983 -0.05157807 -0.2889068 -0.023156768 0.009120079 0.005291555 0.22388689 0.18001576
0.080764644 -0.07401468 -0.33724275 -0.12286024 -0.20869718 0.1273587 -0.24559653 0.31199893
0.26698357 0.32102734 -0.09553747 -0.079730555 -0.27702245 0.36997357 -0.34996787 -0.04692565
0.22603261 -0.062146273 0.040226273 0.044387564 0.1263299 0.19116499 0.19806527 -0.4367498
0.30000585 0.10772167 0.025250819 -0.26931626 -0.30153793 0.4487486 0.5281065 0.19782324
-0.16638786 0.71708494 -0.24097294 -0.20839985 -0.257468 0.30903986 0.08602718 -0.09577472
0.20709412 -0.030488392 -0.31368744 -0.15554778 -0.06624389 -0.15578389 -0.07104931 -0.47381544
-0.018181305 0.28226298 -0.03841986 0.24222152 -0.085967556 -0.44582108 0.050387125 -0.49411058
-0.1722805 0.10278109 -0.23972416 -0.09421735 0.6525871 0.1623536 0.22737105 0.52983326
-0.19174626 0.0048323525 -0.03251427 -0.20233116 0.117898695 0.2671114 0.49202788 0.3112961
0.19421068 -0.44684893 -0.3139697 -0.142271 -0.31915787 -0.22636202 0.09729006 0.109818436
-0.10884513 0.48919353 0.28208166 0.37841603 0.33763212 0.22440937 0.27484336 0.16128175
0.10469333 -0.32494143 0.025235506 0.29944327 0.1542447 0.1341913 0.3707449 -0.2032101
-0.17266037 0.35259557 -0.43857747 -0.2774062 -0.025516316 -0.061664067 -0.14210533 -0.0987708

conv1.bias f4 [32]
00000000: 4195 53bd 28db babc dc4f 933d 5a58 e5be
00000010: 2e80 933e 72cc 91ba 2b32 af3e a7c6 59bd
00000020: 24ba 6d3b f10e 443a f092 57bd 2616 003f
00000030: d2b9 8d3e c38a 4d3e e2ed 0d3e be01 903e
00000040: cf50 753e 5712 5d3e 2049 553e a352 893e
00000050: aa3f a23d 4ffb e4bd 141b 5ebe 725d 183e
00000060: 6b78 813b e079 fdbc 1ef0 1dbe 3c85 3abe
00000070: e921 3c3e d48a 023e 1861 2a3e 3702 d7be
-0.05165601 -0.02280958 0.07192966 -0.4479397 0.2880873 -0.0011123552 0.34217963 -0.053167965
0.0036274279 0.0007479033 -0.052630365 0.50033796 0.27680832 0.20072465 0.13860276 0.2812633
0.23956607 0.21589027 0.20828676 0.2682086 0.07922299 -0.11180746 -0.21690017 0.14879397
0.0039511225 -0.030941904 -0.15423629 -0.18214887 0.1837231 0.12748271 0.16638601 -0.41993877

bn1.weight f4 [32]
00000000: 760e 5b3f 7f61 1e3f daee f03e f7f9 763f
00000010: 0ec3 433f 2781 1e3f 0565 603f 582b 2b3f
00000020: f8ba 0b3f 8791 593f ef8b 0c3f 5aae 423f
00000030: c1ae 023f 7ddd 403f 1f8f 2d3f be8d ad3f
00000040: ccb2 2b3f 46b9 363f 57f0 183f 1879 1a3f
00000050: 6b6d 113f 2025 103f a7ea 463f 7ca3 4d3f
00000060: 8623 9f3f 9c12 933f 7ee1 523f 71e9 033f
00000070: a3a2 2d3f 964f 3a3f 351b e23e 466e 7e3f
0.8556894 0.6186752 0.4705723 0.96475166 0.76469505 0.6191582 0.87654144 0.6686301
0.54582167 0.8498768 0.5490102 0.7604729 0.51047903 0.75337964 0.6779651 1.3558881
0.670697 0.71376455 0.5974173 0.60341024 0.56807584 0.5630665 0.777018 0.8032758
1.2432716 1.1490054 0.82375324 0.5152808 0.6782629 0.7277769 0.44161382 0.99387014

bn1.bias f4 [32]
00000000: abc0 80be 198b 10bd 450f 0cbe 2080 a9bd
00000010: d142 1d3e 0e90 50bd a721 bcbe adef 6c3c
00000020: 2619 653d 822c d8be 265c 64be e911 d3bc
00000030: 5a3d 8cbc 9191 813e ec95 23bd 94fb fdbd
00000040: f9cf 8e3e 6b41 433d a492 bcbd ec84 3c3e
00000050: a568 5c3e b90a ee3b 5e36 81be 4731 123d
00000060: c4e6 743d 2343 173c 8695 2ebe 2a36 ee3b
00000070: 721e 333d 8bde 67bd 4819 163e 502d 273d
-0.25146994 -0.035288904 -0.136777 -0.08276391 0.1535752 -0.05091863 -0.36744425 0.01446144
0.055932187 -0.42221457 -0.22300777 -0.025765376 -0.017119098 0.2530637 -0.0399379 -0.124015
0.27893046 0.04766981 -0.09207657 0.1841008 0.21524294 0.007264462 -0.2523679 0.035691526
0.059790388 0.009232315 -0.17049226 0.0072696405 0.043730207 -0.056608718 0.14658082 0.040814698

bn1.running_mean f4 [32]
00000000: 75e1 c0be f932 d93e 0df2 2e3e fb6d febe
00000010: 59f4 693e cb5f 81bb fa56 383e 6fcf ebbb
00000020: 792b bdbe 7b1d 123f b311 7d3e 4e89 023f
00000030: 4a97 9c3e 6b1c 8f3e dbd5 313e e10d 663e
00000040: 7c8c a53e 640d 773e 51b7 753e 7550 513e
00000050: f95a e23d 2fbc 4ebd 0a6f 643e aeef 7d3b
00000060: dd9a a93d f340 693c c8aa 673e ca99 16bf
00000070: eb88 f43d 8e2e ba3d be9f 3d3e 9cc7 c6be
-0.3767201 0.42421702 0.17084523 -0.49693283 0.22847117 -0.003948187 0.18001929 -0.007196359
-0.3694723 0.57076234 0.24713783 0.5099076 0.30584174 0.2795137 0.17366736 0.22466232
0.32333744 0.24126202 0.23995711 0.20440848 0.11052508 -0.050472435 0.22307983 0.0038747597
0.08281491 0.0142366765 0.22623742 -0.58828413 0.119401775 0.09090911 0.18517968 -0.38824165

bn1.running_var f4 [32]
00000000: 0118 2d40 23fa 7c40 3f0c 9740 f020 903f
00000010: 4dad fe3f 63e9 453e 441b cd3f 713d 793f
00000020: 65a6 8640 9026 0241 7f0b 3540 8efb b43e
00000030: 68a4 083f 69e1 4c3f 4733 173f 4937 4e3f
00000040: 1248 1240 52a4 cd3f bb14 713f c867 ba3f
00000050: 2457 893f 195c 3940 d17b ac40 aad1 1a40
00000060: 1bd6 1040 1769 de3f 68de 9440 4bee 8140
00000070: 09c5 d73f a9e5 593e 36dc 633f b574 8540
2.70459 3.9527671 4.720245 1.1260052 1.9896637 0.19327311 1.6023946 0.9735938
4.207812 8.134415 2.8288267 0.3534817 0.53375864 0.8003145 0.5906262 0.8055311
2.2856488 1.6065772 0.9417226 1.4562922 1.0729718 2.8962462 5.3901143 2.4190469
2.263068 1.7375821 4.652149 4.0603385 1.6857005 0.21279015 0.8900789 4.1704965

policy.start_states f4 [2, 4, 2, 32]
00000000: bd31 023f 3b07 213f 83bd 083f e629 7c3f
00000010: a9a0 9ebf 0332 ddbf bdce 093b 3792 523e
00000020: 70f3 153f 3e4c 8f3f 1925 96be 90b5 cbbf
00000030: 0535 44be ca24 a13f 0f5a d7bf 817a 55be
00000040: 5080 abbf c138 013f 9029 28be c48f 66be
00000050: fae3 123e 21c9 9fbf d193 103e 78d8 893e
00000060: 10fa bbbe b12b 96bf 6238 4fbf 8081 a5be
00000070: 6f86 1fbe 627c 2abf 60e6 c23f 2794 743e
00000080: c7f9 00bf bf57 ce3e edbc 143f dc4c 063f
00000090: cfb3 e3bf 80f9 e3be 16a7 4bbf 2756 953f
000000a0: 06cc a2bd 9620 86bf a0df 853f 9ee5 cf3e
000000b0: 13c1 8abe 6ed5 dd3e 4f20 2fbf 0fc1 e03e
000000c0: 80ad 143e d9e1 e13c b638 8a3d e2fa 7bbf
000000d0: 7cb2 6b3d 708c c7bd 5c08 a83e a747 093f
000000e0: b342 863f 5c80 1ec0 6b16 433f 4a5d 47bf
000000f0: 6387 95bb f2c7 c63f fd7f 293f e183 b03f
00000100: 5044 a3bf 3763 493a 9c1f cb3f 3eb6 863e
00000110: 4511 01be 3202 713f 8166 ed3f 143e 97bf
00000120: c8cc 48bf de79 8b3f e17c 8dbf 58ce 4cbf
00000130: c5ea 5d3f 32cb 9a3f 807d 99bf debe bc3e
00000140: dcf3 18bd dc2c 8a3f 6db9 acbd 7cc9 96be
00000150: 5ec0 33bf ed46 8b3f 6411 19c0 ed78 343f
00000160: 6995 283f 0b0e 3c3f 5e37 0540 a046 6dbf
00000170: 8435 70bf 60c5 093e 912f 06bd f68f 4c3f
00000180: b6f8 6c3e 4ab4 23bf 6903 d6bf 0314 5bbe
00000190: f80c 133e fbe0 823e fb47 743d 4710 ea3e
000001a0: 97cb af3e 5843 ef3d 746c 273f 1128 7fbf
000001b0: 6d7f a0bf d51a 1e3f 6dfa 15bf 1444 ad3f
000001c0: bbdc 163f b599 96bf 2f39 873f ae6e 7a3f
000001d0: a035 23bf 26fe 493d c027 a2bf 04b3 e4bf
000001e0: 6124 39bf 4cba a5bf de94 e43c dc5e 03be
000001f0: 7ebf 5f3f cf12 dfbf 7024 a33f 4795 27bf
00000200: cc93 d5be 767b adbf 5c3d 6a3e 5139 cfbe
00000210: ffd4 f6bf e4c4 bcbf 759e 52be 5115 e5be
00000220: 09a1 653f 8fea c0be 7e03 3f3f 76a7 cb3f
00000230: 0f5b dc3d 69fb 80bf d1cc 83bf deb1 11bf
00000240: 7970 963f c66d 9fbf a994 923e cd47 9a3e
00000250: e6b3 d8bf 8119 0e3f c8d7 3d3f 5049 2b3f
00000260: a0da 003f 5b44 cd3d ca3c c43c a53a ac3e
00000270: af77 82bf ee02 a23f b1f5 65bf b82c 32bf
00000280: dccc cd3e cf08 1840 f02e 41be 09cd fe3e
00000290: 4f9d ae3e 6b67 663f e96c 6dbf c652 0ebf
000002a0: e103 c9be 0af5 8e3d 5d3e 943f 2525 3d3e
000002b0: a159 693f 2eb7 9fbf 0dd5 933f 001a 063f
000002c0: 3b3a 403f 5c8c 18bf 6dae 883f 29c6 17bd
000002d0: 1d48 9c3f bc6d 123f b59f 84bd 0751 0c40
000002e0: fd60 863f 8bb6 8d3d dada 1f3f e5bc cabf
000002f0: bc47 a13f 0b87 90bf f37d 363f 451b 75bf
00000300: 44ba bb3d 1df8 ee3e 7f06 d73f 23ba 6f3f
00000310: dac2 203e e009 893e 693f 0e3f 82f9 f7bf
00000320: 4910 0fbf d376 8bbf aeda 213e 2391 a13f
00000330: 4177 9dbf 45bd ae3e bd76 59be d123 2d3f
00000340: 2a7f 3f3f a9d2 87bf 16e8 d1be d51b d13f
00000350: 6c5c efbe 6089 8dbf 6191 29bf 7a17 8cbd
00000360: e5b6 df3e a8c0 28bd ea51 0f3f 6dd9 f43f
00000370: db85 243f 34e4 1e3e 1698 0e3d e3c0 3d3f
00000380: 1612 35bf da23 fcbe feae bd3f 57a6 773f
00000390: 9820 bebe f290 61bf 365f 9fbe 3165 1bbf
000003a0: f523 e6be cebe 593e 74f2 0fbe 9e5a 713f
000003b0: 4210 aebe d4c9 b33f 01b9 5a3f ef89 d93e
000003c0: 136a ea3e 12cd a3bf 995c 0940 a084 45bf
000003d0: c601 163f b3da 7b3f fb16 df3f af2b 573d
000003e0: d2b4 843f 7334 9d3f 558d f03f 36c5 433f
000003f0: e16b 87bf 047b bebe 07e8 c13f 80e2 babf
0.50857145 0.6290166 0.5341417 0.9850143 -1.239278 -1.7280887 0.0021027767 0.20563589
0.5857458 1.1195142 -0.29325178 -1.5914783 -0.1916085 1.2589352 -1.6824359 -0.20847513
-1.3398533 0.50477225 -0.16422105 -0.2251578 0.14344779 -1.2483255 0.14118887 0.26922965
-0.3671422 -1.1732084 -0.8094541 -0.32325363 -0.15578626 -0.66596043 1.5226555 0.2388464
-0.5038113 0.4030132 0.5810078 0.5246103 -1.7789248 -0.4452629 -0.7955183 1.1666917
-0.07949071 -1.0478694 1.045887 0.40604872 -0.2710043 0.43326896 -0.68408674 0.43897292
0.1451931 0.027573513 0.06749098 -0.9842969 0.057543263 -0.09743583 0.32818878 0.5362496
1.0489105 -2.4765844 0.7620608 -0.7787672 -0.0045632585 1.5529768 0.6621092 1.3790246
-1.2755222 0.00076823257 1.5869021 0.26310915 -0.12604244 0.94143975 1.8546907 -1.181582
-0.7843747 1.0896566 -1.1053735 -0.80002356 0.86686355 1.209326 -1.1991425 0.3686437
-0.037341937 1.079494 -0.08433805 -0.29450595 -0.70215404 1.088102 -2.3916864 0.7049702
0.6585298 0.7345893 2.0815043 -0.9268589 -0.9383166 0.13454199 -0.032760207 0.79907167
0.2314175 -0.63946974 -1.6719791 -0.21394353 0.14360416 0.2556227 0.05963896 0.45715544
0.34335014 0.11682767 0.6539986 -0.9967051 -1.2538887 0.6175969 -0.58585244 1.3536401
0.5893056 -1.1765658 1.0564326 0.97825134 -0.637537 0.04931464 -1.2668381 -1.7867131
-0.72321135 -1.2947478 0.027903017 -0.12829155 0.8740157 -1.7427615 1.2745495 -0.65462154
-0.41714323 -1.3553302 0.22874969 -0.40473416 -1.9283751 -1.4747586 -0.20568259 -0.44742826
0.89698845 -0.37678954 0.74614704 1.591048 0.107595555 -1.0076724 -1.029688 -0.5691203
1.1753074 -1.2455375 0.28629044 0.30132905 -1.6929901 0.55507666 0.7415738 0.6690874
0.50333595 0.100228034 0.023954768 0.33638492 -1.0192775 1.2657144 -0.8982802 -0.69599485
0.40195358 2.3755376 -0.18865561 0.49765804 0.34104392 0.90001553 -0.9274431 -0.5559505
-0.39260772 0.06980331 1.1581532 0.18471201 0.9115239 -1.2477777 1.1549393 0.5238342
0.7508885 -0.5958917 1.067823 -0.037054215 1.2209507 0.5719869 -0.06475774 2.1924455
1.0498348 0.06919583 0.62443316 -1.5838896 1.2600017 -1.1291212 0.71285933 -0.95744735
0.09166387 0.4667367 1.6798857 0.936434 0.1569933 0.26765347 0.55565506 -1.9373019
-0.55884224 -1.0895637 0.15806076 1.2622417 -1.2302018 0.34128776 -0.21236701 0.67632776
0.7480341 -1.0611163 -0.4099738 1.6336619 -0.467502 -1.1057549 -0.66237456 -0.06840415
0.43694225 -0.041199356 0.55984366 1.9128853 0.6426675 0.1551674 0.03481301 0.74122447
-0.7073072 -0.49246103 1.4819028 0.9673819 -0.37134242 -0.88111794 -0.31127328 -0.6070128
-0.44949308 0.21264192 -0.14057332 0.94278896 -0.3399678 1.4045968 0.85438544 0.42488047
0.45784053 -1.2796957 2.1462767 -0.77155495 0.58596456 0.98380584 1.7428888 0.052531894
1.0367682 1.2281631 1.8793131 0.76472795 -1.0579797 -0.37203228 1.5148934 -1.4600372

policy.layer_generator_weight f4 [64, 144]
00000000: 6bc1 01bf c6e8 f73d c5a4 973f 0f24 10bf
00000010: d6cc d6bf 7b8e b53f 0f13 02bf 6e5a 043f
00000020: 4d01 9c3f b33e e53e 5e4a 97bf 4173 80bf
00000030: 36cf cbbf abeb a83e 252b 9abf 35f8 833d
00000040: 5c78 1a3e bb43 f13f 265f a33f 490f 88be
00000050: 7b80 613f 8ace edbe b1b1 973e bf8c 1f3c
00000060: 6da7 6e3e fecf 593f 0dcf d8bc 49b1 cd3f
00000070: ca0b 80be b8f4 b03b 8184 243f a131 cdbf
00000080: 1a66 08bf 1a05 aabf 9318 9ebf d163 05bf
00000090: 99ab 263d f58b 593e 5e62 81bf b36e d3bf
000000a0: b18f d13f e781 acbe cca6 72bf 8d84 563f
000000b0: 901c 0a3e 93ad fc3d e9b2 1a3f 38ac 71bd
000000c0: ea37 ebbe 7318 72bf 2509 dc3d 1ce2 363e
000000d0: b119 b5bf a704 38be fcd2 bbbe 4c23 20bf
000000e0: 9cad d43f 73d8 a03e ff50 1fbf 2030 503f
000000f0: 36dc d53e f009 21c0 f8f8 683f 1a53 c0be
00000100: e978 7fbf 8a14 063d 2731 693f ef7e 293f
00000110: 718a 8d3f 767c b6bc 9695 34bf 5ca6 643f
00000120: 17b1 7c3f 9185 e43e c11e 0540 e525 323f
00000130: d71e 7cbf 7229 6abe 1b36 bd3c b989 13bf
00000140: 9638 523e ebf6 ff3e 34a4 b13f db97 41bf
00000150: bd00 663f 397b c0bf 2905 97bf 2525 9b3f
00000160: 12af 4e3f 4c19 0ebe 8b26 68bf 293b a7be
00000170: 4f40 86bf 5fe4 ecbe f593 233e 5e60 733e
00000180: d5be af3f d562 fbbe a12a 5d3f 770a 303f
00000190: ce8c 51bf 2599 a8be 209d 843f 401e 04c0
000001a0: a169 9d3e 170f 2c3d 2fbf 973f d463 13bf
000001b0: 98ba e0bf abe2 14bf 751c c73e a023 92bf
000001c0: d65a 8e3e 07d2 c5bd fd9d 7bbe abed f7be
000001d0: e6b6 bd3e c8e1 543f cfb3 7d3f 8949 d0be
000001e0: 4b82 26be e626 66bf ccc9 47bf d882 6d3e
000001f0: 86a5 babf 6cc3 32bf 6981 583f 7878 0a40
00000200: d2a9 88bf 05d2 8a3f 20e9 d53f d5f3 7fbf
00000210: 243d 2abf ae23 cdbf aff9 1dbf aaa7 613e
00000220: 894d 3fbf a401 11be 55fe acbf 119b 86bd
00000230: d3a4 f5bf 0a6d 0fbe 1d77 7fbf 05b9 4c3f
00000240: 11c8 e93f 379a aa3f ba05 153f 3910 23be
00000250: dd06 e9bf 9acc 473f b527 6dbd c071 0dbf
00000260: 5e5f 38bf 2513 bdbe 0f70 39be 498c 723b
00000270: d3dd 62bf aeee b13e 993f 1e3f 42c5 29be
00000280: b70c 173f 10e8 663d bbbb 8cbf 4bb2 af3e
00000290: 4aef bebe 9b61 df3e 97b9 63be 5157 03c0
000002a0: 02ec 44bc 209d e43e 4da0 1fbf 005c 80be
000002b0: 24fc c83c 46e0 4c3e dda7 703f 5857 e93f
000002c0: 7a47 b93f 5a4e 753f 17c2 763e f965 a83e
000002d0: 3694 983f 240f 98bf 5179 b73d e25f 0a3e
000002e0: 6e3e 01c0 3097 963f b106 af3f f948 b5bf
000002f0: 45ba 0dbd 52d3 ca3e adb9 333f 69cf a33c
00000300: 1767 ca3f f488 833d 7a99 41bf 4166 b53e
00000310: 7667 9dbe b53d 49bf 040a 97be 15cd 5ebf
00000320: 6743 febe 1cc6 8abf 025e 4abd 2c2d e53e
00000330: f0fc 96bf f075 25bf 0150 eb3f b088 82bf
00000340: dcf1 67bd 37cb 8f3e 5700 c83f eede 8bbf
00000350: 1173 bfbf 1163 a5be d160 af3f 0c18 c73f
00000360: d7fd a03d a8d9 ccbe d698 9abe c258 41bf
00000370: 5160 42bf 28d8 32bf 537d a33d b61d 34bf
00000380: e0eb b5bf 0451 02be 0a1a 313e 2ce5 acbe
00000390: edca 3b3f 9992 12c0 4ac7 98bf 8f91 11bf
000003a0: 92d0 873f 9acb 97bf a869 a23f d8cd 86bf
000003b0: 77ce 6f3f ae7a 2bbf 1d1f 26bf 5681 083d
000003c0: 2f31 1abf 328e cabf 041b aa3e 11ae ba3f
000003d0: 4605 b33f ea77 1cbf 2863 39be f71f ab3e
000003e0: ab5a 593f 1696 43bf 02d6 5fbf e369 c8bf
000003f0: ecfd 9e3f f371 8ebe de70 18be 4518 6bbf
-0.5068576 0.12104945 1.1847159 -0.5630502 -1.6781261 1.4184107 -0.5081033 0.51700485
1.2187897 0.44774398 -1.181957 -1.0035173 -1.5922611 0.329923 -1.2044417 0.06443826
0.15084976 1.8848795 1.2763412 -0.26574162 0.8808667 -0.4644664 0.29627755 0.009738146
0.23306055 0.85082996 -0.026465917 1.6069728 -0.25008994 0.0054002665 0.64264685 -1.603077
-0.53280795 -1.3282807 -1.235125 -0.5210543 0.040690992 0.21244796 -1.0108144 -1.6518158
1.6371976 -0.33692858 -0.9478576 0.83796006 0.13487458 0.12337794 0.60429245 -0.05900213
-0.45941097 -0.94568557 0.10743932 0.17859691 -1.4148465 -0.17970525 -0.36684406 -0.6255386
1.6615481 0.31415138 -0.62232965 0.8132343 0.4176957 -2.5162315 0.91004896 -0.375634
-0.9979387 0.03273443 0.91090626 0.6620931 1.1057874 -0.022276144 -0.7054075 0.89316344
0.9870772 0.44633153 2.080002 0.6958907 -0.9848456 -0.22867373 0.023097089 -0.57632023
0.20529398 0.4999307 1.3878236 -0.7562234 0.89844877 -1.5037605 -1.179845 1.2120711
0.80735886 -0.13876837 -0.9068381 -0.32662323 -1.0488375 -0.46267983 0.1597441 0.2376723
1.3730112 -0.4909884 0.8639317 0.6876597 -0.81855476 -0.3292934 1.0360451 -2.0643463
0.3074465 0.04200658 1.185522 -0.575742 -1.7556944 -0.5815837 0.38888898 -1.1417122
0.27803677 -0.096592 -0.24571986 -0.48423514 0.37053603 0.83157015 0.9910249 -0.40681103
-0.1626064 -0.89903104 -0.7804229 0.23194444 -1.4581764 -0.6982944 0.84572464 2.1636028
-1.0676825 1.0845343 1.6711769 -0.99981433 -0.66499543 -1.6026514 -0.6170911 0.22036615
-0.74727684 -0.14160782 -1.3515116 -0.06572545 -1.9190925 -0.14006439 -0.9979113 0.7996982
1.826418 1.3328313 0.58211863 -0.15924157 -1.820522 0.7804657 -0.057899196 -0.55251694
-0.7202052 -0.3692867 -0.18109153 0.0037009886 -0.88619727 0.3475241 0.6181579 -0.16579154
0.59003776 0.056373656 -1.0994791 0.34315714 -0.37291938 0.43629155 -0.22238766 -2.0522044
-0.012019159 0.44651127 -0.62353975 -0.2507019 0.024534293 0.20007429 0.9400614 1.822978
1.4474938 0.9582268 0.24097477 0.328903 1.192023 -1.187962 0.08958686 0.13513139
-2.0194354 1.1764889 1.3673917 -1.4162894 -0.03460147 0.3961435 0.70205194 0.019996362
1.581271 0.06422606 -0.7562481 0.35429576 -0.30742997 -0.7860978 -0.2949983 -0.8703168
-0.496608 -1.0841708 -0.04940606 0.44761026 -1.179594 -0.64633083 1.838379 -1.0197964
-0.05662714 0.28084728 1.5625104 -1.0927408 -1.495699 -0.32302144 1.3701421 1.5554214
0.07860916 -0.4000981 -0.3019473 -0.7552606 -0.7592822 -0.6986108 0.07982888 -0.70357835
-1.4212608 -0.12726218 0.1729509 -0.33768594 0.73356515 -2.2901976 -1.1935818 -0.5686273
1.0610526 -1.1859009 1.2688494 -1.0531569 0.93674415 -0.6698407 -0.64891225 0.03332647
-0.602313 -1.5824645 0.33223736 1.4584371 1.3985984 -0.61120474 -0.18104231 0.33422825
0.84903973 -0.7640089 -0.87435925 -1.5657314 1.2421241 -0.2782131 -0.14886805 -0.9183391

policy.layer_generator_bias f4 [144]
00000000: 425e 203f 11a8 593f 05f7 c6bf 2e05 5ebf
00000010: acc5 34bf 115f dabe a9ce d2bf 6216 75bf
00000020: de10 263f 1368 68bf 9482 13bf 6986 79bd
00000030: 10f7 efbf 1dd2 2dbe 846c 03bf b9f7 84bf
00000040: 666a a73e f7ef 083e f409 c4be 8b02 263f
00000050: 404f 8f3d 042f 51bf 1aac 35bd 613f 0f3e
00000060: 185d 71bf b783 9c3e d171 293e 08aa c53f
00000070: d130 3cbe 33df dbbf b98b 92bf 23d0 2dbf
00000080: bd39 0a3f ee23 79bf 5ee2 adbe 0067 04c0
00000090: d361 6bbf 3a08 38bf 955e 97be 2d8b c0bf
000000a0: 9ce1 de3b 152c 17bf 0fcb bf3f 2783 38bf
000000b0: aa7c 37bf ad38 1bbf 1e4e c7be 9a48 1abf
000000c0: 17ef 323f 97c7 73bf 5c5c a23f fe6f babf
000000d0: 89c4 0f40 4159 893f 8a55 163f 503c d3bf
000000e0: fd26 a3bf c5ac ab3d 238a ecbe e628 c3bf
000000f0: 264b 8d3f 906d dfbf f58e 4e3e f0cc e0be
00000100: 4013 95bf 86ed 5fbf 238e a7bf c312 2dbf
00000110: 3ac6 c1be 9dd5 143d 4d9d d7bf 578b ecbe
00000120: 8194 913e 3f8c dabd e39a aabf 1cec c2bf
00000130: 3c2e 123f 5a42 4fbe a721 79bf 75ef 70bf
00000140: e716 453f 6185 363f cbf9 3c3f b1cd 01bf
00000150: d054 6bbf f25c 9dbf 5ab5 6a3f 46c5 91be
00000160: dd35 943f 9917 92bf 84f3 543f eae7 cfbe
00000170: 90b0 f53e 1cbf 73be c8a1 03c0 2ad4 5b3e
00000180: 81b0 39bf 29ed 21bf fd90 a9b8 2aea 1e3f
00000190: 154c 303f 89c9 aa3f 2bc5 30bf 0e76 ad3f
000001a0: 8844 07c0 a65e 593f 43a0 cdbf 9b7c 883f
000001b0: d095 2bbd 7a24 013d 475d 07bf dde9 7cbf
000001c0: 9dd3 5cbf 16ff 80bf 61a4 f23b f68e fabd
000001d0: 1515 e13e 1d72 893f 236c bb3f f709 d9be
000001e0: 8991 3a3f af29 353f 5a79 f13e 9e87 703e
000001f0: 0af6 243e 9710 b53d b73f c33e 6e42 39bf
00000200: 84a7 7bbf 14ab aabf 4b45 adbf 4e06 583e
00000210: 9483 27bf e461 0b3e 5405 803f 6b94 3fbf
00000220: 5ca2 d23e 4b3e 22bf 3014 62be d2f3 3ebf
00000230: c0dd 93bf bb03 92bf 340a 17bf 9531 6abf
0.62643826 0.85022074 -1.5544134 -0.86726654 -0.70614123 -0.42650655 -1.6469318 -0.9573728
0.6486949 -0.90783805 -0.5762112 -0.0609192 -1.8747272 -0.16974683 -0.51337457 -1.0388099
0.32698363 0.1337279 -0.38288844 0.6484763 0.069975376 -0.81712365 -0.044353582 0.13989021
-0.94282675 0.3056924 0.16547324 1.5442514 -0.18377997 -1.717749 -1.144889 -0.67895716
0.5399435 -0.9732045 -0.33961767 -2.0687866 -0.9194614 -0.7188755 -0.29564348 -1.5042473
0.006801797 -0.5905164 1.4983844 -0.7207512 -0.716746 -0.60633355 -0.38926786 -0.6026703
0.6989607 -0.95226425 1.2684436 -1.4565427 2.2463706 1.0730363 0.5872427 -1.6502781
-1.2746273 0.083825625 -0.4619914 -1.5246856 1.1038558 -1.7455311 0.20171721 -0.43906355
-1.16465 -0.87471807 -1.3090252 -0.67606753 -0.37846547 0.03633653 -1.6844879 -0.46200058
0.28433612 -0.10671281 -1.3328518 -1.5228305 0.571018 -0.20240155 -0.97316974 -0.9411538
0.7698807 0.7129727 0.73818654 -0.50704485 -0.9192629 -1.229399 0.9168297 -0.2847082
1.1578938 -1.1413451 0.83184075 -0.40606624 0.4798627 -0.23803371 -2.0567493 0.21467653
-0.7253495 -0.632525 -8.085554e-05 0.62076056 0.6886609 1.3342754 -0.69050854 1.3551652
-2.1135578 0.8491005 -1.6064533 1.0663027 -0.04189092 0.031528927 -0.52876705 -0.9879435
-0.86260396 -1.0077846 0.0074048494 -0.12234299 0.43961397 1.073795 1.4642376 -0.42390415
0.7287832 0.7076673 0.47162896 0.23489234 0.16109481 0.08841055 0.38134548 -0.7236699
-0.98302484 -1.3333459 -1.3536772 0.21096155 -0.6543515 0.13611561 1.0001626 -0.7483584
0.41139495 -0.633763 -0.22078013 -0.7459079 -1.1552048 -1.1407388 -0.58999944 -0.91481906

policy.kernel_embedding_generator_weight f4 [64, 1024]
00000000: 1623 513f 3ed6 b1be 0a70 6e3f 8822 cb3f
00000010: 02ec 5c3f b08b 883f 476a b6be 2698 a73f
00000020: 3d78 6cbe 0bde ee3e cb58 49bf f766 96bf
00000030: d325 acbf 03e2 be3e 1594 90be c65c d2bf
00000040: 4dfc 373e 89cc cb3f deee 083f 7146 0d3f
00000050: 6321 843f 0a01 693f 2eef a7be 218f 8f3f
00000060: 6ebe e1be bb07 363f 2fa8 9e3e 6b6b 8d3e
00000070: 1e52 cd3f 889b 73bf 58ee f23e 25b2 d9bf
00000080: bc67 ce3f 38df 16bf 5e86 5abf 9d94 1f3f
00000090: 5df5 84be 6daf 773f 5ef2 c7be db2a 053f
000000a0: d6b0 eebf 4c1f 00be 24a6 3cbe 006e 0fbe
000000b0: 14bc 00c0 840b 833f a9c5 983f b093 613f
000000c0: 8597 fc3d 5c68 7cbf 1c6a 1a3f 02cd 4d3f
000000d0: 5764 c03f f618 3e3f a641 adbe 943f 1fbf
000000e0: 2fbc b5bf a74b 0bbe f5b3 c8bf fe04 94bf
000000f0: 0b3b a8bf 56b2 853f 7d67 34bf 6405 dcbf
00000100: 11b9 a4bf 87b6 973d 9fdb 813e 96e6 acbf
00000110: d3a3 853f 6e2a efbe d0f6 ed3e 1ec5 993e
00000120: 3b3a 97bd 9d19 b0bf d53b b53f 6b66 c6be
00000130: 9763 fd3e 85cc cfbe 6fe2 dbbd a718 01be
00000140: 394d 3f3f 33ec f93f 2f20 59bf 9cc3 6d3f
00000150: ae47 1abf d1de 183f 124a 94be 5419 b73e
00000160: 9760 a23d aa8b ccbe 382c ddbf 324b c33f
00000170: 1383 e23e 06a1 a33e ead9 443f 509c 7d3f
00000180: 739f 9bbd d7f0 01c0 6f87 1bbf 197c 193d
00000190: e63b 823f 42de f5bf 162c 7c3f 752a 443f
000001a0: 647a 813f a46d 65be ea7e 53bf 5873 8b3e
000001b0: 9190 903f 24fc 5a3f 0f7d 0a3f f185 e23f
000001c0: 92c8 733f 3abb 673f 31b8 45bf 81c0 70be
000001d0: 1367 a1bf fd6e 06be e3f2 42bf 2a64 8cbf
000001e0: a850 a4bf 6e2b f73e d37d ac3d f9dc 553f
000001f0: 70ce 603f ad56 2d3f 139c 17be 0828 943f
00000200: 1b17 68bf 0fd7 e9bf fba2 d93e 0cd0 d53f
00000210: 55c1 79bf 5738 a63f 6ee0 483f c104 d43d
00000220: a7f3 593f 91b8 473d 7918 a2bf 168b e8bd
00000230: a775 ef3d e946 22bf e8c4 943f 6c18 63bf
00000240: 22ab 833d 05b3 493e 8d2b b8be a2af 1fbf
00000250: cbe1 fd3e 9845 ad3e 9580 443f 6942 1cbf
00000260: 7d64 0fbf 6eb7 633f 85d6 c83f 8081 d63f
00000270: 3f33 793f d93e 923d 6993 afbe 5cb7 5bbf
00000280: 03bf 57be 1068 17bd a09b 693f 94eb 80be
00000290: 9743 58bf f68f 933f fd9d 673f c5fc 4c3e
000002a0: 3182 59bf 8c1c 3abf 794d c13f 0335 57bf
000002b0: 6cdd 463d 186e e03f a635 87bf 6ba0 bfbf
000002c0: a633 5e3f 1f7a 90bf ae11 3cbd 081b 5dbf
000002d0: 0424 ff3d 458e 1ebe d964 d53f a069 a43f
000002e0: 900d 543e fe8d b33c 2739 233e 6ccd 213e
000002f0: 8453 35be 736d 8fbf bdfa 03bf e895 393f
00000300: 38dd c4bf 732c f23e 44d8 fc3f 47fe be3f
00000310: 2e46 b23f 46a5 e5be 6fde 54bf 932e e1be
00000320: c6a3 4cbf 648a b4be 373a a23f 4772 41bf
00000330: 9125 893f 5d1c 00bf 5e83 93bf 76c1 83bf
00000340: beda 203e 6d00 c63e 029e 22bf 0358 98bf
00000350: af0a 063e 4784 d43f 88dc d33f 96e0 b0be
00000360: ea3b df3f 463d 0ebf 2a21 4bbf 56f0 0abd
00000370: 492e 4c3e 0884 8dbf 35c0 93be 8be5 10bf
00000380: 8576 83bf c204 26be 6522 523f 09a4 eebd
00000390: cd04 a7bf f623 293d 58a8 1cc0 5660 873f
000003a0: 7722 15bf 2547 06be 9b60 b13d c964 05bf
000003b0: 0d7e f9be 0fe5 adbc 0081 8f3e a14c 64bf
000003c0: c12d 87bf eb48 183f 4e45 593f 3a9b 5e3f
000003d0: d7e5 eabd 32b9 4e3e 7ba0 5a3f 6e62 f43e
000003e0: 97f1 09c0 2203 193e 9cef eebe aa57 aabf
000003f0: 168e 653f 7aff ac3c d6ee 1f3f 20bf c6bd
0.8169416 -0.34733766 0.9313971 1.5869913 0.8629762 1.0667629 -0.35627958 1.3093307
-0.23092742 0.4665378 -0.7865111 -1.1750172 -1.3449043 0.37281808 -0.28237978 -1.6434562
0.17967339 1.5921794 0.5348948 0.5518561 1.0322689 0.9101721 -0.32799667 1.1215554
-0.440906 0.71105546 0.3098769 0.27621016 1.6040685 -0.95159197 0.47447467 -1.700749
1.6125407 -0.58934355 -0.8536128 0.6233614 -0.25968447 0.96752053 -0.390521 0.5201852
-1.8647716 -0.12511939 -0.18422753 -0.14006805 -2.0114794 1.0237889 1.1935321 0.8811598
0.123335876 -0.9859674 0.6031816 0.8039094 1.5030621 0.7425684 -0.33839148 -0.6220639
-1.4198054 -0.13603078 -1.5679919 -1.1564023 -1.3143018 1.0445049 -0.7047041 -1.7189145
-1.2868978 0.07407861 0.2536287 -1.3507869 1.044062 -0.4671206 0.46477365 0.300332
-0.073841535 -1.3757817 1.4158884 -0.38750014 0.49490044 -0.40585724 -0.10736548 -0.1260706
0.7472721 1.9525207 -0.84814733 0.928766 -0.60265625 0.5971499 -0.2896276 0.3576151
0.07928579 -0.39950305 -1.727912 1.5257323 0.44240627 0.3195879 0.7689501 0.9906664
-0.07598772 -2.0303247 -0.6075353 0.037471864 1.017453 -1.9208453 0.9850477 0.76627284
1.0115476 -0.22405106 -0.8261553 0.27236438 1.1294118 0.85540986 0.54097074 1.7697126
0.9522792 0.9052006 -0.7723418 -0.23510934 -1.2609581 -0.13128276 -0.76151866 -1.0968068
-1.2837114 0.48275322 0.084224366 0.835403 0.87815 0.6771038 -0.14805631 1.1574717
-0.90660256 -1.8268756 0.42507157 1.6704116 -0.97560626 1.2985944 0.7846745 0.10352469
0.8513741 0.04876 -1.2663718 -0.113546535 0.11692362 -0.6338945 1.1622591 -0.8870914
0.06429125 0.19697197 -0.35970727 -0.6237737 0.4958633 0.33842158 0.767587 -0.61038834
-0.5601271 0.88951766 1.5690466 1.675827 0.9734382 0.071408935 -0.34292153 -0.8582666
-0.21068959 -0.036964476 0.9125309 -0.25179732 -0.84478134 1.1528308 0.90475446 0.20018299
-0.8496428 -0.7269981 1.5101768 -0.84065264 0.048551008 1.7533598 -1.0563247 -1.4970831
0.8679756 -1.1287268 -0.0459153 -0.8636937 0.12458041 -0.15483959 1.6671401 1.2844734
0.20708299 0.021918293 0.1593977 0.15801018 -0.1770764 -1.1205276 -0.5155447 0.72494364
-1.5380011 0.47299537 1.9753499 1.4921349 1.3927667 -0.44852656 -0.83151907 -0.43980846
-0.799374 -0.35261834 1.2674016 -0.75565 1.0714589 -0.5004328 -1.1524465 -1.0293415
0.15708444 0.386722 -0.6352235 -1.1901859 0.13090013 1.6602868 1.6551676 -0.34546345
1.7440159 -0.55562246 -0.7934748 -0.03392061 0.19939531 -1.1055918 -0.2885758 -0.56600255
-1.0270544 -0.16212752 0.8208373 -0.11652381 -1.304834 0.04129406 -2.447775 1.0576274
-0.58255714 -0.13113077 0.08661004 -0.5210691 -0.48728982 -0.021227388 0.28028107 -0.89179426
-1.0560838 0.59486264 0.84871376 0.86955607 -0.1146962 0.20187834 0.85401124 0.47731346
-2.1553705 0.14942601 -0.46667182 -1.3308003 0.8966993 0.021117914 0.6247381 -0.09704423

policy.kernel_embedding_generator_bias f4 [1024]
00000000: 3061 fb3e ef7e 383f ea0e 16bf 3957 643f
00000010: d997 52be 3c43 a0bf edd0 57be f733 dabf
00000020: 9773 243f 4e97 cd3f 503d 013e fac9 b03f
00000030: 582e 8abf ac65 37bf 4245 373f 7b0f b03f
00000040: 33d8 d13e 55ac 62bd e89d 70bf 262a e2bd
00000050: 0d46 c83f 6b14 263e ef94 ecbe ecd0 c4be
00000060: a2f9 d83e dc05 f43e 004e afbe 68e4 963f
00000070: 898b 91bf 17b4 f1bd 75f9 80bf 3e74 16bf
00000080: 091d dcbf cc06 53be ebcf 2bbf b365 a7bf
00000090: 3eb0 fa3b fe44 52bf 0072 aa3d df9b 16c0
000000a0: 66ca 183f fada 47bf a015 323f 1770 c33f
000000b0: 58c6 663e f06e 0a3f 5f8e 473e 9f40 8abc
000000c0: 672b 233f 93e9 b43f 113b 063f 4a1c 663f
000000d0: 627f 21bf 73d3 cd3e fa91 54bf 1375 cd3d
000000e0: a8da 96bf fb97 a5bd 99c4 76bf 0e79 c23e
000000f0: 36d6 91bf 1b77 e9be bbde f03d 328e 87be
00000100: 73f5 a6bf 4cd5 a03e 752b ab3d 3c9b 393d
00000110: 9ac6 c13e 0aa6 37bf 46ea a8bf 3b7d 0fbf
00000120: 695f ec3c a1d3 c8be 2c9a 16bf aba0 4dbf
00000130: 4ab4 553f 3428 e1bf 6f93 153f 6f9b 89bf
00000140: 4d5f eebf e51f adbf 3112 993f 929a 593f
00000150: 5b1c d33f bf35 3fbf 5ce4 543f 7812 d9bd
00000160: a635 613f 5a45 913d 0ee6 cebd c686 523f
00000170: 64ff 873f 49af b93f ecaa 9bbf bdca 943f
00000180: 2ec1 97be d19f ccbe 9c55 1e3f 9c2f 52be
00000190: f8b2 de3f 8eea d23e 7d62 f03e 85f7 8c3f
000001a0: cdab 703f 5205 de3d 84a4 ba3f 70a3 b03f
000001b0: cc8e 1bbf d857 b2bf bb6f 1ebe d5bc 90bf
000001c0: 6dfe f7be 2a5e 92bf 0832 9e3e 2fc4 a8bf
000001d0: 7e77 debe e3e6 7a3e a676 babf 5dbe a5bf
000001e0: 3f3a 3f3d 94f5 433f 9052 44bf a5d6 5e3f
000001f0: d446 a43f 576c 8abf 22bb 803f 2018 b8bf
00000200: 90fa 49be 4759 93be f19f 6c3f 2c92 a33f
00000210: a303 f5bd 7d54 b33f 6979 693f 73e4 ae3e
00000220: a8ed 9f3d 9095 f03f 981a a4bf 5a51 bbbe
00000230: 1539 003f f679 b93e 71de a4bf 7b3d cebd
00000240: ebe6 b73f 7c61 71bf c61d 10bf 9bc6 ac3f
00000250: fc95 51bf e9ea 7cbe 7591 853f c990 1bbf
00000260: e15f 08c0 07ae a93f 9bb4 413f 3c67 2d3c
00000270: 08ee 2fbf 5aba 20bf 8590 1bbf c3d2 e73f
00000280: 7145 213f 1221 6c3d 4e85 1fbf 8892 843f
00000290: 85d0 a5bf 17ae ad3e cf87 b23f 4d4d 7b3e
000002a0: 2100 ad3e 8b8d 183f 5a45 31bf b522 123f
000002b0: 5d39 4b3f 4b02 01bd 5eb1 dabe 6b48 e1bd
000002c0: 247b 913e 625c 80bf b0d0 0a3f d770 913d
000002d0: 622c 61bf 4535 8f3f 4112 763e 7686 9a3f
000002e0: e9fd 993f 7700 b13d 3aee 35bf e963 2e3e
000002f0: 751b 453e b91d a73f 3de0 3fbf 7df3 4e3f
00000300: a034 a1bf f7d6 3ebf c638 ac3c 6661 5e3e
00000310: 670a 2fbf c219 7c3f 8333 7ebe c73b ec3c
00000320: 655d 9d3e 4ad9 e4be 1c49 98bf db7d f33e
00000330: 347d c13e beba cd3f 57a3 28bf 2342 ddbe
00000340: a5d7 8bbd f9c3 a7bd c03b 203e 8b5e b3bf
00000350: 67fe 3cbf 9756 89be 81eb 2dbf 8faf 983f
00000360: 51d4 65be 10b6 fdbe 4d57 ddbf fcf4 1c3f
00000370: df8c 82bf b927 acbf 649c cc3f 38ac 753f
00000380: afb7 87bf d8df 813f 503f 373f 3457 d6bd
00000390: 2628 983f 3270 573d ce74 df3e 1087 fa3f
000003a0: 9fea 7f3f 9755 afbf f808 1dbf 30e5 28bf
000003b0: bb49 f93e baf0 8bbf c3eb 833f 05d7 0bbf
000003c0: 32c3 963f f22d 76be ec64 a7bd bf84 2dbf
000003d0: 4d0b a93e 8eb6 763f df8a ccbe 6a8a 093e
000003e0: fc03 393f 1570 4e3f 011f 983e 259b c6be
000003f0: 36b5 ca3d 1ac2 09ba faa5 40bf 5d72 cabd
0.49097586 0.72068685 -0.5861651 0.8919559 -0.20565738 -1.2520518 -0.21075793 -1.7047108
0.64238876 1.60618 0.12621045 1.3811638 -1.0795393 -0.71639514 0.71590054 1.3754724
0.4098526 -0.05534013 -0.93990946 -0.110431954 1.5646378 0.16218726 -0.46207377 -0.38440645
0.42377955 0.4766072 -0.34239197 1.1788454 -1.1370708 -0.118019275 -1.0076128 -0.5877112
-1.7196361 -0.20608062 -0.6711413 -1.3077911 0.0076504042 -0.82136524 0.08322525 -2.3532636
0.59683836 -0.78068507 0.6956425 1.5268582 0.225366 0.5407553 0.19487904 -0.016876517
0.637381 1.4133781 0.5243388 0.89886916 -0.63084996 0.40200385 -0.8303524 0.10032096
-1.1785479 -0.080856286 -0.96393734 0.37982982 -1.1393497 -0.45598683 0.117612325 -0.26475674
-1.3043655 0.31412733 0.08357898 0.04531406 0.37846833 -0.7173773 -1.3196495 -0.5605046
0.028854089 -0.3922396 -0.58829 -0.80323285 0.83478224 -1.7590394 0.5842809 -1.075056
-1.8622833 -1.3525358 1.1958677 0.8500148 1.6493028 -0.74691385 0.8316095 -0.10599226
0.87972486 0.07093306 -0.10102473 0.822369 1.0624814 1.4506618 -1.2161536 1.1624371
-0.29639572 -0.3996568 0.6184938 -0.20525974 1.7398367 0.41194576 0.4695014 1.1013037
0.9401215 0.108408585 1.4581456 1.3799877 -0.60764766 -1.3933058 -0.1547231 -1.1307627
-0.484363 -1.1434987 0.30897546 -1.318487 -0.4345054 0.24502139 -1.4567459 -1.2948719
0.046686407 0.765466 -0.7668848 0.8704627 1.2834115 -1.0814313 1.0057108 -1.4382362
-0.19724488 -0.2877905 0.9243155 1.2778983 -0.11963584 1.4010159 0.9120088 0.34158668
0.07809001 1.8795643 -1.2820616 -0.36585504 0.500871 0.3622586 -1.2880384 -0.1007032
1.4367346 -0.94289374 -0.5629543 1.349811 -0.81869483 -0.24698986 1.0435015 -0.607678
-2.130852 1.3256234 0.7566621 0.010583695 -0.6872258 -0.6278435 -0.60767394 1.8111194
0.62996584 0.057648726 -0.6231278 1.0357218 -1.295426 0.33921883 1.3947695 0.24541207
0.3378916 0.5959098 -0.6924645 0.5708421 0.79384404 -0.031496327 -0.42713445 -0.11000141
0.2841426 -1.0028193 0.5422468 0.071016006 -0.8795835 1.1188132 0.24030401 1.2072284
1.2030612 0.08642667 -0.7106663 0.170303 0.19248755 1.3055946 -0.74951535 0.80840284
-1.2594185 -0.7454676 0.021023165 0.21716842 -0.6837525 0.98476803 -0.24824338 0.028837098
0.30735317 -0.44697028 -1.1897311 0.47556958 0.37790835 1.6072614 -0.65874237 -0.4321452
-0.0682824 -0.08191676 0.15647793 -1.4013227 -0.7382569 -0.26823875 -0.67937475 1.1928576
-0.22444274 -0.49552965 -1.7292267 0.61311316 -1.019924 -1.3449622 1.5985227 0.9596591
-1.0602931 1.0146437 0.7158098 -0.104658514 1.1887252 0.052597232 0.43643802 1.9572468
0.9996738 -1.3697995 -0.6134181 -0.6597471 0.48689064 -1.0932839 1.0306324 -0.5462497
1.1778319 -0.24040964 -0.08173546 -0.6778068 0.33016434 0.96372306 -0.399497 0.13431707
0.72271705 0.80639774 0.29711154 -0.3879024 0.098978445 -0.00052550586 -0.7525326 -0.09885094

policy.state_update.update_mem.weight f4 [32, 32]
00000000: 7477 d6bd f799 c3bd 92b1 733e 8b74 18bf
00000010: 55bd b6bc 0da2 003f d471 ac3e 292c 983e
00000020: 92e6 893e d454 3ebf 8a1f 11bc c014 fe3e
00000030: 2544 d43e dd27 f43d 6fe2 a6bd bd6e 993f
00000040: 094b 343f dbab 08bf b19a 22bf 5c51 99bd
00000050: 2dcc 833d 705d 413f 1e32 56be d9ec 70be
00000060: 2984 de3e 3798 2fbe 5cdb 303f d56a dbbe
00000070: 5ae0 b03d 1e83 a2be 9035 973e 8b8c db3e
00000080: 0a3d 833d 9479 c83e bbee bb3d 86d3 0a3f
00000090: e59c f0bc 7355 013f 320e b4be c43d 6fbc
000000a0: d25f 18bf 63d0 f83e a06c 023f d379 273f
000000b0: 88bd 643c c7b9 86bd 0341 d4be 3922 473e
000000c0: ec8b 3cbf 580d 75be 2ed9 56be 6868 d33e
000000d0: 5df7 acbd ec92 2ebe a78f 18bf 524a 9cbe
000000e0: 4c24 04bf 6cea 2cbe 156a 44bd fa7d 6dbe
000000f0: 7184 153e a236 86bd ff09 e43e 6103 9c3e
00000100: 6258 5a3e f418 82bc 560d a73e 3edc ee3e
00000110: 3e14 633e 556d 293e 47e6 46be 5953 233e
00000120: 6949 873e 2a43 8dbd 0317 433f 938d 183e
00000130: d12f 673e 16a4 05bf 18a5 013f 1911 08bd
00000140: e7af 1e3f 35f3 1e3e f302 243e aa32 83bd
00000150: d1cb f43e 0f16 9f3d 7262 a63e 87e4 8f3f
00000160: 2d1c ce3e 2f00 153d ffa3 48be 243e b63d
00000170: b53f f13d 9be3 663d 621d 3a3f 23ef 833e
00000180: e3dd 673d 2cb5 d1bd ebc5 0fbf 2b1e a7be
00000190: ff06 12bf d647 ba3d 7f5a c53e ba65 d63e
000001a0: 6019 76bf ea00 92be ffed cabe dee1 8fbe
000001b0: 9a08 9ebe 41e3 423e cd55 49bf dfef 81be
000001c0: 6c84 c73e 5598 703e 1436 293d adf6 bb3c
000001d0: 1724 fc3b 9b98 dd3e d488 78bd 34a5 0ebe
000001e0: 0692 463e 205f 1a3d 71de 56bf 0892 e83e
000001f0: 983e 1dbf 85da e23e 6e82 133f 3e42 1ebf
00000200: 4748 85be fa0b 16bf 1163 14be fc44 a9be
00000210: 92f9 b2bd b626 823d 42d7 46be 098e a1be
00000220: f527 a1be febc 4f3e f70d 863e 713e 203e
00000230: eb67 343d 568c e9bd 52a1 8d3d 8be7 243d
00000240: 8478 6b3e 00e6 3fbf c84b e3bb bad9 adbe
00000250: 7440 7dbe 2590 573f 0508 913e 99b0 25bf
00000260: 00ae 583f 4022 a8be f765 1dbe dafa 813d
00000270: e0b9 1bbf 6de8 ae3e c092 33be 470a bcbe
00000280: 60a6 323d 55df 7d3d 14e6 393e e5db e13e
00000290: 3bea 0d3e f1fa c1be 9990 783e 86c5 d1be
000002a0: 93a4 d7bb 437d 4f3f 70a0 eebd e0c5 02bf
000002b0: d536 963e b9fe 4e3f 4777 dabc c416 2cbe
000002c0: 3974 98bd e61a 17bf 48cd b63d 2eeb ce3e
000002d0: 7cbf a53e cf20 99bd 42f7 913e 6121 703e
000002e0: 58d3 8e3e 3f39 073f cf70 003f fe7e f6be
000002f0: 34e9 14bf 28c4 c4be 209a 6d3f f8f3 3d3e
00000300: 18c6 953e aa7c 11bf 8810 943e ae59 55bd
00000310: 71c9 8d3e f1ad 943e ca0c c4be 00f9 b83e
00000320: 8903 9dbe e1b1 55bd 1a66 d7be 4da5 32be
00000330: cd50 ce3e d75d 2bbf 70e6 673e b002 213e
00000340: fef9 173f 555a 403f ccb7 22bd 309d 993d
00000350: 0d64 c6be 175b a5be 49a1 4c3e 52ab 82be
00000360: 9024 343e de30 e53e 3567 ce3e f449 25bf
00000370: 11c5 e03c 13ae d03e 3f3c 29be 7499 e0bd
00000380: 7e5a 15be 1c62 ca3e f58b c23e 3de3 ecbd
00000390: 1401 183f 1951 823e cc02 e43d 1099 c6bb
000003a0: 36eb 67bc b016 313e 0d41 bd3e fb2e 3cbe
000003b0: 4e9b d83e 2ad6 af3e 7ad9 9f3e 7b11 25be
000003c0: 11d7 aa3e be9e 88bc c2e0 9d3e 5c3b fa3c
000003d0: 3474 3fbd d2e8 54be 7dd9 973e db29 0ebc
000003e0: ffab 093f 27f3 93be 5c00 14be be89 e0bc
000003f0: 177b 4a3e c032 b43d 3e73 92be 43a8 bb3e
-0.104720026 -0.09550851 0.23798206 -0.5955283 -0.022307077 0.5024727 0.33680594 0.29721192
0.26933724 -0.7434819 -0.008857617 0.49625206 0.4145824 0.11921666 -0.081486575 1.198692
0.70426995 -0.5338723 -0.6351729 -0.07486221 0.06435428 0.755332 -0.20917556 -0.2352785
0.43460205 -0.17147909 0.69084716 -0.42854944 0.08636542 -0.3174066 0.29533052 0.42880663
0.06408127 0.39155257 0.091763936 0.5422901 -0.029371688 0.5052101 -0.3516708 -0.014602128
-0.5952121 0.48596486 0.50947 0.65420264 0.013961203 -0.06578403 -0.4145585 0.19446649
-0.73651004 -0.23930871 -0.20981285 0.41290593 -0.08445618 -0.17048234 -0.59594196 -0.30525452
-0.51617885 -0.168863 -0.04795273 -0.23192587 0.14601304 -0.06553389 0.44538876 0.30471328
0.21322778 -0.01588104 0.32627362 0.46652406 0.2217569 0.16545613 -0.19423781 0.15949763
0.26423195 -0.06897576 0.7620699 0.14897756 0.22576834 -0.522035 0.5064254 -0.03321943
0.61987156 0.15522464 0.1601675 -0.06406148 0.4781175 0.07767879 0.32496983 1.1241616
0.4025587 0.03637713 -0.1959381 0.08898571 0.11779729 0.056369405 0.72701085 0.25768384
0.056608092 -0.10239634 -0.56161374 -0.32640204 -0.57041925 0.09095733 0.38545606 0.41874486
-0.9613247 -0.28516322 -0.39634702 -0.2810201 -0.30865937 0.19032003 -0.78646547 -0.2537832
0.38968217 0.2349561 0.04131134 0.022944773 0.007694732 0.4328049 -0.060677364 -0.13930207
0.19391641 0.037688375 -0.8393317 0.45423913 -0.61423635 0.44307342 0.57620895 -0.6181983
-0.26031706 -0.58612025 -0.14490916 -0.33060443 -0.08739008 0.0635504 -0.19418052 -0.31553677
-0.31475797 0.20286939 0.2618253 0.1564882 0.044044416 -0.1140372 0.06915535 0.04025988
0.22995192 -0.7496033 -0.006936524 -0.33955175 -0.24731618 0.8420432 0.2832643 -0.6472259
0.846405 -0.3283863 -0.15370928 0.06346674 -0.608305 0.34161702 -0.1753645 -0.3672659
0.0436157 0.061980564 0.18154174 0.4411308 0.13858883 -0.37886766 0.2427391 -0.4097101
-0.006580898 0.8105051 -0.11651695 -0.51083183 0.2933871 0.80857426 -0.026668204 -0.1680556
-0.07444043 -0.5902542 0.08925873 0.40413803 0.32372653 -0.07476961 0.28508955 0.23450233
0.27895617 0.52821726 0.5017213 -0.48143762 -0.5816834 -0.38430905 0.928133 0.18550098
0.29252696 -0.5683085 0.28918862 -0.05208748 0.2769275 0.29038957 -0.38291007 0.36127472
-0.3066676 -0.05217159 -0.42070085 -0.1744587 0.4029602 -0.66940063 0.22646499 0.15723681
0.5936583 0.75137836 -0.039726064 0.07500684 -0.38748208 -0.3229606 0.199834 -0.25521332
0.17592072 0.44763845 0.40313116 -0.6456597 0.027437719 0.40757808 -0.16526888 -0.10966769
-0.14585301 0.39527977 0.37997404 -0.1156678 0.59376645 0.25452498 0.11133346 -0.006060727
-0.0141552 0.17293811 0.36963692 -0.18377297 0.42305988 0.34343082 0.3122061 -0.1611995
0.33367208 -0.016677257 0.3083554 0.030545883 -0.04674168 -0.20791939 0.29658118 -0.008676971
0.5377807 -0.28896448 -0.14453262 -0.02740943 0.19773518 0.08798742 -0.28603548 0.3665181

policy.state_update.update_mem.bias f4 [32]
00000000: 7b4b 023e a0b9 1fbe 32b5 3dbe 3a03 753e
00000010: 681c 063e 7292 333e 8402 203e ae35 ea3d
00000020: 1e2d 0b3e f513 ecbd 8fe6 e13d 3c95 3fbe
00000030: 3783 323e e155 163d a32d 8f3e c45b 753d
00000040: 0c49 96bd 0af4 cc3c 39f3 ef3d 507a 193e
00000050: 2d46 8d3c 9310 3cbd c71e 8c3e ca50 8ebd
00000060: f059 383e 1722 853e 805a 6a3d 7886 153f
00000070: c8d0 aebb 1c51 a2bd 4b00 0a3d f7be 353e
0.12724106 -0.15598154 -0.18526152 0.23927012 0.13096774 0.17536333 0.1562596 0.1143602
0.1359143 -0.11527244 0.11030304 -0.18709272 0.17432867 0.036702994 0.27964506 0.059901968
-0.07338151 0.02501871 0.11716313 0.14988065 0.017245376 -0.045914244 0.2736723 -0.06949003
0.18003058 0.2600257 0.057215214 0.5840831 -0.0053349473 -0.07925627 0.033691686 0.17748629
